Endless Runner/Assets/results/ppo/My Behavior/My Behavior-0.pt (torch, 208391 bytes, 10 tensors)

network_body._body_endoder.seq_layers.0.weight f4 [128, 64]
0	0x3e51086c	0.20413369
1	0x3dd05e86	0.10174279
2	0x3d865c16	0.06560533
3	0xbe775951	-0.24155165
4	0xbc87dbe7	-0.01658435
5	0x3d729421	0.059223298
6	0xbdb5c532	-0.08875503
7	0xbe934e4a	-0.28770667
8	0xbe011fd2	-0.12609795
9	0x3c0d8de2	0.0086397845
10	0xbc0f2406	-0.008736616
11	0xbceb1f2d	-0.02870139
12	0xbd61cfb5	-0.055129725
13	0xbdf24f14	-0.11831489
14	0x3de4f74a	0.11179979
15	0x3c05d8c7	0.0081693595
16	0xbe502e4d	-0.20330162
17	0xbb88cab3	-0.0041745543
18	0x3d5250bc	0.051346526
19	0x3e93c5db	0.2886189
20	0xbe64887f	-0.22317694
21	0x3d27e027	0.040985253
22	0x3dd3cb9f	0.10341572
23	0x3da42c76	0.08016293
24	0xbd4fa79d	-0.050696958
25	0x3d080242	0.03320528
26	0xbdc26110	-0.094911695
27	0x3d42bd20	0.047543645
28	0xbd4008a9	-0.04688326
29	0xbd3112f6	-0.043230973
30	0x3de6ee44	0.11275914
31	0x3db30c41	0.087425716
32	0x3d86e697	0.0658695
33	0xbd7460fc	-0.059662804
34	0x3e46796f	0.1938226
35	0xbe38d4bd	-0.18049903
36	0x3e66daf7	0.22544466
37	0xbdfa714f	-0.12228643
38	0xbe002ec1	-0.12517835
39	0xbcb49b35	-0.022046665
40	0x3d38be7f	0.045103546
41	0xbe4477a4	-0.19186264
42	0x3da5c4c6	0.08094172
43	0x3c125986	0.008932477
44	0xbb99d76b	-0.0046948693
45	0x3deb00af	0.1147474
46	0xbe867659	-0.26262167
47	0x3d90e68e	0.07075225
48	0x3c89aaa8	0.016805008
49	0x3ccc0975	0.024906853
50	0x3d27e3bd	0.040988673
51	0x39048aec	0.00012640253
52	0x3c8ee01d	0.01744085
53	0xbd4c9860	-0.049950004
54	0x3deb8b8e	0.11501227
55	0x3d8668fd	0.06562994
56	0x3b91c4f2	0.0044485265
57	0x3e010fd3	0.12603693
58	0x3cf6c9e1	0.03012556
59	0x3d9635e3	0.07334497
60	0xbdf4df69	-0.119566746
61	0x3e5912fb	0.21198647
62	0xbd47999f	-0.04873049
63	0x3bdb3208	0.006689314
64	0xbe5be0f4	-0.21472532
65	0x3d8e499b	0.06947633
66	0xbde5845b	-0.112068854
67	0xbcbfb945	-0.023403773
68	0xb9a96a9f	-0.0003231363
69	0xbe23ce91	-0.15996768
70	0xbddb516c	-0.10708889
71	0xbdfe2c39	-0.124107786
72	0x3e6fbd37	0.23412023
73	0xbdb033f6	-0.08603661
74	0xbdcbae56	-0.09945361
75	0xbd82a604	-0.06379321
76	0x3dc76515	0.09736077
77	0x3e3df596	0.18550715
78	0x3c7ba8ec	0.015360098
79	0xbcc0c50d	-0.023531461
80	0x3d93323f	0.07187318
81	0x3dfeba70	0.12437904
82	0xbcf94ad5	-0.03043119
83	0xbe746666	-0.23867187
84	0x3e0a95c3	0.13533692
85	0xbdba7061	-0.09103466
86	0x3dc2db4f	0.09514486
87	0x3c8caa5d	0.01717108
88	0xbda65a13	-0.08122649
89	0xbd0d7ddb	-0.034543853
90	0x3e8162ba	0.25270635
91	0x3da0c065	0.07849196
92	0x3dbea50b	0.09308823
93	0xbdb31447	-0.08744102
94	0x3bae3ada	0.0053170742
95	0x3e188ed6	0.14898238
96	0xbcb97a34	-0.022641279
97	0x3e112046	0.14172468
98	0x3ddf6b91	0.109091885
99	0xbc8036c7	-0.01565112
100	0xbd6f943c	-0.058490977
101	0xbe18d3d5	-0.14924558
102	0xbe731c7e	-0.23741338
103	0x3dbe00d2	0.092775
104	0xbe656200	-0.22400665
105	0xbc247eaf	-0.010039969
106	0x3c56c71c	0.013108995
107	0x3d78d946	0.060754083
108	0x3d57696e	0.05259078
109	0xbe53f7c1	-0.2069998
110	0x3e1cbaab	0.15305583
111	0xbd9375c6	-0.07200198
112	0xbcd5f540	-0.02611792
113	0x3e3258be	0.17416665
114	0x3e2d03d8	0.16895998
115	0x3c935424	0.017984457
116	0x3c19000b	0.009338389
117	0xbd7af5c2	-0.06126953
118	0xbca93e94	-0.020659722
119	0xbe7eb4f4	-0.24873716
120	0x3d080ea1	0.033217076
121	0x3e39c496	0.18141398
122	0x3b8e4913	0.004342207
123	0x3e588fc0	0.21148586
124	0x3ce52f38	0.027976617
125	0x3d3f763d	0.04674362
126	0x3cd9adcf	0.026572136
127	0xbd509cec	-0.050930902
128	0xbc66568f	-0.014058723
129	0xbdf449c4	-0.11928132
130	0x3da1c8ac	0.07899603
131	0x3e1b29fa	0.15152732
132	0xbe9629ff	-0.29328915
133	0x3b75ff9f	0.0037536395
134	0x3c67bed2	0.014144616
135	0xbe37cae6	-0.17948493
136	0xbe27fa5f	-0.16404103
137	0xbc2ffc76	-0.010741344
138	0xbe057387	-0.13032351
139	0x3acafb37	0.0015486245
140	0x3cb660d2	0.022262964
141	0x3da853ff	0.08219146
142	0xbd4ab761	-0.04949129
143	0xbde58ba2	-0.112082735
144	0x3bdd5e89	0.0067556542
145	0xbe0ded1b	-0.1385998
146	0x3b99da6c	0.0046952274
147	0x3dc50198	0.096194446
148	0x3e1574da	0.14595357
149	0x3e42de2a	0.19030061
150	0xbe85b2cd	-0.26112977
151	0xbcd838f8	-0.026394352
152	0x3e0d338e	0.13789198
153	0x3b49a9e8	0.0030771438
154	0x3d45730c	0.04820542
155	0x3d83c80f	0.064346425
156	0xbdcfb2fb	-0.1014156
157	0x3dcb68aa	0.099320725
158	0x3e2847e0	0.16433668
159	0xbc075d7a	-0.008262033
160	0x3e769330	0.24079585
161	0x3e213537	0.15742956
162	0xbe07f501	-0.13277055
163	0xbd275d9d	-0.04086076
164	0x3db43c0d	0.08800516
165	0xbdede244	-0.11615422
166	0xbe1012f0	-0.14069724
167	0x3cee3008	0.029075637
168	0xbe1d4a45	-0.15360363
169	0xbc64f6a3	-0.013974818
170	0x3da4c14e	0.080446824
171	0x3cb9fb7a	0.022702921
172	0x3daa7344	0.083227664
173	0x3e09ad7c	0.13445085
174	0x3db1b834	0.08677712
175	0xbcf0d3e1	-0.029397907
176	0xbd064d84	-0.03278877
177	0xbbb2b06e	-0.005453161
178	0x3db76dbf	0.08956479
179	0xbc949bad	-0.018140638
180	0xbdf950c5	-0.12173609
181	0x3dd75a84	0.10515311
182	0xbd30de80	-0.043180943
183	0x3d2c1ca5	0.042019505
184	0xbe266b2f	-0.16251825
185	0x3dd323bc	0.1030955
186	0xbe04a603	-0.12953953
187	0x3dcfb912	0.10142721
188	0x3dcf46f9	0.10120959
189	0x3cd932da	0.026513506
190	0x3dea84a2	0.11451079
191	0xbd923b2d	-0.07140193
192	0x3d046c84	0.03233005
193	0x3dd0886e	0.10182272
194	0x3e85b5e2	0.26115328
195	0xbd990e50	-0.07473433
196	0xbdf8f189	-0.12155444
197	0xbcd38da7	-0.025824381
198	0xbc800226	-0.015626024
199	0xbd9da639	-0.0769772
200	0xbdc5b9a1	-0.096545465
201	0xbde56983	-0.112017654
202	0x3d733d68	0.059384733
203	0xbbb34198	-0.005470466
204	0xbb883407	-0.004156593
205	0xbe17fc88	-0.14842427
206	0xbe2aa8d1	-0.16665961
207	0xbd87156a	-0.06595881
208	0xbe7f3f08	-0.24926388
209	0x3e210d2e	0.15727684
210	0xbca87e1a	-0.020567942
211	0x3e0f5cbb	0.14000218
212	0xbe31ffbe	-0.17382714
213	0xbd4fb887	-0.05071309
214	0x3c7c4726	0.0153978225
215	0xbde1b836	-0.110214636
216	0xbc62ec09	-0.0138502205
217	0xbd55ea5f	-0.052225467
218	0x3d795ac5	0.06087758
219	0xbd040b05	-0.03223707
220	0x3e4e5c6a	0.2015244
221	0x3da624f1	0.08112515
222	0x3ce62633	0.028094387
223	0xbd3b28c7	-0.045693185
224	0x3dbd86ad	0.09254203
225	0x3cdb80ec	0.026794873
226	0xbe099fb8	-0.13439834
227	0xbc41f8b2	-0.011839079
228	0xbcec87cd	-0.028873349
229	0xbd82e59f	-0.06391453
230	0x3e73445a	0.23756543
231	0x3d94c3e4	0.07263926
232	0xbd27b6a9	-0.040945683
233	0x3c95ed19	0.018301534
234	0x3d056b88	0.032573253
235	0xbe510217	-0.20410953
236	0x3da893b9	0.08231301
237	0x3c5aea76	0.013361564
238	0xbe7c1cac	-0.24620312
239	0xbe1cfcb2	-0.1533077
240	0x3cb1894f	0.02167192
241	0xbbabe3bd	-0.0052456544
242	0xbdcbe5ef	-0.09955966
243	0xbca506da	-0.020144869
244	0x3c8b03d5	0.0169696
245	0xbd8d13a3	-0.06888511
246	0xbdce5e65	-0.10076598
247	0xbda0784e	-0.07835446
248	0xbded8b67	-0.115988545
249	0xbdc58b42	-0.09645702
250	0x3d0ba855	0.03409608
251	0x3e004faa	0.1253039
252	0x3d63fae8	0.055659205
253	0xbda02224	-0.07819012
254	0x3e419ea7	0.18908177
255	0x3e047856	0.1293653

network_body._body_endoder.seq_layers.0.bias f4 [128]
0	0x00000000	0.0
1	0x00000000	0.0
2	0x00000000	0.0
3	0x00000000	0.0
4	0x00000000	0.0
5	0x00000000	0.0
6	0x00000000	0.0
7	0x00000000	0.0
8	0x00000000	0.0
9	0x00000000	0.0
10	0x00000000	0.0
11	0x00000000	0.0
12	0x00000000	0.0
13	0x00000000	0.0
14	0x00000000	0.0
15	0x00000000	0.0
16	0x00000000	0.0
17	0x00000000	0.0
18	0x00000000	0.0
19	0x00000000	0.0
20	0x00000000	0.0
21	0x00000000	0.0
22	0x00000000	0.0
23	0x00000000	0.0
24	0x00000000	0.0
25	0x00000000	0.0
26	0x00000000	0.0
27	0x00000000	0.0
28	0x00000000	0.0
29	0x00000000	0.0
30	0x00000000	0.0
31	0x00000000	0.0
32	0x00000000	0.0
33	0x00000000	0.0
34	0x00000000	0.0
35	0x00000000	0.0
36	0x00000000	0.0
37	0x00000000	0.0
38	0x00000000	0.0
39	0x00000000	0.0
40	0x00000000	0.0
41	0x00000000	0.0
42	0x00000000	0.0
43	0x00000000	0.0
44	0x00000000	0.0
45	0x00000000	0.0
46	0x00000000	0.0
47	0x00000000	0.0
48	0x00000000	0.0
49	0x00000000	0.0
50	0x00000000	0.0
51	0x00000000	0.0
52	0x00000000	0.0
53	0x00000000	0.0
54	0x00000000	0.0
55	0x00000000	0.0
56	0x00000000	0.0
57	0x00000000	0.0
58	0x00000000	0.0
59	0x00000000	0.0
60	0x00000000	0.0
61	0x00000000	0.0
62	0x00000000	0.0
63	0x00000000	0.0
64	0x00000000	0.0
65	0x00000000	0.0
66	0x00000000	0.0
67	0x00000000	0.0
68	0x00000000	0.0
69	0x00000000	0.0
70	0x00000000	0.0
71	0x00000000	0.0
72	0x00000000	0.0
73	0x00000000	0.0
74	0x00000000	0.0
75	0x00000000	0.0
76	0x00000000	0.0
77	0x00000000	0.0
78	0x00000000	0.0
79	0x00000000	0.0
80	0x00000000	0.0
81	0x00000000	0.0
82	0x00000000	0.0
83	0x00000000	0.0
84	0x00000000	0.0
85	0x00000000	0.0
86	0x00000000	0.0
87	0x00000000	0.0
88	0x00000000	0.0
89	0x00000000	0.0
90	0x00000000	0.0
91	0x00000000	0.0
92	0x00000000	0.0
93	0x00000000	0.0
94	0x00000000	0.0
95	0x00000000	0.0
96	0x00000000	0.0
97	0x00000000	0.0
98	0x00000000	0.0
99	0x00000000	0.0
100	0x00000000	0.0
101	0x00000000	0.0
102	0x00000000	0.0
103	0x00000000	0.0
104	0x00000000	0.0
105	0x00000000	0.0
106	0x00000000	0.0
107	0x00000000	0.0
108	0x00000000	0.0
109	0x00000000	0.0
110	0x00000000	0.0
111	0x00000000	0.0
112	0x00000000	0.0
113	0x00000000	0.0
114	0x00000000	0.0
115	0x00000000	0.0
116	0x00000000	0.0
117	0x00000000	0.0
118	0x00000000	0.0
119	0x00000000	0.0
120	0x00000000	0.0
121	0x00000000	0.0
122	0x00000000	0.0
123	0x00000000	0.0
124	0x00000000	0.0
125	0x00000000	0.0
126	0x00000000	0.0
127	0x00000000	0.0

network_body._body_endoder.seq_layers.2.weight f4 [128, 128]
0	0x3c056aca	0.008143136
1	0x3d0487b8	0.032355994
2	0x3d24cc4a	0.040233888
3	0x3d8e4d15	0.06948296
4	0x3d2dc3a6	0.042422913
5	0xbcae565c	-0.021281414
6	0x3d13d009	0.03608707
7	0xbdd3fc24	-0.103508264
8	0xbcb9f898	-0.022701547
9	0x3e05fde1	0.13085128
10	0x3c06142b	0.008183519
11	0x3d75d775	0.06001993
12	0x3d341134	0.04396172
13	0xbdcfe90f	-0.10151874
14	0x3d487a21	0.048944596
15	0x3d1dffbf	0.038573977
16	0xbc0aeaa9	-0.008478799
17	0x3d2dc938	0.042428225
18	0x3c8ec595	0.017428199
19	0x3d36a248	0.044588357
20	0x3da86ef9	0.08224291
21	0xbd5ea6de	-0.054358356
22	0x3d5668dc	0.052346095
23	0xbdf26961	-0.11836506
24	0x3dba1c1a	0.09087391
25	0xbc992c7d	-0.018697971
26	0xbd8cafe5	-0.06869487
27	0x3b2d345a	0.002642891
28	0x3e1dd9e9	0.15415157
29	0xbb3443f2	-0.002750632
30	0x3dec1af2	0.11528577
31	0x3d355948	0.0442746
32	0x3d36ea87	0.044657256
33	0xbdfcacae	-0.123376235
34	0xbcbc4264	-0.022980876
35	0xbde8be2d	-0.11364398
36	0xbe2c9d81	-0.16856958
37	0xbcb0862d	-0.021548355
38	0x3c9a8892	0.01886395
39	0xbde1b562	-0.11020924
40	0x3c9cc4cf	0.019136814
41	0x3dd65e56	0.10467212
42	0xbd88d21b	-0.066806994
43	0x3e3958d5	0.18100293
44	0x3d2aa14d	0.041657735
45	0xbd060c69	-0.03272668
46	0xbdaebfab	-0.085326515
47	0xbd515549	-0.051106725
48	0xbcd2efbc	-0.02574908
49	0x3e004810	0.1252749
50	0xbd375e10	-0.04476744
51	0x3dd51588	0.104044974
52	0x3d39e4a6	0.04538407
53	0xbd35a05d	-0.044342387
54	0x3c09608f	0.008384838
55	0x3e21c8b0	0.15799212
56	0xbddc43f5	-0.10755149
57	0x3d09a087	0.033600356
58	0x3e040ba1	0.12895061
59	0x3d9830aa	0.07431157
60	0x3d4e31de	0.050340526
61	0xbd15e78d	-0.036597777
62	0x3db65c67	0.08904343
63	0xbdd9ddbf	-0.10637998
64	0x3c5b02d9	0.013367378
65	0x3cdbd32d	0.026834095
66	0xbe0ad776	-0.13558754
67	0x3d41c893	0.047310423
68	0xbd737d09	-0.059445415
69	0x3d2ad7c5	0.04170968
70	0x3e246da4	0.1605745
71	0x3d90189c	0.07035944
72	0x3dda48b8	0.10658401
73	0x3e04a164	0.1295219
74	0xbdbfecba	-0.09371324
75	0xbd704ebf	-0.058668848
76	0xbd2222f2	-0.039584108
77	0x3d7687fb	0.060188275
78	0xbe042fde	-0.12908885
79	0x3d3005aa	0.04297415
80	0xbd94c186	-0.07263474
81	0x3d8b1fb4	0.06793156
82	0x3d41cf9f	0.047317144
83	0xb98e9606	-0.00027196127
84	0xbd777bfe	-0.060420983
85	0xbdecb8cd	-0.115586855
86	0x3d7f213a	0.062287547
87	0x3cfa7b08	0.030576244
88	0xbd127cf3	-0.035763692
89	0xbcdadf58	-0.026717827
90	0x3db4cc7c	0.08828065
91	0xbd0c36d2	-0.03423197
92	0xbd403608	-0.04692653
93	0xbe26cf35	-0.1628998
94	0x3deca18d	0.11554251
95	0xbd788b8e	-0.060679965
96	0xbd918d4e	-0.0710703
97	0x3dbea8f6	0.093095705
98	0xbe37d1ee	-0.17951176
99	0x3d775fef	0.060394224
100	0x3e583234	0.21112901
101	0x3d8b7384	0.06809142
102	0xbd185a1a	-0.037195303
103	0xbd8e698f	-0.069537275
104	0xbd6c51fc	-0.057695374
105	0x3d1190f7	0.03553864
106	0x3e25b65d	0.16182847
107	0x3ce9fe05	0.028563509
108	0xbe090dd7	-0.13384186
109	0xbe157634	-0.14595872
110	0xbd466fac	-0.048446342
111	0xbbcc35af	-0.0062319855
112	0x3d58d243	0.052934896
113	0x3dc9fdbc	0.09862849
114	0xbde4361d	-0.11143134
115	0x3c944b14	0.018102206
116	0x3d7cbbb9	0.061702464
117	0xbbd8de4b	-0.0066182963
118	0xbc53ddd1	-0.012931303
119	0x3d5cc6d7	0.053900566
120	0xbdc9d2b6	-0.09854643
121	0xbdb0772e	-0.08616482
122	0x3b2deda7	0.0026539357
123	0xbdf2357f	-0.1182661
124	0xbdb92f3e	-0.09042214
125	0xbd82cfaa	-0.06387265
126	0x3d98e3f8	0.074653566
127	0x3c1e8e91	0.009677545
128	0xbdd17663	-0.102276586
129	0x3d94e4c7	0.07270198
130	0x3d508f43	0.050917875
131	0x3d3fe566	0.04684963
132	0xbdc02941	-0.093828686
133	0x3d202470	0.03909725
134	0x3c8762a5	0.01652653
135	0xbd110afe	-0.035410874
136	0xbd612b87	-0.05497315
137	0x3d0e9fe6	0.03482046
138	0xbe093cf5	-0.1340216
139	0x3cd191e2	0.025582258
140	0xbcbe0d0e	-0.023199584
141	0x3e1c21ed	0.15247317
142	0xbcd51080	-0.026008844
143	0xbbf0c537	-0.0073477286
144	0xbcc1f18c	-0.023674749
145	0xbd8eb74a	-0.06968553
146	0xbb425a9d	-0.002965606
147	0x3dcc7735	0.099836744
148	0xbe2d8431	-0.16944958
149	0x3d65deca	0.05612067
150	0xbd5ce5ad	-0.053929973
151	0x3cdb0df3	0.02674005
152	0xbc9bfdf3	-0.01904199
153	0xbdfb0f6c	-0.12258801
154	0xbd2b281a	-0.04178629
155	0x3d64cd63	0.055859935
156	0x3c78141f	0.015141516
157	0xbd054078	-0.032532185
158	0xbd289694	-0.041159227
159	0xbc304cfc	-0.010760542
160	0x3deb0d61	0.11477161
161	0x3d2f0585	0.042729873
162	0xbd671dce	-0.05642491
163	0x3d3b9d4e	0.045804314
164	0x3d1675ac	0.036733314
165	0xbc81db13	-0.015851533
166	0xbd045a0a	-0.03231243
167	0xbcc9a89c	-0.024616532
168	0x3da90a73	0.08253946
169	0xbd52b6ac	-0.05144374
170	0xbc33dd04	-0.010977987
171	0x3d09e6eb	0.033667486
172	0xbc4993ca	-0.012303302
173	0xbba18253	-0.004928866
174	0xbc0c1ba6	-0.008551514
175	0x3e4b3c2c	0.19847172
176	0x3d728161	0.059205417
177	0x3e3239d4	0.17404872
178	0x3d07232b	0.032992523
179	0xbdae9235	-0.085239805
180	0xbcebe86d	-0.028797353
181	0x3dba6072	0.09100427
182	0x3e1101d3	0.14160852
183	0xbdda7fe0	-0.106689215
184	0xbe3d5de4	-0.18492848
185	0xbdd042e1	-0.10169006
186	0x3d389966	0.045068167
187	0xbdcfe061	-0.10150219
188	0x3d684413	0.056705546
189	0xbd8ddf3e	-0.06927346
190	0x3da98ab0	0.08278406
191	0x3d8ffd6f	0.070307605
192	0x3d1c1d64	0.038113967
193	0x3bea5e41	0.007152349
194	0xbc7a6f02	-0.015285255
195	0x3e19c8d8	0.15018022
196	0x3d496640	0.04916978
197	0xbc789bae	-0.015173836
198	0xbd9decff	-0.07711219
199	0x3c84ead2	0.016225252
200	0x3e65fa77	0.22458826
201	0xbc6226d2	-0.013803201
202	0x3da106f8	0.07862657
203	0xbd0bf41f	-0.03416836
204	0xbdb3dcdd	-0.08782361
205	0xbc6ba07a	-0.014381522
206	0xbd8a232d	-0.067449905
207	0xbd6c7724	-0.05773081
208	0xbd5eba77	-0.054377045
209	0xbd0eb7c6	-0.03484323
210	0xbd72d8fa	-0.059288956
211	0x39b9ad3a	0.00035415014
212	0x3d9359e3	0.07194879
213	0xba797dda	-0.00095173495
214	0xbe1832ea	-0.14863172
215	0xbd53e942	-0.051736124
216	0xbd57ae00	-0.052656174
217	0x3d1ec392	0.03876073
218	0xbd9420b0	-0.07232797
219	0x3cd4e3fd	0.02598762
220	0x3daf53d8	0.08560914
221	0x3b187ae5	0.002326661
222	0xbd13b732	-0.03606338
223	0x3daa3d03	0.08312418
224	0x3d6e20be	0.058136694
225	0xbe09b7e3	-0.13449053
226	0xbe2a22e4	-0.16614872
227	0x3e05fedb	0.13085501
228	0xbdd483f9	-0.10376734
229	0x3da42770	0.080153346
230	0xbd171ea8	-0.03689447
231	0x3c3565aa	0.011071602
232	0xbc19f916	-0.009397766
233	0x3d9f6a91	0.07783998
234	0x3c98c6b6	0.01864944
235	0x3d1814b5	0.037129123
236	0xbd3cfdeb	-0.046140593
237	0xbdeb85d7	-0.11500137
238	0x3dc3b900	0.0955677
239	0x3df0c24f	0.117558114
240	0xbe29e6aa	-0.16591898
241	0xbddf227b	-0.108952485
242	0x3e0464c3	0.12929063
243	0xbe171a1a	-0.1475605
244	0x3d2b981e	0.041893117
245	0xbd7ea7cb	-0.06217174
246	0xbde49dfc	-0.11162946
247	0xbc8f7664	-0.017512508
248	0xbe5df901	-0.21677019
249	0x3c2752b4	0.010212589
250	0x3ded2fc6	0.11581378
251	0x3da74e8e	0.0816928
252	0x3cc12050	0.023574978
253	0xbda21c43	-0.07915547
254	0xbcff805c	-0.031189136
255	0xbd8eeba5	-0.069785394

network_body._body_endoder.seq_layers.2.bias f4 [128]
0	0x00000000	0.0
1	0x00000000	0.0
2	0x00000000	0.0
3	0x00000000	0.0
4	0x00000000	0.0
5	0x00000000	0.0
6	0x00000000	0.0
7	0x00000000	0.0
8	0x00000000	0.0
9	0x00000000	0.0
10	0x00000000	0.0
11	0x00000000	0.0
12	0x00000000	0.0
13	0x00000000	0.0
14	0x00000000	0.0
15	0x00000000	0.0
16	0x00000000	0.0
17	0x00000000	0.0
18	0x00000000	0.0
19	0x00000000	0.0
20	0x00000000	0.0
21	0x00000000	0.0
22	0x00000000	0.0
23	0x00000000	0.0
24	0x00000000	0.0
25	0x00000000	0.0
26	0x00000000	0.0
27	0x00000000	0.0
28	0x00000000	0.0
29	0x00000000	0.0
30	0x00000000	0.0
31	0x00000000	0.0
32	0x00000000	0.0
33	0x00000000	0.0
34	0x00000000	0.0
35	0x00000000	0.0
36	0x00000000	0.0
37	0x00000000	0.0
38	0x00000000	0.0
39	0x00000000	0.0
40	0x00000000	0.0
41	0x00000000	0.0
42	0x00000000	0.0
43	0x00000000	0.0
44	0x00000000	0.0
45	0x00000000	0.0
46	0x00000000	0.0
47	0x00000000	0.0
48	0x00000000	0.0
49	0x00000000	0.0
50	0x00000000	0.0
51	0x00000000	0.0
52	0x00000000	0.0
53	0x00000000	0.0
54	0x00000000	0.0
55	0x00000000	0.0
56	0x00000000	0.0
57	0x00000000	0.0
58	0x00000000	0.0
59	0x00000000	0.0
60	0x00000000	0.0
61	0x00000000	0.0
62	0x00000000	0.0
63	0x00000000	0.0
64	0x00000000	0.0
65	0x00000000	0.0
66	0x00000000	0.0
67	0x00000000	0.0
68	0x00000000	0.0
69	0x00000000	0.0
70	0x00000000	0.0
71	0x00000000	0.0
72	0x00000000	0.0
73	0x00000000	0.0
74	0x00000000	0.0
75	0x00000000	0.0
76	0x00000000	0.0
77	0x00000000	0.0
78	0x00000000	0.0
79	0x00000000	0.0
80	0x00000000	0.0
81	0x00000000	0.0
82	0x00000000	0.0
83	0x00000000	0.0
84	0x00000000	0.0
85	0x00000000	0.0
86	0x00000000	0.0
87	0x00000000	0.0
88	0x00000000	0.0
89	0x00000000	0.0
90	0x00000000	0.0
91	0x00000000	0.0
92	0x00000000	0.0
93	0x00000000	0.0
94	0x00000000	0.0
95	0x00000000	0.0
96	0x00000000	0.0
97	0x00000000	0.0
98	0x00000000	0.0
99	0x00000000	0.0
100	0x00000000	0.0
101	0x00000000	0.0
102	0x00000000	0.0
103	0x00000000	0.0
104	0x00000000	0.0
105	0x00000000	0.0
106	0x00000000	0.0
107	0x00000000	0.0
108	0x00000000	0.0
109	0x00000000	0.0
110	0x00000000	0.0
111	0x00000000	0.0
112	0x00000000	0.0
113	0x00000000	0.0
114	0x00000000	0.0
115	0x00000000	0.0
116	0x00000000	0.0
117	0x00000000	0.0
118	0x00000000	0.0
119	0x00000000	0.0
120	0x00000000	0.0
121	0x00000000	0.0
122	0x00000000	0.0
123	0x00000000	0.0
124	0x00000000	0.0
125	0x00000000	0.0
126	0x00000000	0.0
127	0x00000000	0.0

action_model._discrete_distribution.branches.0.weight f4 [1, 128]
0	0x3c614b50	0.013750866
1	0xbc51deda	-0.01280948
2	0x3bcaeb77	0.0061926204
3	0x3b6a086a	0.0035710582
4	0xbb79de6a	-0.0038126954
5	0x3bf74f9f	0.0075473334
6	0x3b3c4b7d	0.0028731518
7	0xbb5a6318	-0.0033323225
8	0x3a024497	0.0004969327
9	0x3bd787f7	0.0065774876
10	0x3b5b9f83	0.0033511824
11	0xbb425ebb	-0.0029658515
12	0x3b8700df	0.004119977
13	0xbc3ffcd5	-0.011717995
14	0xbb6a9be8	-0.0035798494
15	0x39cd97c3	0.00039213718
16	0x3c1c64eb	0.009545545
17	0x3b7d81fa	0.0038682208
18	0xbbdcf1a7	-0.0067426744
19	0xba482286	-0.0007634539
20	0x3c9a7304	0.018853672
21	0xbb9085c1	-0.004410476
22	0x3c93409f	0.01797515
23	0xbb41390b	-0.0029483463
24	0xbb2d1667	-0.0026411058
25	0x3afb4f93	0.0019173495
26	0x3bef229f	0.0072978283
27	0x3b965e5b	0.0045888848
28	0xbbe41e58	-0.006961625
29	0x3af96583	0.0019027445
30	0xbb25c7e7	-0.0025296153
31	0x39c2c2ef	0.000371478
32	0x3bf67658	0.007521432
33	0xbb65b2ea	-0.0035049268
34	0x3aa2c90f	0.0012419539
35	0x3c34f1ac	0.011043947
36	0xbc1b069b	-0.009462024
37	0xb81d0993	-3.7440634e-05
38	0xbb58073f	-0.0032963303
39	0xbb2f42af	-0.0026742627
40	0xbbe3963b	-0.006945399
41	0xbb85b530	-0.004080437
42	0xbb3467af	-0.002752762
43	0x3be74802	0.0070581445
44	0x39706902	0.00022927302
45	0xbb1627db	-0.002291194
46	0xb95b326b	-0.0002090425
47	0xbc0f5ff3	-0.008750903
48	0x3bdb2e25	0.0066888505
49	0x3c0f00f3	0.008728254
50	0xbb9c934e	-0.0047783023
51	0x3b1d7d7e	0.0024031098
52	0xbb86a525	-0.004109042
53	0xbc1fd779	-0.0097559625
54	0xbb0cdd75	-0.0021494303
55	0xbc4647a9	-0.012102046
56	0xbbdd1542	-0.006746919
57	0x3c5f5008	0.013629921
58	0x3bebf4a0	0.0072007924
59	0x3b3b823e	0.0028611566
60	0xbc18ec4b	-0.00933368
61	0x39c361d3	0.00037266183
62	0xbb28da7f	-0.0025765
63	0xbb189cc1	-0.0023286792
64	0x39ba4b56	0.00035532814
65	0x3c925747	0.017863883
66	0x3bc6bf95	0.006065319
67	0xbb13d47a	-0.0022557066
68	0xbb437b6a	-0.00298282
69	0x3b3123bb	0.0027029354
70	0xbbafb52e	-0.0053621745
71	0xbc219884	-0.009863023
72	0xbc72580f	-0.014791503
73	0xbb586778	-0.0033020657
74	0xbb1b8859	-0.0023732393
75	0x3b1b129f	0.0023662222
76	0x3aa70bb0	0.0012744572
77	0xbb9d9ea0	-0.0048101693
78	0xba53dee8	-0.0008082227
79	0xbbe3f313	-0.006956467
80	0xbbc32503	-0.00595534
81	0xbad8473b	-0.001650072
82	0x3bfd9cf0	0.0077396557
83	0xbb271243	-0.0025493063
84	0x3be30322	0.0069278637
85	0x39f36a9b	0.00046428
86	0x3c25e0a3	0.010124358
87	0x3a6b094b	0.00089659233
88	0x3c70175f	0.01465401
89	0x3b9bca02	0.004754306
90	0xbae5ddf7	-0.0017537464
91	0xbc1817d6	-0.009283027
92	0x3c8c8be3	0.017156547
93	0x39e71fef	0.00044083546
94	0x3b148191	0.0022660235
95	0xbbe5bd68	-0.0070111044
96	0x3c3bb203	0.0114560155
97	0x3bde1dfa	0.006778476
98	0xbc34b216	-0.011028787
99	0x3c064a5b	0.008196439
100	0xba1f25c8	-0.00060709985
101	0xbba6c9df	-0.005089983
102	0xbc36185f	-0.011114209
103	0x3bb95c69	0.005656768
104	0xbb8da11b	-0.004322184
105	0x3c14d0ff	0.009083032
106	0xbccc0a4a	-0.02490725
107	0x3c20be9d	0.009811071
108	0x3c09daed	0.008414012
109	0x3b6c924f	0.003609795
110	0xb7e2b1bb	-2.7024062e-05
111	0xbc45668c	-0.012048375
112	0xbbacad57	-0.005269687
113	0xba95bd15	-0.0011424149
114	0x3c958034	0.018249609
115	0x3c08618f	0.008324041
116	0xba116baf	-0.0005547357
117	0x3c68dd72	0.014212953
118	0x3b2c84b3	0.0026324212
119	0x3b0fa3bc	0.0021917662
120	0x3a39ad43	0.0007083008
121	0xbb16087f	-0.0022893248
122	0xbbe4f438	-0.006987121
123	0x392c73e0	0.00016446365
124	0xbc635338	-0.013874821
125	0xbb18a8ca	-0.0023293965
126	0xbba13b61	-0.0049204086
127	0x3bf0b6eb	0.0073460243

network_body._body_endoder.seq_layers.0.weight f4 [128, 64]
0	0xbda381b0	-0.0798372
1	0x3d68c55d	0.056828845
2	0x3d6433d4	0.05571349
3	0xbd8d7c4f	-0.069084756
4	0xbe348609	-0.17629255
5	0x3d4f20d9	0.050568435
6	0xbd9fd564	-0.07804373
7	0x3e2d2d65	0.16911848
8	0x3e2b1b6f	0.16709684
9	0xbd2eb3da	-0.04265199
10	0xbe1b54fe	-0.1516914
11	0x3df21090	0.11819565
12	0xbdc806d4	-0.09766927
13	0x3c123c48	0.008925505
14	0xbc01be62	-0.007918926
15	0xbd129aa9	-0.035792027
16	0x3d0c9499	0.0343214
17	0x3d914703	0.070936225
18	0xbb65f698	-0.0035089608
19	0xbd46ce18	-0.04853639
20	0xbcc57876	-0.024105292
21	0x3d1dc662	0.03851927
22	0x3e82a5e5	0.25517192
23	0xbe4b61d4	-0.19861537
24	0x3d850064	0.06494215
25	0xbe11272c	-0.14175099
26	0xbd736829	-0.059425507
27	0x3c778cdf	0.01510927
28	0x3b4b7ab7	0.0031048486
29	0x3e3f197e	0.18662068
30	0x3e1fb3fd	0.15596004
31	0xbdf7c3a9	-0.12097866
32	0xbd3035d4	-0.043020085
33	0xbdaa01ec	-0.08301148
34	0xbd0e4d4d	-0.03474169
35	0xbe19f999	-0.1503662
36	0x3e0413bd	0.12898155
37	0x3e3d38f6	0.1847876
38	0x3d70a817	0.058754053
39	0xbe030f7c	-0.12798876
40	0x3d119b33	0.0355484
41	0xbe46cb90	-0.1941359
42	0xbd339782	-0.04384566
43	0x3ccec546	0.025240552
44	0xbd888871	-0.06666649
45	0xbc4cce0d	-0.012500298
46	0x3cc31755	0.023814837
47	0xbe5141f5	-0.20435317
48	0xbde16392	-0.1100532
49	0xbe2af2d8	-0.166942
50	0xbcfac1ea	-0.030610044
51	0xbe1e25ee	-0.15444157
52	0xbd886056	-0.066589996
53	0xbd5aa016	-0.053375326
54	0x3d43c41e	0.047794454
55	0xba9a1b4b	-0.0011757402
56	0xbdaaa269	-0.083317585
57	0x3c47a8c9	0.012186238
58	0xbd8bd33f	-0.06827401
59	0x3e7b156d	0.24519892
60	0x3e0e590b	0.13901155
61	0xbe2ddbe5	-0.16978414
62	0xbcb852a9	-0.022500353
63	0xbd9fa4df	-0.077951185
64	0xbd20aad2	-0.039225407
65	0xbde08cf0	-0.10964382
66	0xbdee1338	-0.116247594
67	0xbdfa6502	-0.12226297
68	0x3da48978	0.080340326
69	0xbeb27a04	-0.34858716
70	0x3d1fbe93	0.039000105
71	0xbdb1220f	-0.08649074
72	0xbe3de3e9	-0.18543972
73	0x3d3a7f19	0.045531366
74	0xbe051539	-0.12996377
75	0xbd77bd4d	-0.060483266
76	0x3df14803	0.11781313
77	0x3df82017	0.12115496
78	0x3df826b6	0.121167585
79	0xbd790a77	-0.060800996
80	0xbdd59861	-0.104294546
81	0xbdb8ec56	-0.090294525
82	0xbd1fce7d	-0.039015282
83	0xbc27511f	-0.010212212
84	0xbcf2aebf	-0.029624341
85	0x3c2b48a9	0.010454335
86	0x3d99a225	0.0750163
87	0xbd11ca47	-0.035593297
88	0xbdc77af0	-0.09740245
89	0xbdab13cc	-0.08353385
90	0x3e4c7bec	0.19969147
91	0xbd988565	-0.07447318
92	0xbc4c6fb2	-0.012477802
93	0xbe2b56a9	-0.16732277
94	0x3e4bbca6	0.19896182
95	0xbcc438bd	-0.023952836
96	0x3abe4c85	0.0014518654
97	0xbd981b09	-0.074270315
98	0xbcffb6f4	-0.031215169
99	0xbce30b6e	-0.027715411
100	0x3dbeb682	0.09312154
101	0x3e68f404	0.22749335
102	0x3e95a501	0.2922745
103	0xbdb21c86	-0.08696847
104	0x3d2e326b	0.04252855
105	0x3e2dca60	0.16971731
106	0x3d82acda	0.06380625
107	0xbe0484b4	-0.12941247
108	0xbe5a7c51	-0.21336485
109	0x3dd7c5ee	0.10535799
110	0xbd9d2150	-0.076723695
111	0x3d220fa6	0.039565705
112	0xbcff7079	-0.03118156
113	0xbd4ef2dd	-0.05052458
114	0x3db4fe74	0.088375956
115	0xbe0694a1	-0.13142635
116	0x3d77914a	0.060441293
117	0xbd6eb0e2	-0.058274157
118	0xb9c79e63	-0.00038074245
119	0x3dbaae1d	0.09115241
120	0xbd458a7a	-0.048227765
121	0x3d893210	0.06699002
122	0x3d4ae516	0.04953488
123	0x3e670b40	0.22562885
124	0xbcb87630	-0.022517294
125	0x3c878d0c	0.016546749
126	0x3d4171bf	0.047227617
127	0x3e743b0a	0.23850647
128	0xbdd71cff	-0.105035774
129	0x3e2de125	0.16980417
130	0x3d3b5898	0.045738786
131	0x3bd929ba	0.0066272886
132	0xbe97c19c	-0.296399
133	0x3dc7bb45	0.09752516
134	0xbe2732d1	-0.16327979
135	0xbde8b684	-0.11362937
136	0x3de68256	0.11255328
137	0x3c6a5582	0.014302613
138	0xbe02bda5	-0.12767656
139	0xbd67aab5	-0.056559283
140	0xbdea0edf	-0.11428618
141	0x3de3d921	0.111253984
142	0xbca4d1a5	-0.020119498
143	0xbdd57134	-0.104219824
144	0xbce6bb40	-0.02816546
145	0x3d2d079e	0.042243592
146	0x3d90d64d	0.07072125
147	0xbe7ba486	-0.2457448
148	0x3d5c3267	0.053759005
149	0xbddceacf	-0.10786974
150	0x3d72227b	0.059114914
151	0xbe2caea7	-0.168635
152	0xbca00f6d	-0.019538606
153	0xbac7adfc	-0.0015234347
154	0xbda6c2c1	-0.08142615
155	0xbe567ef7	-0.2094687
156	0x3d78cbb0	0.060741127
157	0x3e5d770b	0.21627443
158	0xbc5e0ac8	-0.013552375
159	0xbcce02b4	-0.025147773
160	0xbe35539a	-0.17707673
161	0x3e145041	0.1448374
162	0x3d9e2f11	0.07723821
163	0xbce86f1f	-0.0283733
164	0xbd805495	-0.06266133
165	0x3d293a05	0.041315097
166	0x3e602df1	0.21892525
167	0xbe849c98	-0.25900722
168	0xbc1b66fb	-0.009485002
169	0xbe0f8372	-0.14014986
170	0x3ddeaf4a	0.108732775
171	0x3dcc85c0	0.09986448
172	0x3e308c1c	0.17240947
173	0xbdd168ed	-0.10225091
174	0x3d7a0cc6	0.061047338
175	0x3cce52cc	0.025185965
176	0x3e3970c5	0.18109424
177	0x3e5b3ed9	0.21410693
178	0xbd8a5fa5	-0.06756524
179	0x3df21a49	0.1182142
180	0x3c25c1b0	0.0101169795
181	0x3d95ad1e	0.0730841
182	0x3e528ab0	0.20560718
183	0x3e3f198a	0.18662086
184	0xbd5f1406	-0.054462455
185	0x3dc5ef1a	0.09664746
186	0xbd5af869	-0.05345956
187	0xbe89e806	-0.26934832
188	0x3d6ff966	0.058587454
189	0x3d3c0d27	0.04591098
190	0x3e140069	0.14453281
191	0xbd47dd84	-0.048795238
192	0x3c909e47	0.017653598
193	0xbd94b5fa	-0.07261272
194	0xbdaea882	-0.08528234
195	0xbdd902d9	-0.10596246
196	0x3cb2dd1b	0.021833947
197	0xbe14e25d	-0.14539476
198	0x3e247b32	0.1606262
199	0x3d1b299b	0.037881475
200	0x3ddc8107	0.107667975
201	0x3dc2673a	0.09492345
202	0x3cc87f06	0.024474632
203	0xbe009103	-0.12555318
204	0xbdba8c4b	-0.0910879
205	0x3e9e8500	0.30960846
206	0xbd2d089a	-0.04224453
207	0xbdee2731	-0.11628569
208	0x3d353d31	0.04424781
209	0x3dbb35ec	0.09141144
210	0xbdd4bc80	-0.10387516
211	0x3d2c9f39	0.042144034
212	0xbcd147da	-0.025546957
213	0xbc160c50	-0.009158209
214	0xbd947705	-0.07249264
215	0xbe1b76aa	-0.15181985
216	0x3d0c2921	0.03421891
217	0xbc46a9eb	-0.012125473
218	0x3c2f514c	0.010700535
219	0xbe407a41	-0.18796636
220	0x3dce7713	0.10081305
221	0x3c54f028	0.012996711
222	0x3dbdfe7e	0.09277056
223	0x3e77b440	0.24189854
224	0x3cc2f1c0	0.023796916
225	0x3de94c2a	0.1139148
226	0xbc443277	-0.011974922
227	0xbd0870fc	-0.033310875
228	0x3d96cd9c	0.073634356
229	0xbd827a63	-0.06371
230	0xbda8a5e3	-0.082347654
231	0x3c939245	0.018014083
232	0x3e1f3fe8	0.15551722
233	0xbe1980d9	-0.14990558
234	0xbdc4f2aa	-0.09616597
235	0x3e99fdff	0.30076596
236	0xbcf4aa53	-0.029866373
237	0x3e0f9858	0.14022958
238	0xbdb469aa	-0.08809216
239	0x3d1e87ef	0.038703855
240	0xbd65e7e1	-0.05612934
241	0x3d330465	0.043705363
242	0xbd473191	-0.048631255
243	0x3e520f53	0.20513658
244	0x3e448d5d	0.19194551
245	0xbc42ac5a	-0.011881912
246	0x3e1e7b16	0.15476641
247	0x3dfe132c	0.124060005
248	0x3e4694ce	0.19392702
249	0x3d21fbaa	0.039546646
250	0xbe635dc0	-0.22203732
251	0xbe194118	-0.14966238
252	0xbd880f0b	-0.06643494
253	0xbc774b15	-0.015093585
254	0xbd43227d	-0.047640312
255	0xbd139ebe	-0.03604006

network_body._body_endoder.seq_layers.0.bias f4 [128]
0	0x00000000	0.0
1	0x00000000	0.0
2	0x00000000	0.0
3	0x00000000	0.0
4	0x00000000	0.0
5	0x00000000	0.0
6	0x00000000	0.0
7	0x00000000	0.0
8	0x00000000	0.0
9	0x00000000	0.0
10	0x00000000	0.0
11	0x00000000	0.0
12	0x00000000	0.0
13	0x00000000	0.0
14	0x00000000	0.0
15	0x00000000	0.0
16	0x00000000	0.0
17	0x00000000	0.0
18	0x00000000	0.0
19	0x00000000	0.0
20	0x00000000	0.0
21	0x00000000	0.0
22	0x00000000	0.0
23	0x00000000	0.0
24	0x00000000	0.0
25	0x00000000	0.0
26	0x00000000	0.0
27	0x00000000	0.0
28	0x00000000	0.0
29	0x00000000	0.0
30	0x00000000	0.0
31	0x00000000	0.0
32	0x00000000	0.0
33	0x00000000	0.0
34	0x00000000	0.0
35	0x00000000	0.0
36	0x00000000	0.0
37	0x00000000	0.0
38	0x00000000	0.0
39	0x00000000	0.0
40	0x00000000	0.0
41	0x00000000	0.0
42	0x00000000	0.0
43	0x00000000	0.0
44	0x00000000	0.0
45	0x00000000	0.0
46	0x00000000	0.0
47	0x00000000	0.0
48	0x00000000	0.0
49	0x00000000	0.0
50	0x00000000	0.0
51	0x00000000	0.0
52	0x00000000	0.0
53	0x00000000	0.0
54	0x00000000	0.0
55	0x00000000	0.0
56	0x00000000	0.0
57	0x00000000	0.0
58	0x00000000	0.0
59	0x00000000	0.0
60	0x00000000	0.0
61	0x00000000	0.0
62	0x00000000	0.0
63	0x00000000	0.0
64	0x00000000	0.0
65	0x00000000	0.0
66	0x00000000	0.0
67	0x00000000	0.0
68	0x00000000	0.0
69	0x00000000	0.0
70	0x00000000	0.0
71	0x00000000	0.0
72	0x00000000	0.0
73	0x00000000	0.0
74	0x00000000	0.0
75	0x00000000	0.0
76	0x00000000	0.0
77	0x00000000	0.0
78	0x00000000	0.0
79	0x00000000	0.0
80	0x00000000	0.0
81	0x00000000	0.0
82	0x00000000	0.0
83	0x00000000	0.0
84	0x00000000	0.0
85	0x00000000	0.0
86	0x00000000	0.0
87	0x00000000	0.0
88	0x00000000	0.0
89	0x00000000	0.0
90	0x00000000	0.0
91	0x00000000	0.0
92	0x00000000	0.0
93	0x00000000	0.0
94	0x00000000	0.0
95	0x00000000	0.0
96	0x00000000	0.0
97	0x00000000	0.0
98	0x00000000	0.0
99	0x00000000	0.0
100	0x00000000	0.0
101	0x00000000	0.0
102	0x00000000	0.0
103	0x00000000	0.0
104	0x00000000	0.0
105	0x00000000	0.0
106	0x00000000	0.0
107	0x00000000	0.0
108	0x00000000	0.0
109	0x00000000	0.0
110	0x00000000	0.0
111	0x00000000	0.0
112	0x00000000	0.0
113	0x00000000	0.0
114	0x00000000	0.0
115	0x00000000	0.0
116	0x00000000	0.0
117	0x00000000	0.0
118	0x00000000	0.0
119	0x00000000	0.0
120	0x00000000	0.0
121	0x00000000	0.0
122	0x00000000	0.0
123	0x00000000	0.0
124	0x00000000	0.0
125	0x00000000	0.0
126	0x00000000	0.0
127	0x00000000	0.0

network_body._body_endoder.seq_layers.2.weight f4 [128, 128]
0	0x3cc746c1	0.02432573
1	0xbe0ca743	-0.1373568
2	0xbdadcd04	-0.08486369
3	0x3d1ded1b	0.0385562
4	0x3cb2faf9	0.021848189
5	0x3e07a2a3	0.13245635
6	0xbd39b35b	-0.045337062
7	0xbdba8bac	-0.091086715
8	0xbd8b6477	-0.068062715
9	0x3da5500e	0.0807191
10	0xbcc9c9a3	-0.02463228
11	0x3d19f545	0.037587423
12	0x3dcf1a16	0.101123974
13	0x3dd1130e	0.102087125
14	0x3e02db04	0.1277886
15	0x3db56b45	0.08858351
16	0x3cfcc691	0.030856403
17	0x3e0b1ebc	0.13585943
18	0xbb01ec11	-0.0019824544
19	0xbc7ddf37	-0.015495113
20	0x3ddbcbd8	0.107322395
21	0xbd24db09	-0.04024795
22	0xbe0acbac	-0.13554257
23	0xbcd8fb5d	-0.026487047
24	0x3d021787	0.03176072
25	0xbd1c8439	-0.038212035
26	0x3c42e8f3	0.01189636
27	0xbe052bcc	-0.13004988
28	0x3db352bc	0.08756015
29	0xbdc2d2d5	-0.09512869
30	0xbd6f778d	-0.058463622
31	0xbcda545c	-0.026651554
32	0x3cc04103	0.0234685
33	0x3dad5e59	0.08465261
34	0x3e1155cf	0.1419289
35	0x3e2aa435	0.16664203
36	0xbdfc4e8d	-0.1231967
37	0x3c999a47	0.018750323
38	0xbded3767	-0.11582833
39	0xbc7df594	-0.015500445
40	0x3d3e32e8	0.046435267
41	0xbde8be29	-0.11364395
42	0xbce2a462	-0.027666274
43	0xbd9b881c	-0.0759432
44	0xbe0f30c1	-0.13983442
45	0x3c4c806b	0.012481789
46	0xbda20931	-0.07911909
47	0x3d1a9a7a	0.037744977
48	0xbddffe62	-0.109371915
49	0x3d57396b	0.052544992
50	0x3df9a7f3	0.12190237
51	0xbdde0f9f	-0.10842823
52	0xbd3dca3d	-0.046335448
53	0x3e25555d	0.16145845
54	0x3dd3d7f6	0.10343926
55	0x3ccdc263	0.025117105
56	0x3d33d8c3	0.043907892
57	0x3db8c2f4	0.09021559
58	0x3e131b14	0.14365798
59	0xbda3fab4	-0.08006802
60	0xbd518512	-0.051152296
61	0xbc8203b5	-0.015870908
62	0x3e68a5de	0.22719523
63	0x3de32217	0.110904865
64	0x3d05af7d	0.03263806
65	0x3ccbb75b	0.024867704
66	0xbb5db8a3	-0.0033831976
67	0xbda7272c	-0.08161768
68	0xbe0590bf	-0.13043498
69	0xbe025ceb	-0.12730758
70	0xbd912703	-0.07087519
71	0x3d2cdd35	0.042203147
72	0x3ce914dd	0.028452331
73	0x3dab6b5f	0.08370089
74	0xbd1c6a3b	-0.038187247
75	0x3cc208a6	0.023685765
76	0x3e0887c8	0.13333046
77	0x3cb84652	0.022494469
78	0x3d89353f	0.06699609
79	0xbd3c03f5	-0.04590221
80	0xbd9dc877	-0.07704251
81	0xbe658b15	-0.22416337
82	0xbc177714	-0.009244699
83	0xbe411874	-0.18856984
84	0xbe1afc2b	-0.15135257
85	0x3d7f7da0	0.062375665
86	0xbdc44240	-0.09582949
87	0xbcf6615f	-0.030075727
88	0x3dc48eca	0.09597547
89	0xbdc8144e	-0.09769498
90	0xbcf6a02c	-0.030105673
91	0x3d05182f	0.032493766
92	0xbd11c11d	-0.035584558
93	0xbcf18b63	-0.02948541
94	0xbd80c1d6	-0.06286971
95	0xbd95063b	-0.07276579
96	0x3b2bef41	0.0026235136
97	0xbc7f799d	-0.01559296
98	0xbddb066b	-0.106945835
99	0xbc045d90	-0.008078948
100	0x3c6a17c9	0.014287897
101	0x3d46ddb3	0.048551273
102	0xbe3c31aa	-0.1837832
103	0xbdf14ddd	-0.11782429
104	0x3d2ce663	0.0422119
105	0x3e0114f7	0.12605654
106	0x3b63a7da	0.0034737498
107	0x3cd06d5e	0.025442775
108	0xbd859aed	-0.065236904
109	0xbdb086f8	-0.08619493
110	0xbd02c8df	-0.031929847
111	0x3d51d559	0.051228855
112	0x3d1fc61b	0.039007287
113	0x3cc04bf7	0.023473723
114	0xbd90024f	-0.0703169
115	0x3e176a64	0.14786679
116	0xbc4b81ee	-0.012421114
117	0x3e67bf24	0.22631508
118	0x3d9f3c02	0.077751175
119	0x3d3d30e4	0.046189204
120	0x3d272db3	0.040815067
121	0x3b10749a	0.0022042156
122	0x3df72a9b	0.12068673
123	0xbe4e8726	-0.20168743
124	0x3da25e14	0.079281
125	0x3d75b8c7	0.05999067
126	0xbddaae09	-0.10677726
127	0xbd4c6d96	-0.049909197
128	0x3c79ca3a	0.0152459685
129	0xbbf370a9	-0.0074292016
130	0xbe112807	-0.14175425
131	0x3ddb649d	0.1071255
132	0x3e04c9fd	0.12967677
133	0xbd3f9966	-0.04677715
134	0xbd096dbb	-0.033551913
135	0x3d09f7c6	0.03368356
136	0x3c04e22c	0.008110564
137	0xbdc1d3df	-0.09464239
138	0xbca37b19	-0.019956158
139	0x3e103ee7	0.14086495
140	0x3d07bb2f	0.033137497
141	0x3de6803f	0.1125493
142	0xbda34630	-0.079723716
143	0x3d5f83ee	0.054569177
144	0x3dec9438	0.11551708
145	0x3d584ac1	0.052805666
146	0x3e144c73	0.14482288
147	0x3aabf16f	0.0013118217
148	0xbd986879	-0.074418016
149	0x3e28f6e0	0.16500425
150	0x3dd6f0dc	0.10495159
151	0xbe4f3e67	-0.20238648
152	0xbc92ef16	-0.01793627
153	0x3dce871c	0.10084364
154	0xbae97188	-0.0017810324
155	0xbb071e4d	-0.0020617426
156	0xbe61e98d	-0.22061749
157	0xbd8557e3	-0.06510904
158	0xbcd43b5c	-0.025907211
159	0x3d4ffff1	0.050781194
160	0x3daa51ea	0.08316405
161	0x3d6da491	0.05801827
162	0xbcab3a1b	-0.02090173
163	0x3e111b09	0.1417047
164	0xbe282f85	-0.16424377
165	0xbdb2a511	-0.0872289
166	0x3d9e3c02	0.07726289
167	0x3da482c5	0.08032755
168	0xbe13a894	-0.14419776
169	0xbd154e59	-0.03645167
170	0xbcacaf08	-0.021079555
171	0x3c194690	0.009355202
172	0x3b4302e7	0.0029756369
173	0x3e0a6bd7	0.135177
174	0x3da08319	0.07837505
175	0xbe11180c	-0.1416933
176	0x3e2a9c2f	0.16661142
177	0xbd19fc8c	-0.037594363
178	0xbd000a3a	-0.031259753
179	0xbcc93189	-0.024559753
180	0xbd570ccb	-0.052502435
181	0x3e3b5167	0.18292771
182	0xbe33ee41	-0.17571355
183	0x3c2b1ffb	0.010444636
184	0x3ca9b781	0.020717384
185	0x3dbcffff	0.09228515
186	0xbdfebb79	-0.12438101
187	0x3c77a745	0.015115564
188	0x3c5c2e4c	0.013438772
189	0x3d339fba	0.0438535
190	0x3b44a9e3	0.0030008487
191	0x3da11b6c	0.078665584
192	0x3d3fff35	0.046874244
193	0x3d5738df	0.05254447
194	0x3e0d8ef5	0.13824065
195	0xbdaf180c	-0.085495085
196	0x3d2114d7	0.039326515
197	0x3d1bdfc2	0.03805519
198	0xbd8e39d1	-0.06944621
199	0x3d481d22	0.04885591
200	0x3d17e639	0.03708479
201	0xbe2a4b96	-0.16630396
202	0xbbbf1d97	-0.005832385
203	0x3e1d9462	0.15388635
204	0xbb883b28	-0.0041574426
205	0x3d8ffc6a	0.07030566
206	0x3de15261	0.11002041
207	0x3be42361	0.0069622253
208	0xbcf6c654	-0.030123867
209	0x3d361068	0.04444924
210	0x3da7424c	0.08166942
211	0xbc8b0e7d	-0.016974682
212	0x3b436c97	0.0029819363
213	0xbc0c64a8	-0.00856892
214	0x3e5cc842	0.21560767
215	0x3dea1565	0.11429862
216	0x3c8c7dc9	0.017149823
217	0xbe60a53d	-0.21938033
218	0xbceb09a5	-0.028691122
219	0xbd2aab74	-0.041667417
220	0xbda79d7b	-0.08184334
221	0xbdbd60d9	-0.09246988
222	0x3d93009a	0.07177849
223	0x3e6c1ff2	0.23059061
224	0x39025df8	0.00012432772
225	0x3d903d17	0.07042902
226	0xbd8dab27	-0.0691741
227	0xbd1467f4	-0.03623195
228	0x3caef6af	0.021357862
229	0x3e2b4aaa	0.16727701
230	0x3c995a68	0.018719867
231	0x3dcfb4c4	0.101419
232	0x3cbaf6c5	0.022822747
233	0x3df43a81	0.11925221
234	0xbd7bd729	-0.06148449
235	0xbe27db0b	-0.16392152
236	0x3d9d6cc9	0.07686765
237	0x3e2ba141	0.16760732
238	0x3d71c4cf	0.059025582
239	0xbbe13ac9	-0.006873463
240	0xbcb43d4c	-0.022001885
241	0xbe3b681e	-0.18301436
242	0xbbc984a7	-0.0061498466
243	0x3d17db98	0.037074655
244	0xbdb43902	-0.08799936
245	0x3d59d817	0.053184595
246	0x3d680c2e	0.05665224
247	0x3c539f47	0.012916393
248	0xbe1852ed	-0.14875384
249	0xbddbaa50	-0.10725844
250	0x3dbbb4a9	0.091653176
251	0x3e5be161	0.21472694
252	0x3d460623	0.048345696
253	0xbe770706	-0.24123773
254	0x3dfee1b1	0.12445391
255	0x3d1cc95c	0.03827797

network_body._body_endoder.seq_layers.2.bias f4 [128]
0	0x00000000	0.0
1	0x00000000	0.0
2	0x00000000	0.0
3	0x00000000	0.0
4	0x00000000	0.0
5	0x00000000	0.0
6	0x00000000	0.0
7	0x00000000	0.0
8	0x00000000	0.0
9	0x00000000	0.0
10	0x00000000	0.0
11	0x00000000	0.0
12	0x00000000	0.0
13	0x00000000	0.0
14	0x00000000	0.0
15	0x00000000	0.0
16	0x00000000	0.0
17	0x00000000	0.0
18	0x00000000	0.0
19	0x00000000	0.0
20	0x00000000	0.0
21	0x00000000	0.0
22	0x00000000	0.0
23	0x00000000	0.0
24	0x00000000	0.0
25	0x00000000	0.0
26	0x00000000	0.0
27	0x00000000	0.0
28	0x00000000	0.0
29	0x00000000	0.0
30	0x00000000	0.0
31	0x00000000	0.0
32	0x00000000	0.0
33	0x00000000	0.0
34	0x00000000	0.0
35	0x00000000	0.0
36	0x00000000	0.0
37	0x00000000	0.0
38	0x00000000	0.0
39	0x00000000	0.0
40	0x00000000	0.0
41	0x00000000	0.0
42	0x00000000	0.0
43	0x00000000	0.0
44	0x00000000	0.0
45	0x00000000	0.0
46	0x00000000	0.0
47	0x00000000	0.0
48	0x00000000	0.0
49	0x00000000	0.0
50	0x00000000	0.0
51	0x00000000	0.0
52	0x00000000	0.0
53	0x00000000	0.0
54	0x00000000	0.0
55	0x00000000	0.0
56	0x00000000	0.0
57	0x00000000	0.0
58	0x00000000	0.0
59	0x00000000	0.0
60	0x00000000	0.0
61	0x00000000	0.0
62	0x00000000	0.0
63	0x00000000	0.0
64	0x00000000	0.0
65	0x00000000	0.0
66	0x00000000	0.0
67	0x00000000	0.0
68	0x00000000	0.0
69	0x00000000	0.0
70	0x00000000	0.0
71	0x00000000	0.0
72	0x00000000	0.0
73	0x00000000	0.0
74	0x00000000	0.0
75	0x00000000	0.0
76	0x00000000	0.0
77	0x00000000	0.0
78	0x00000000	0.0
79	0x00000000	0.0
80	0x00000000	0.0
81	0x00000000	0.0
82	0x00000000	0.0
83	0x00000000	0.0
84	0x00000000	0.0
85	0x00000000	0.0
86	0x00000000	0.0
87	0x00000000	0.0
88	0x00000000	0.0
89	0x00000000	0.0
90	0x00000000	0.0
91	0x00000000	0.0
92	0x00000000	0.0
93	0x00000000	0.0
94	0x00000000	0.0
95	0x00000000	0.0
96	0x00000000	0.0
97	0x00000000	0.0
98	0x00000000	0.0
99	0x00000000	0.0
100	0x00000000	0.0
101	0x00000000	0.0
102	0x00000000	0.0
103	0x00000000	0.0
104	0x00000000	0.0
105	0x00000000	0.0
106	0x00000000	0.0
107	0x00000000	0.0
108	0x00000000	0.0
109	0x00000000	0.0
110	0x00000000	0.0
111	0x00000000	0.0
112	0x00000000	0.0
113	0x00000000	0.0
114	0x00000000	0.0
115	0x00000000	0.0
116	0x00000000	0.0
117	0x00000000	0.0
118	0x00000000	0.0
119	0x00000000	0.0
120	0x00000000	0.0
121	0x00000000	0.0
122	0x00000000	0.0
123	0x00000000	0.0
124	0x00000000	0.0
125	0x00000000	0.0
126	0x00000000	0.0
127	0x00000000	0.0

value_heads.value_heads.extrinsic.weight f4 [1, 128]
0	0x3d9b9157	0.07596081
1	0x3e2ecccf	0.17070316
2	0x3dfcb8bd	0.123399235
3	0xbd220733	-0.039557647
4	0x3e522d4d	0.20525093
5	0x3de7d08a	0.113190725
6	0x3dfe4cf0	0.124170184
7	0xbe3dcaac	-0.18534344
8	0x3e555c57	0.20836006
9	0x3e3a743f	0.18208407
10	0xbb9e06a7	-0.0048225704
11	0x3d2437ee	0.0400924
12	0x3c375abe	0.011191068
13	0x3e1c6eab	0.15276591
14	0x3deab340	0.114599705
15	0xbdacd561	-0.08439136
16	0xbe0ff9b2	-0.14060095
17	0xbd9f4622	-0.07777049
18	0xbc65c17f	-0.014023184
19	0x3c980823	0.018558567
20	0xbe2a6ea4	-0.16643769
21	0xbdfe6420	-0.12421441
22	0x3d06e85c	0.03293644
23	0x3d72fa50	0.059320748
24	0x3dc57869	0.09642107
25	0x3e028584	0.12746245
26	0xbe3a8198	-0.18213499
27	0xbe09e149	-0.13464846
28	0x3d01215a	0.031525947
29	0xbe3581f0	-0.17725348
30	0xbd961aff	-0.07329368
31	0x3d1c31cb	0.038133424
32	0xbcf64399	-0.03006153
33	0x3bd416e1	0.006472454
34	0x3e0caaf7	0.13737093
35	0xbdfb219c	-0.1226227
36	0xbbc3c761	-0.0059746956
37	0xbdc38124	-0.09546116
38	0x3da0f45f	0.0785911
39	0x3e391785	0.18075378
40	0xbe02a7d0	-0.12759328
41	0xbdc0842b	-0.09400209
42	0x3e2bf01e	0.16790816
43	0xbe59708f	-0.21234344
44	0xbda9c9f8	-0.082904756
45	0x3c55f479	0.013058775
46	0xbc54f4a3	-0.012997779
47	0xbca1169f	-0.019664107
48	0x3e3ea471	0.18617417
49	0xbc0ba50b	-0.008523236
50	0x37fdd69e	3.025989e-05
51	0xbd279106	-0.04090979
52	0x3d68879a	0.056769945
53	0x3de4b748	0.111677706
54	0xbd2252bc	-0.039629683
55	0xbdf12e5f	-0.11776423
56	0xbdf4c234	-0.11951104
57	0x3e1534ec	0.1457097
58	0xbdcad386	-0.09903626
59	0x3e3840b9	0.1799344
60	0x3d9329a5	0.071856774
61	0x3e58e38a	0.2118055
62	0xbd9debe4	-0.07711008
63	0x3e329b55	0.17442067
64	0x3dd37cc3	0.10326531
65	0xbdf6defb	-0.12054249
66	0x3b287330	0.0025703423
67	0x3dd74f96	0.10513227
68	0xbdabe748	-0.08393723
69	0x3e33181a	0.17489663
70	0xbdcb44f8	-0.09925264
71	0xbe09b02c	-0.1344611
72	0xbe4212e6	-0.18952522
73	0xbdb46ddf	-0.08810019
74	0xbdaeb0b1	-0.08529795
75	0xbddbcb3c	-0.10732123
76	0x3e47e081	0.19519235
77	0x3e271d4c	0.1631977
78	0xbe395a5e	-0.18100879
79	0x3dcb88e8	0.09938222
80	0xbd2e1f55	-0.04251035
81	0xbd9f9094	-0.07791248
82	0x3dc19a54	0.09453264
83	0x3e3c910a	0.18414703
84	0xbe01cab3	-0.1267498
85	0xbe426273	-0.18982868
86	0x3e079b8b	0.13242929
87	0x3d897a6c	0.06712803
88	0x3d7bdd04	0.061490074
89	0xbe5aef29	-0.21380295
90	0x3d59ff0c	0.053221747
91	0xbe234fd3	-0.1594842
92	0xbd9f4ac2	-0.07777931
93	0x3be89529	0.0070978594
94	0x3ddb4e5e	0.10708307
95	0x3c6e4d35	0.014544775
96	0x3d352a26	0.04422965
97	0x3e3f4754	0.18679553
98	0xbdcf1240	-0.10110903
99	0xbc86aac2	-0.016438846
100	0x3c708d77	0.014682165
101	0xbe0b2f2a	-0.1359221
102	0x3d68a3b1	0.056796733
103	0x3e2b6009	0.16735853
104	0xbe0f47d9	-0.13992251
105	0xbe3f01cf	-0.18653034
106	0x3c1b88ee	0.009493096
107	0xbe399bbf	-0.18125819
108	0x3c05f516	0.008176109
109	0x3dc3c06d	0.09558187
110	0x3d9c892b	0.0764335
111	0xbd7375b0	-0.059438407
112	0xbd420832	-0.047371097
113	0xbd90ec1a	-0.07076283
114	0xbd5adfbe	-0.053436033
115	0x3d1050b2	0.035233207
116	0xbdd836c0	-0.10557318
117	0xb9c2c426	-0.00037148705
118	0x3e40b52f	0.18819116
119	0x3c09ae8b	0.008403431
120	0x3d7178f2	0.058953233
121	0xbe162b5d	-0.1466498
122	0x3b0c89c2	0.0021444415
123	0x3bc8297d	0.0061084614
124	0x3d9a1ea0	0.075253725
125	0x3dd2bb48	0.10289627
126	0xbdef8a93	-0.11696353
127	0xbd886b58	-0.06661099
