Endless Runner/Assets/training/results/Run 1/cfg/cfg-373378.onnx (onnx, 597435 bytes, 8 tensors)

action_model._discrete_distribution.branches.0.bias f4 [3]
00000000: 180a 9b3b f836 24ba 7d42 87bb
0.004731428 -0.00062642945 -0.004127799

action_model._discrete_distribution.branches.0.weight f4 [3, 256]
00000000: 1f31 a73b 1d9b b8bb d160 873c ba25 54bc
00000010: e596 f43b 2650 4ebb c50f 103b 7222 053c
00000020: 5d9e cf39 ad4c 4a3b 1d8b a13b 7b52 2ebc
00000030: f7df 993b 85f2 743b 4108 e7bb cd30 49bc
00000040: 8ff3 53bc d4d0 1abb 50ab f73a b5ea 473c
00000050: 66ef 973b 9581 c83a 9465 3c3c 29d3 a6ba
00000060: dcd4 963c 4da6 01bc 580d 85bc 583e 223c
00000070: a634 79bb 13e3 23bb f004 533b 3bae 8b3b
00000080: 5f8e 053c 199e a8bb 925e d13b 3241 1cbc
00000090: 274e 7b3b eac1 7d3b 93a1 e8bb 5270 6a3b
000000a0: d5ad 85bc 6c45 db39 bfb3 5f3c d165 30b9
000000b0: 473d 143c e3c0 edbb be6a 1ebc 288a ecbb
000000c0: 1351 e4bb 1303 a63b 83b1 483c 1872 dabb
000000d0: 2ef6 34bc dabf ab3b 0fe7 70bc 5b81 913b
000000e0: 0061 363c e9e8 16bc fab8 e3bb 239f 883b
000000f0: 231f 933c d211 8ebc 09d6 abbb e2ff 183c
00000100: 4225 40bb 8044 2339 aa47 1e37 2842 29bc
00000110: aad2 ad3b f2d9 0c3b 07f7 87bb 7afc 76bc
00000120: d7d5 b53b 3a6a 963b 4080 983b f2b4 3b3b
00000130: 037f b73b 5cd2 6cbb 6624 59b9 d115 10bc
00000140: 19be 733a 634e 2dbb bab6 233c 34eb 53bc
00000150: d202 073b 3dde 3cbc f56f 10bc 5a3b 9c3c
00000160: e228 c6bb 896a e9bb b355 5439 c579 71bc
00000170: 8a67 eb3b 22ac c43b f603 8c3b 2d6a 57ba
00000180: 4d1a 1e3b 2413 01bb ab82 d737 98f3 2f3c
00000190: 5826 b63b 9248 a2bb dd50 1fb9 c30b 01bc
000001a0: 70e7 d73b 08d3 b23b 59de c5bb e3f0 993b
000001b0: 53dd 30bc 3f58 e73b 0f68 2f3c bbf4 f939
000001c0: d352 0ebb 33e9 6dbc 4113 a53b fd09 0cbc
000001d0: fb39 25bc 29af 703c 4cde 91bb 5825 893c
000001e0: 8770 4e3b 3b34 d93b 9889 10bc 675e aa3c
000001f0: 6bfc ff3b 19de 9cbb ebd3 60bb f759 d7ba
00000200: 4fa4 52bb 2bf7 0b3c 0122 4d3b a092 ca3b
00000210: f983 b3ba b56c 8a3b 36bd 8e3b ce9d 10bc
00000220: 048d 653c f9ba 843b 9795 53ba 7542 1abc
00000230: fbba c7bb c203 0fbb 6c7b a7bb 8543 cf3a
00000240: 0997 4a3c a876 67ba 4ecb 22bc d3b1 c0ba
00000250: d5d7 1cbc 5da4 013a d47e 48bc 9186 86bb
00000260: 8a02 333b 4137 1c3a a674 5c38 1b5b 673b
00000270: e9e1 70bc a1ea 18bc 6bf4 8bba 8873 0e3a
00000280: 46cb 2fbc 283b 183a be14 0c3c e426 edba
00000290: b591 13bc bda7 efbb 2ff4 c53b 03e8 23bb
000002a0: b15e e33a b92f 023c 7ae2 053b d7b8 9e3b
000002b0: c015 18bc e0a4 a8bb fb3e a0bb 3373 873b
000002c0: 401d 113c 6eb6 e7bb cf7a 0ebb 05d4 60bc
000002d0: 7991 d3bb 9df7 b73b 2f6b 063c 2d0d abbb
000002e0: 7c41 e83b e1e8 1a3b 4701 593b 54b1 77b9
000002f0: 3aa1 093c 0d07 4abc a209 3e3c 0afa 973c
00000300: 0b0b 3ebb d9ff ed3b 3e9f f13b 2a60 063b
00000310: 545d fb3a 855b 96bb 1bf3 8fbb 3176 643c
00000320: b1d4 353c 519a 983b f951 693b 99d5 1b3c
00000330: 787c 183c 6338 7ebb d713 bebb 1cef 2a3c
00000340: 6fe0 a7bb bdf9 5f3b 1bcc 823a 1d3a 84bc
00000350: 7e9e 1aba 179e d4ba 5e2b 1cbc 2b1e 42bc
00000360: 62e3 4ebc 0a14 bdbb 5715 83bc 6ff1 d03b
00000370: e641 9a3a 263c d1bb e150 00ba bb5e 14bc
00000380: 68b6 b6ba 94ae 1ebc 6056 8d38 da0a 993c
00000390: c14c 843b eb09 db3a 8ea1 95bb b928 0239
000003a0: ee61 4bbc e0f6 723c c47c 4a3c ca11 0bbc
000003b0: 1ef1 e4bb 0a6a a13b 6296 8a3a fe02 83bb
000003c0: d789 9b3a 03d9 883b e6ce 583c 739c 99bb
000003d0: dc08 d93b 8773 523b 23d1 0cbc 3c0b f73b
000003e0: ed11 9f3b 465e 3cba a358 59bb fa78 c73b
000003f0: a3e1 66bc 81b9 6cbb dfbc 6abc 058e a7bb
0.0051022912 -0.0056337253 0.016525658 -0.012948448 0.007464277 -0.0031480878 0.0021982056 0.008125888
0.00039600107 0.0030868456 0.0049299137 -0.010639782 0.004695888 0.0037375998 -0.0070505445 -0.012279701
-0.012936487 -0.0023623006 0.001889566 0.012201955 0.004636693 0.0015297408 0.0114988275 -0.0012727726
0.018412046 -0.007913184 -0.016241714 0.009902559 -0.0038025766 -0.0025007173 0.0032198988 0.0042627132
0.00815162 -0.0051458 0.0063894475 -0.009537028 0.0038346143 0.0038720318 -0.0070993393 0.0035772515
-0.016318241 0.00041822658 0.013653695 -0.00016822598 0.009047813 -0.00725566 -0.009669004 -0.007218618
-0.0069676726 0.0050662844 0.012249353 -0.006666433 -0.011045022 0.0052413763 -0.014703526 0.004440469
0.011131525 -0.009210804 -0.006949541 0.004169361 0.017959183 -0.017342482 -0.005244021 0.009338351
-0.0029319082 0.0001557041 9.4342195e-06 -0.010330714 0.005304654 0.002149221 -0.004149321 -0.015074844
0.0055491733 0.0045903 0.0046539605 0.0028641787 0.005599858 -0.0036136126 -0.00020708292 -0.008794264
0.0009298041 -0.0026444427 0.009992296 -0.012934495 0.0020601046 -0.011527595 -0.008815755 0.01907127
-0.006047354 -0.0071232957 0.00020249821 -0.014738505 0.0071839737 0.006001965 0.004272933 -0.00082174205
0.0024124563 -0.0019695247 2.5690844e-05 0.01073923 0.00555877 -0.0049524987 -0.00015193546 -0.007876339
0.006588869 0.005457286 -0.006038469 0.0046979054 -0.010794955 0.0070600803 0.010705962 0.0004767532
-0.0021716848 -0.014520931 0.0050376956 -0.008547303 -0.010084624 0.014690199 -0.0044515487 0.01674144
0.0031500177 0.006628541 -0.008821867 0.020796968 0.007812073 -0.0047872183 -0.0034306 -0.001643001
-0.0032141393 0.008542816 0.0031300785 0.00618203 -0.0013695947 0.0042243847 0.004356052 -0.008826686
0.0140106715 0.004050609 -0.0008071302 -0.009415259 -0.006095288 -0.0021822308 -0.0051111486 0.0015812969
0.012365111 -0.0008829632 -0.009936167 -0.0014701433 -0.009572943 0.00049454515 -0.012237269 -0.004105397
0.0027314746 0.0005959161 5.2560725e-05 0.0035302106 -0.014702299 -0.009333284 -0.0010677701 0.00054340856
-0.0107296165 0.0005807155 0.008549867 -0.0018093255 -0.009006907 -0.007313697 0.006041072 -0.0025010116
0.0017346946 0.007945948 0.002042918 0.004843812 -0.009282529 -0.0051466078 -0.0048903204 0.004133606
0.008857071 -0.007071308 -0.002174068 -0.013722424 -0.0064565507 0.0056142346 0.0082042655 -0.0052200765
0.0070878845 0.0023637342 0.0033112334 -0.00023621815 0.008400256 -0.012330783 0.011598976 0.018551845
-0.0028998281 0.0072631654 0.0073737195 0.0020504096 0.0019177594 -0.0045885467 -0.004392994 0.013944195
0.011098073 0.004657068 0.0035601838 0.009511375 0.009307019 -0.0038790933 -0.005800705 0.010432985
-0.00512319 0.0034175955 0.0009979041 -0.016140992 -0.0005898251 -0.0016221431 -0.009531824 -0.011848013
-0.0126274545 -0.005770211 -0.016001387 0.0063764374 0.0011768907 -0.006385344 -0.00048948644 -0.009055789
-0.0013939859 -0.009685177 6.7394925e-05 0.018681932 0.00403747 0.001671133 -0.004566378 0.00012412936
-0.012413485 0.014829367 0.012358848 -0.008488128 -0.006986751 0.004925971 0.0010573382 -0.0039981594
0.0011866641 0.0041762604 0.013232922 -0.0046878397 0.0066233706 0.0032112317 -0.008594784 0.007539181
0.004854432 -0.00071856787 -0.0033164404 0.0060874196 -0.014091882 -0.003612131 -0.014327257 -0.0051133656

network_body._body_endoder.seq_layers.0.bias f4 [256]
00000000: 1be0 883b 1ab9 0bbb 0680 92bb 2870 84bb
00000010: acea f9b9 7d2e 673b f498 0e3b 6f1e a13b
00000020: 0516 8fb9 8beb 77bb afa3 76bb 7ee1 1dbb
00000030: f322 103b b069 163b 8e16 a73b f2ec d23a
00000040: 2908 93bb 076d 113b e2de a9bb 4a64 55bb
00000050: 593e 8bbb 696a 3d3b c287 8d3b 06de e13a
00000060: b679 0a3c 2de1 113a 7479 6c3b 8355 bcba
00000070: 522e 923b f778 42ba a0ed 0d3b f586 ee3a
00000080: 7b83 863a 5f50 b6bb 5067 c5b9 e6bb 973b
00000090: 2033 a1bb 3018 93bb 0a08 9139 9ae5 3eba
000000a0: 6d09 8a3b c1fe 1f3b a96b a93b b7a4 253b
000000b0: 6c90 1dbb f38f d5ba 683c 94ba 5dcf 9e3a
000000c0: 0c68 523b 2b31 643b a05b ccba 7337 0eba
000000d0: 72ed 4a3b 1ff5 01bb 402b b73b 8969 333b
000000e0: 2a51 23ba 604b 4a3b 7683 42bb f1da c83a
000000f0: fad9 4a3b 963c b8b9 5997 293b 994a 84ba
00000100: bb1a 07ba 71e2 0cba 027e 65bb e597 523b
00000110: 96cb 503b a812 55ba 60d9 073b 5cf0 8c3a
00000120: 8f5e 1d3b 5c89 9abb f24d f6b9 2765 29bb
00000130: 7321 8bbb 5f34 b8bb f593 eaba 6120 fbba
00000140: 67dc caba e286 b43b d4bf 25bb 256a 53bb
00000150: c071 daba 0dfd 963b fa01 48bb b362 1c3b
00000160: 9077 9fba e746 8639 a3c5 073b ae38 5fba
00000170: f368 e03b 600e 203b c8c0 953b 8ade 963a
00000180: a1b2 dfba b6aa c03b c6cc 343b 91d1 203b
00000190: e652 443a caa2 83ba b67d 893b 7fb7 863a
000001a0: f275 8a3b 2ab1 0ebb 0ee0 48bb 3b73 70bb
000001b0: 927a 093b 49c9 07bb 0ef8 90bb 5706 abbb
000001c0: d090 283a 1ac4 85bb b0aa 95bb 4428 06bb
000001d0: 6418 44bb d855 b6bb b4c2 a13b ff6c 97b9
000001e0: 6910 99bb 0c61 9c3b 8304 4e3b cc49 d8bb
000001f0: 53d3 23bb 3909 4e3b a2eb 84ba 8ab1 b63b
00000200: 9c15 7c3a b911 993b 0901 073b 62a8 963b
00000210: d4f4 52ba 804e 5b3b e8c1 92bb 6930 413b
00000220: 1fe6 6a3b 6e1b 92b9 fac7 c139 7277 773b
00000230: a17d 603b d468 b73b 977c 943b 4252 cdbb
00000240: 4187 0a3b 5c84 3c3b eaed 2aba b2d3 c93a
00000250: f92a 1bba dda6 fd3a 7198 5b3b ab13 0b3c
00000260: 4472 60ba 4fb6 aa3a 4dc4 353b a8ef 6d3b
00000270: 3f63 aeba 083c 343b 9663 c5bb 92f9 763b
00000280: d378 09bb 1343 61b8 764c 683c b71a 9db9
00000290: 3523 ef3b 680c 2fbb dd44 ccbb 0b41 16b8
000002a0: 9cfc d739 170a 94bb 7d58 a4bb 30d6 2b3b
000002b0: 21d6 b93a 5bbe 4d3b 5e5b 053c 1ae6 cc39
000002c0: 0624 173c 1d2e 79bb fd19 fdb9 8b3b 3b3a
000002d0: e9f0 8f3b f1fe 963b 5262 073c fe8b a03b
000002e0: c326 8e3b badb 88bb 17dc d63b 0c50 59b9
000002f0: 96e2 983b b65b 103c 184c 843b b71b a9bb
00000300: 59a5 143b 35cf 8b3b 789e 363c d116 99bb
00000310: 6bbb f3bb 2d8d d33a 35bb c5ba f9d2 5f3a
00000320: 75cb 82bb 8b21 ac3b bc93 82bb 52a9 13b9
00000330: c557 423c d86d 92b7 48b3 8dbb 1b4d 5d3a
00000340: defc 873b f3f0 60b9 3dd2 d63b 5128 f7bb
00000350: e601 913a 3bff 903b a35a e939 bfe6 0ebb
00000360: 7c81 b4bb f5aa b43b 0ada f93a 2a05 713b
00000370: cc29 1cbb b68f 483b ac2c 23bb c0d6 f238
00000380: 9fc7 7d3b 0890 09b7 154f 77ba 2138 f3ba
00000390: 666e 27ba 37a0 f0ba 8441 c03a c384 1739
000003a0: 0d30 713b 0e2e 25ba 3712 8dba d43c ef3a
000003b0: bd74 0bbb fee4 483a 0534 94bb d14d 4139
000003c0: 5c7c 823a 8534 72ba 3622 05bb 2128 bfbb
000003d0: a110 853b d892 a03b 249e c7ba c208 1f3b
000003e0: 7156 443b 30a8 04ba 3fea 3f39 8f69 dc3b
000003f0: b4c8 673b 3f9a c73b 88af a23a d15c 3dbb
0.004177106 -0.0021320046 -0.004470828 -0.0040416904 -0.00047667825 0.0035275512 0.0021758648 0.004916958
-0.0002729149 -0.0037829604 -0.0037634184 -0.0024090703 0.0021993488 0.0022951178 0.0050991243 0.0016092344
-0.0044870568 0.002219023 -0.0051840404 -0.0032560998 -0.004249376 0.0028902537 0.004319162 0.0017232306
0.00845187 0.0005564865 0.0036083134 -0.0014368746 0.004461088 -0.0007418538 0.0021656528 0.0018198179
0.0010262573 -0.00556378 -0.00037651742 0.0046305535 -0.0049194247 -0.0044889674 0.00027662545 -0.0007282138
0.0042125494 0.002441332 0.005170305 0.002527518 -0.002404238 -0.001629351 -0.0011309506 0.0012116242
0.0032105474 0.0034819345 -0.0015591271 -0.00054251327 0.0030964282 -0.0019829941 0.0055898726 0.0027376136
-0.0006230051 0.003086768 -0.0029680408 0.0015324039 0.0030952678 -0.00035140355 0.0025877564 -0.0010093033
-0.00051538245 -0.00053743186 -0.0035017733 0.0032133993 0.0031859628 -0.0008128085 0.002072893 0.0010752785
0.002401266 -0.0047160815 -0.0004697885 -0.0025847645 -0.004245931 -0.0056214775 -0.0017896878 -0.001915943
-0.0015477062 0.0055092433 -0.002529134 -0.0032259312 -0.001666598 0.0046078027 -0.0030518756 0.002386254
-0.001216637 0.00025611298 0.0020717166 -0.0008515221 0.0068484484 0.002442263 0.0045701005 0.0011510414
-0.0017066785 0.0058797253 0.0027587875 0.0024538974 0.00074891595 -0.0010043022 0.004195894 0.0010278075
0.004225486 -0.0021773078 -0.0030651125 -0.0036689776 0.0020977599 -0.002071934 -0.0044241017 -0.0052192616
0.000643027 -0.004082215 -0.0045674667 -0.0020470778 -0.0029921765 -0.0055644326 0.0049365405 -0.00028882173
-0.0046711457 0.004772311 0.0031435795 -0.006600594 -0.0024997785 0.0031438603 -0.0010141025 0.0055753635
0.0009616257 0.004671302 0.0020599982 0.0045977095 -0.00080473465 0.0033463538 -0.004478682 0.0029478318
0.003584273 -0.00027867727 0.00036960823 0.0037760404 0.0034254568 0.0055972133 0.004531454 -0.0062659094
0.0021137747 0.0028765416 -0.00065204373 0.0015398173 -0.0005919184 0.0019352097 0.003350761 0.008488576
-0.0008561949 0.0013024303 0.0027735413 0.0036306176 -0.0013304724 0.0027501602 -0.0060238345 0.0037685377
-0.0020976558 -5.3706648e-05 0.014178386 -0.00029965278 0.007297898 -0.0026710276 -0.006233795 -3.5823363e-05
0.00041196204 -0.0045178044 -0.0050154314 0.0026220195 0.0014178195 0.0031393978 0.008139459 0.0003908135
0.009224897 -0.003802187 -0.00048275283 0.00071423565 0.0043927324 0.004608028 0.0082631875 0.004899501
0.004338117 -0.004176584 0.0065569985 -0.00020724552 0.004665683 0.008810928 0.0040373914 -0.0051607746
0.0022681563 0.0042666444 0.01114618 -0.0046719094 -0.0074381134 0.0016140096 -0.0015085699 0.0008538212
-0.003991539 0.005253022 -0.0039848965 -0.00014082089 0.011861746 -1.7455706e-05 -0.0043243505 0.00084419706
0.004150017 -0.00021452065 0.006555824 -0.007542648 0.0011063188 0.004424957 0.00044508753 -0.0021805016
-0.0055086 0.0055135437 0.0019062173 0.003677676 -0.0023828624 0.0030603237 -0.0024898453 0.000115794595
0.003872372 -8.199371e-06 -0.00094340864 -0.0018556156 -0.0006386995 -0.0018358295 0.0014667963 0.0001444994
0.0036802322 -0.0006301113 -0.0010762875 0.0018252381 -0.0021279298 0.0007663517 -0.004522803 0.00018434903
0.0009955275 -0.00092393934 -0.002031458 -0.005833641 0.00406082 0.0049003176 -0.0015229625 0.0024266695
0.002995875 -0.0005060462 0.00018302443 0.0067264508 0.003536743 0.0060913856 0.0012411932 -0.0028894434

network_body._body_endoder.seq_layers.0.weight f4 [256, 63]
00000000: 97e5 9e3e 9f6b a33d ff5c ef3c 333f 80be
00000010: a5ae 013e b325 1d3e 44a5 1abe f5a2 10be
00000020: db9a 6a3d ec82 babd 6d9c 50bd 43cb 8dbc
00000030: 3710 4bbe 4173 d9bd 6822 70be ea7c 1abe
00000040: a863 86bd 9b41 25ba 53c2 e43c bc14 593e
00000050: 49b4 d6bd aa4c 8bbd 2eb4 33be 9d7b 34bc
00000060: ec05 0dbe e9a3 06bc 2b89 ef3d 7714 a9bd
00000070: dfe1 30be f0a1 4d3e 32a6 e73c 31a4 b2bd
00000080: c609 0d3e bdc7 04be bbd1 88bd 6cdf 2cbe
00000090: 4326 0a3e 5675 f2bd 54f8 7ebd 950c 843d
000000a0: 6db2 26bc 744d 8b3d 42a6 4c3c 2b46 c0bd
000000b0: 1bc5 0f3d 5bbb cabc 4e81 61be b34d 7e3e
000000c0: da9d a9be e9a8 8e3d 8809 f13c 7d40 4dbd
000000d0: 78a4 e3bd 7e83 7d3d db01 1fbe 0b53 933e
000000e0: 16f1 74bb e568 7cbd 32dd c3bd 57aa 343e
000000f0: 930f d2bd fcd8 e73d 3492 10be a902 383e
00000100: 84ef febd bdd7 da3b 00fe 5fbe c6f8 f7bd
00000110: 35a1 6cbb 5db4 9d3d c120 073e 283d 963d
00000120: d7eb ec3c 6bd5 213d 5eb8 163e 8845 423e
00000130: 35c2 643d 52c1 29bd 9547 0abe 92c5 683d
00000140: a6bb 903c 57fa d93d fed9 24be 4fa7 83be
00000150: abce 80bd 5034 eebd 2939 a63d 60b1 e4bd
00000160: 0e9e ab3c ba5d d13c 2cca 30be 4060 45be
00000170: 83bf 653d 3e24 edbd 1691 473c bc91 173e
00000180: 1e77 e03c ed04 80bd b5c5 3e3e 0036 efbd
00000190: b0b9 f2bd 5228 bbbd 78a4 7f3d 0142 903d
000001a0: efcc 993e 8459 19be 34f5 11be 0dc7 363e
000001b0: 5c7b 4ebe 37a3 d1bd cdf7 b93d 752a aebd
000001c0: fe9f aa3d a34e 0a3d c807 693d 7120 f13d
000001d0: ca3b 403c 6071 d13d 3919 57bd ec1d 4b3e
000001e0: 949a 33be 8598 0fbb 054b 243e 8490 c7b9
000001f0: 7d43 02be 5b40 15be c457 ad3b f10a 333e
00000200: 76d8 483d b0e6 1a3e 7a1e 25bd 3f31 9dbd
00000210: fd6c 03be 200a 51be e00f dfbd f838 273e
00000220: 9736 dc3d 97fb afbd b375 1b3d 66fa 0abe
00000230: 0545 9fbd 835c 773d e566 833e 8cb6 44be
00000240: 6080 ab3c 208f 213e 245b c6bc 2531 fd3d
00000250: a9f0 503e 99ca e93d fbfb cbbd b449 113d
00000260: 42fc 19bd e24d ec3c 13a5 fa3b 787f e93c
00000270: 5bda 41bd 1b79 b9bd 50f9 6b3d d22e e43d
00000280: 82a9 6abb 5878 2dbe a129 6e3d f7ff 03be
00000290: 3397 69bc f570 d6bc 267e 453d 4a07 5fbe
000002a0: abda 0e3e 752d e7bd 5cd0 a43e 934f b63d
000002b0: fcea 5abd 5835 f83d 8980 0abe bc44 06be
000002c0: 55f9 633e 9030 363e 385f 453e eb12 073e
000002d0: d90a 8f3e 98c0 e23d 5096 28bc 89db 27be
000002e0: ebf0 1d3e 61d2 cebd 7b3d a0bd d45b f73c
000002f0: a166 3ebe 5366 00be 07d8 f43d bf45 6cbc
00000300: cf31 7c3d 27e6 f8bd e308 123c ed43 78be
00000310: fa39 3e3d 5880 293e f6e7 a1bd 697f 093c
00000320: 8215 943b 7b6e 973d 1e6c 79bc efca e23d
00000330: d68f 02bc 5a70 67bb ca48 233d 72ef bf3d
00000340: 3fdf 0cbe 9ae0 d2bd 6cba 1dbd 0640 263e
00000350: 49d4 3cbe 0e5c 9b3d c494 0abd 6029 c0bd
00000360: 4afe c2bc 10da a03a b8b9 883d 964f 13be
00000370: 06b1 c03c 1399 14bd b406 2dbc c92b 223d
00000380: eabc 81bc f742 193d 9e71 88bc 3cad 51be
00000390: 4e9e 553c 0ffd 173c 16c0 263d 3b55 a23e
000003a0: 6177 893d 8451 323e 89c8 8c3d ee09 fdbd
000003b0: bcb5 84bc f6dd a73c df07 e0bb 1439 2f3e
000003c0: 93a0 653e 0ce5 20be a249 aa3c a02f 62bd
000003d0: b453 61be 1ecb 0abd 3ee2 bdbb 595d 8cbe
000003e0: 9e0d 9f3d ba0e 173d db98 d8bd 4229 9a3d
000003f0: fae9 693e c137 79bd feb9 6d3d 2304 4fbd
0.31034538 0.079795115 0.029219149 -0.25048217 0.12664278 0.15346412 -0.15102106 -0.14124663
0.057276588 -0.091070026 -0.05093043 -0.017308837 -0.19830404 -0.10617686 -0.23450625 -0.15086713
-0.06561977 -0.00063040265 0.027924692 0.21199316 -0.104836054 -0.06801732 -0.17549202 -0.0110158
-0.1377179 -0.00821779 0.116960846 -0.082558565 -0.17273663 0.20081306 0.02827749 -0.08722723
0.1377326 -0.12966819 -0.06680628 -0.16882104 0.13491158 -0.11838786 -0.062248543 0.06447712
-0.010174376 0.068018824 0.012490811 -0.093883835 0.035100084 -0.024747541 -0.22021982 0.24834327
-0.33128244 0.06965811 0.02942349 -0.05011033 -0.11115354 0.06189298 -0.15528052 0.28774294
-0.0037375144 -0.061623473 -0.09563674 0.17643104 -0.10256877 0.11320683 -0.14118272 0.17969765
-0.12448028 0.00667855 -0.21874237 -0.12107997 -0.003610683 0.07700417 0.13196088 0.073358834
0.028921051 0.03951017 0.14718768 0.18971837 0.055849273 -0.04144413 -0.13503869 0.056829043
0.017667603 0.10643452 -0.16098782 -0.25713584 -0.06289419 -0.116310716 0.08116371 -0.11166644
0.02094939 0.025557388 -0.17264622 -0.19274998 0.056090843 -0.11579178 0.012180587 0.14801687
0.02740055 -0.062509395 0.18630107 -0.116802216 -0.11851823 -0.0913855 0.06241271 0.07043839
0.30039164 -0.14975554 -0.14253694 0.1784937 -0.20164245 -0.10236209 0.090804674 -0.08504192
0.08331297 0.0337664 0.056892186 0.11773766 0.011733005 0.10226703 -0.05251429 0.19835633
-0.17539436 -0.0021910977 0.16044243 -0.0003806391 -0.12721057 -0.14575331 0.0052900035 0.17484643
0.04903456 0.15127063 -0.040312268 -0.076754086 -0.12834544 -0.20414019 -0.108917 0.16330326
0.107526 -0.08592909 0.037954044 -0.13572082 -0.07776836 0.06039096 0.2566444 -0.19210261
0.020935237 0.15777254 -0.024213381 0.12362889 0.20404305 0.114155956 -0.09960171 0.03547068
-0.037594087 0.028845731 0.007649073 0.028503165 -0.04732738 -0.09056302 0.05761081 0.11141743
-0.00358066 -0.16940439 0.05814517 -0.12890612 -0.01425724 -0.026176909 0.048216008 -0.21780124
0.13950603 -0.11287967 0.32190216 0.08901896 -0.053446755 0.121195495 -0.13525595 -0.13112158
0.22263081 0.17791963 0.19274604 0.1319081 0.27937964 0.110718906 -0.010289744 -0.1639234
0.15423934 -0.1009872 -0.078242265 0.030195154 -0.18593837 -0.12539034 0.119552664 -0.014420926
0.06157094 -0.12153273 0.008913252 -0.24244662 0.04644201 0.16552866 -0.07905571 0.008392193
0.0045191655 0.07394119 -0.015223531 0.11073863 -0.0079688635 -0.003531477 0.03986434 0.093718424
-0.13757037 -0.102967456 -0.038507864 0.1623536 -0.18440355 0.075859174 -0.03383328 -0.09382892
-0.023802895 0.0012272019 0.06676048 -0.14385828 0.023521911 -0.036278795 -0.01056068 0.039592538
-0.015837152 0.03741738 -0.01665574 -0.2047624 0.013038231 0.009276642 0.04071053 0.3170565
0.06712223 0.17413908 0.068741865 -0.123554096 -0.016199939 0.020491581 -0.006836876 0.17111617
0.22424535 -0.15712374 0.020787064 -0.0552212 -0.22004586 -0.033885114 -0.0057947924 -0.2741497
0.07766269 0.03687928 -0.1057603 0.075274006 0.22843161 -0.060844187 0.058038704 -0.050541054

network_body._body_endoder.seq_layers.2.bias f4 [256]
00000000: c8e7 a13b 7f34 e23a 5f82 873b 0903 a4b9
00000010: cc11 7d3b 8e3c a33a 27eb 4ebb b268 983a
00000020: 5564 903b a982 703b 4458 4f3b a806 9e3b
00000030: 857a 043b adaf 8f3a 63b3 89bb f8fe 5f3b
00000040: 876d 893a 9b16 cc3a cd93 523b c8b1 3dbb
00000050: 566a 1a3a 65cb 72bb d81b da3a f3c5 1e3b
00000060: 47f0 1abb 4191 70bb 0ca8 c639 39f5 9dbb
00000070: c0bb ca3a 33e8 b8b9 8f59 993b 72f1 51bb
00000080: 72fb 153a 9e9b 99bb 50c9 013c 6050 423b
00000090: b2b0 a83b cfda 2b3b 5fc9 22bb f12d 8d3b
000000a0: 90ea 2c3b d2b1 3dbb 7671 53bb b586 0dbb
000000b0: 80b1 e3ba 345d ecba 1985 413b 257d 043b
000000c0: 41ec 64bb 5645 a33a 1d0a 23bb e9a8 ad3b
000000d0: 69e5 c63a 97b1 c33a 2c4b ecba e829 913b
000000e0: 75f8 ae3b 5272 883b 8bf9 1cbb f718 55bb
000000f0: 88da 6b3b c054 6aba 3bab 3ebb 65e5 8fba
00000100: 0a9f cd3a 9cc1 4a3b 4f86 df39 f4ec e13a
00000110: 37c1 763b 8d1e 5ebb 6ea8 98bb eea0 8c3b
00000120: 1d87 073b f6fe 6a3a 4b30 10bb 79a3 8ebb
00000130: fba5 98ba 24ff 8ebb 5854 ab3b c6d3 9e3b
00000140: a1d9 73b9 fa88 013b aecb ec3a 2720 f3ba
00000150: b39d ad3b 309d c03a c8aa 3abb 7f3d b8b9
00000160: 0e8f 78b9 4e5e adbb f71c 98bb 809a ec39
00000170: 9c0f 163b 3d96 6e3b 7181 53bb 1d7b 4d3b
00000180: 7210 fcba a950 623b 3dc1 41bb 7e28 f7ba
00000190: 8f00 98ba 024f 883a 6ebd 883b 2f7f 203b
000001a0: 5ecf 9e3b fcde 8d3b 0fc2 64bb 057d 70ba
000001b0: cafa 873b 5db7 c0bb 4eab a4ba 34bd 323b
000001c0: f8d6 473b 435a 8d3b 3070 18bb 0650 db3b
000001d0: debb 07bb 4f66 4ebb d86d ab3b 6fe2 913a
000001e0: b364 c139 e00c 05bb 1c94 8a3b e17b a7b7
000001f0: 2913 bd3a e4e7 833b 2912 8d3a d6db 043b
00000200: a0d2 263b 41e2 bb3b 01f3 4d3b e664 a73a
00000210: fcf5 a53b b0ed 50ba 69a4 8b39 d36e 44bb
00000220: 3422 983b 2dfa 48bb bc07 94ba 8771 8f3b
00000230: 14de 043b 64d7 183b 8cb8 00ba bc39 d83b
00000240: 420e 4d3b c2aa 6b3b 40ac 463b 92a1 8ebb
00000250: 38b6 ab3b 37a9 a33b ff7f 2db8 409c 95bb
00000260: 0725 bd3b ec28 633b 3b73 933b 37f8 6a3b
00000270: ca67 0b3b 36af d53a 17bf 8e3b e050 03bb
00000280: 3486 bbbb 211e 4c3b a5c3 213b b95d a73b
00000290: 256e 0cbb 0fe0 dfba 12bc 223b b5d3 92b9
000002a0: ae95 9c3b 408b 9abb 9e9f 823b bad4 faba
000002b0: 39d8 71bb 710c 843b fbf5 e4ba 6111 153b
000002c0: 038c 8fbb 25f3 6539 072c 08bb 1dd7 d3bb
000002d0: b7e1 863b eb17 1c3b 5cd2 0e3b d3e7 b9bb
000002e0: 1f8e 693b f4db b439 8b35 243a 963f c03b
000002f0: d9b6 a3bb a14d 25bb 39de 1abb 75a2 2fbb
00000300: 911e ca3a 3e84 af3a 6432 76b4 97d4 86bb
00000310: a560 abbb 704f 16bb 8a02 203b 2a50 dcba
00000320: fcc0 9fb9 479c 83ba b128 bbb9 6595 7dbb
00000330: 3c6b 143b 4132 e4ba 7ce3 623b e16e 323b
00000340: 6e7e 79bb 1e3e c2ba b97b d739 bd4b a43a
00000350: 5ec3 1f3b d9d2 60bb 96b3 8b3b aecf 6b3b
00000360: 8324 5bbb 193a a3ba fcf6 d33b 5b9f 7e3b
00000370: 5fa8 803b bb8c 3b39 2fcb 8a3b 0640 363b
00000380: 9489 63bb 0a5d dab8 6860 543a e4b4 46bb
00000390: 8cfb 863b 5f3d 413a a61b 7a3b 02e5 9cba
000003a0: f948 7a3b a0bd 673b 896c 793b 0268 bc3a
000003b0: ca9a 0bbb 0b5a 2ebb a37d 6c3a 0835 d3ba
000003c0: 67cd 2c3b cbb7 a43b f91f e03a 1c58 01bb
000003d0: 116a 9e39 3d77 9dbb 72b2 b5b8 92ac f3ba
000003e0: 9c91 64bb a8da 433b d26e c23a 4886 5fbb
000003f0: 2b9d e5ba ef17 013b 9e20 343a 9b98 473b
0.0049409606 0.0017258077 0.0041354145 -0.0003128278 0.0038615344 0.001245396 -0.0031573267 0.0011627881
0.0044064918 0.0036698973 0.0031638304 0.004822571 0.002021463 0.001096239 -0.0042022928 0.0034179073
0.0010484912 0.0015570702 0.0032131553 -0.0028945077 0.0005890479 -0.0037047502 0.0016640378 0.0024226874
-0.0023641752 -0.0036707672 0.00037890708 -0.0048204926 0.0015467331 -0.00035268217 0.0046798657 -0.0032034782
0.0005721367 -0.0046877405 0.007921532 0.0029649958 0.005148017 0.002622295 -0.0024839265 0.004308455
0.0026384927 -0.00289451 -0.0032263673 -0.0021595184 -0.0017371625 -0.0018033148 0.0029528795 0.0020216194
-0.0034930857 0.0012456577 -0.0024877854 0.0052996767 0.0015174571 0.0014930245 -0.0018027774 0.0044300444
0.005339677 0.0041640187 -0.002395245 -0.00325161 0.003598841 -0.00089390203 -0.002909376 -0.0010978399
0.0015687656 0.0030938154 0.00042633942 0.0017236755 0.0037651786 -0.0033892721 -0.0046587503 0.0042916453
0.00206799 0.0008964384 -0.002200144 -0.0043529836 -0.0011646146 -0.004363911 0.0052285604 0.0048470227
-0.00023255359 0.0019765482 0.0018066072 -0.0018549011 0.00529834 0.0014695283 -0.0028483141 -0.00035141033
-0.00023704415 -0.005290783 -0.0046421248 0.0004512854 0.0022897488 0.0036405467 -0.0032273198 0.0031353899
-0.0019230975 0.003453294 -0.0029564642 -0.0018856672 -0.0011596846 0.0010399523 0.0041729724 0.002448987
0.0048464974 0.0043295603 -0.0034905707 -0.0009173903 0.0041497694 -0.0058812336 -0.001256326 0.0027273418
0.0030493122 0.0043137386 -0.0023260228 0.006692889 -0.0020711343 -0.0031494086 0.0052316003 0.0011130105
0.00036886855 -0.0020301864 0.004229082 -1.9965637e-05 0.0014425266 0.0040254463 0.0010762858 0.0020272634
0.0025455132 0.0057337587 0.003142536 0.0012771159 0.005064724 -0.00079699885 0.0002663464 -0.0029973283
0.004642749 -0.0030666695 -0.0011293809 0.004377547 0.002027397 0.0023321742 -0.0004910312 0.0065986793
0.0031289016 0.0035959934 0.0030315071 -0.004352757 0.005240228 0.004994537 -4.136562e-05 -0.0045657456
0.0057722363 0.0034661843 0.0044998205 0.0035853514 0.002127158 0.0016302827 0.004356276 -0.002003722
-0.0057227854 0.0031145888 0.0024683264 0.005107608 -0.0021427956 -0.0017080324 0.0024831337 -0.00028005024
0.0047785854 -0.004716307 0.003986313 -0.0019136884 -0.003690256 0.0040298034 -0.0017468327 0.0022745954
-0.0043807044 0.0002192972 -0.0020778195 -0.0064648525 0.004116263 0.0023817967 0.0021792864 -0.0056733876
0.003563769 0.00034496153 0.0006264082 0.005866955 -0.0049961624 -0.0025223272 -0.002363099 -0.0026799713
0.0015420486 0.0013390852 -2.2928867e-07 -0.004114698 -0.005230027 -0.0022935532 0.0024415576 -0.0016808559
-0.00030470628 -0.0010041081 -0.00035697737 -0.0038693782 0.0022646924 -0.0017409996 0.0034620455 0.0027226734
-0.0038069743 -0.0014819538 0.00041100176 0.0012534779 0.0024377923 -0.0034305362 0.0042633517 0.003598194
-0.003343851 -0.0012453228 0.006468652 0.0038852307 0.0039263214 0.00017886136 0.004235647 0.0027809157
-0.0034719454 -0.0001041238 0.0008101524 -0.0030320222 0.004119342 0.0007371511 0.0038163452 -0.0011970105
0.0038190468 0.0035360828 0.0038059077 0.0014374258 -0.0021301978 -0.0026603963 0.0009021407 -0.0016113827
0.0026367547 0.0050267926 0.0017099372 -0.0019736355 0.00030215134 -0.004805474 -8.6639906e-05 -0.0018590859
-0.003487683 0.0029884968 0.0014834052 -0.0034107137 -0.0017518153 0.0019698103 0.00068713154 0.003045595

network_body._body_endoder.seq_layers.2.weight f4 [256, 256]
00000000: 06b3 1a3e 8c48 3cbd ff1e 5b3d 2976 47bd
00000010: 0e56 14bc 6612 253c faf3 b1bc a440 053e
00000020: 354b a9bd 0da9 cbbc 513e 3ebc 5b49 12be
00000030: f16e 1f3b 1277 e43c f7fd 733b 44f9 02be
00000040: 5a7b 97bd a2ee 25bc 893c 9fbd 39cd c13c
00000050: 580c a9bd e2a5 07bd 742f 963d f26c aabc
00000060: 6560 e63d 4b49 ca3d 5c93 813d c7ca 593c
00000070: c2c2 5dbc 8ef4 813c 0418 f63d de15 f4bb
00000080: 7902 b93d 46dd bcbc 809d 68bd d591 093d
00000090: a247 c93d 3859 293c 7d47 61bd 48ba 903c
000000a0: 2a97 a8bd 57e2 ecbb 94d9 cb3d f47b 833d
000000b0: 1579 843d 8871 adbc 6650 843d a80b ec3b
000000c0: 41c4 37bc c0a7 babb 0b5d 94bd d8e8 00bd
000000d0: a8b2 c13c 4c0f 8d3d 8393 da3d 1b87 5e3d
000000e0: 552a f4bc fd64 1cbd b458 30bd 9bde 803d
000000f0: b30d b53c 475b 3ebd ba6d 7d3c a5c2 f33b
00000100: c685 f4bd 2e89 7e3b f64c 03bd 9495 e6b9
00000110: 0eb7 2fbd 271d b33d 8fac 10be 0cd1 143d
00000120: 3bea 12bc 0ba3 fdbd e5ba c5bc 0f43 023d
00000130: 883f 953d 8666 57bd ba72 c8bb 41b5 e2bc
00000140: b9b0 1abd 4ee3 5a3b 6b40 99bc 1e2f adbc
00000150: a2cd 81bc 60a5 e63d b0a3 4fbe 3519 c9bd
00000160: 9260 7fbd d4aa d0bd ce2d a33b 0184 89bd
00000170: 2496 773d ec56 27bd 7eba 6c3c 7582 2b3d
00000180: 2fe4 13be 88a8 7d3c 5d53 7bbd 811d 84bd
00000190: 2ebb 9b3c 0706 7fbc 9aaf b03d 9ee2 44bd
000001a0: 6979 c33c caa2 da3c 8bd8 0c3c 0ac3 8d3d
000001b0: d938 e0bc 2870 0abd 80f1 7a3c 842e b43d
000001c0: 1842 9d3d 605e 763d 64cf 883c 2beb 9fbc
000001d0: 046d 903c 6d2d b13c 9ef3 183e 9026 3ebc
000001e0: 6a2b 393d 6870 67bd 5d88 25bc b86f a9bc
000001f0: 3c8d 09bc 5e28 29bd 5e05 093c 1c29 1abd
00000200: 884b 343d b2a6 88bd 112e bf3c 9bf7 b93d
00000210: 9500 c73d e426 573d ed3a 17be 7a8c 563d
00000220: ab3f 52bb 2dea e93c 97b8 e7bc 32e1 543d
00000230: 2f47 e23b 06b0 c13c 4630 f8bd cc6a 3dbc
00000240: 1201 983d 6bf1 9f3c 9b08 a33d ba24 cd3c
00000250: 28e3 283d 7358 c93b ccf0 843d ddbb 853d
00000260: 38df c03c 89d3 7c3d 165d 4e3b 442a 353d
00000270: 3a8b bf3d 7da8 45bc 7a36 a1bc 7c18 bc3d
00000280: 7914 173e 6a16 b5bd 0908 3f3d 22cd 3d3d
00000290: f0b3 8e3d 92be fcbc b1a3 0cbc a377 40bd
000002a0: f5b2 773d d4d5 623c a156 c03c 6e22 223d
000002b0: 169a 30bd 4443 4b3d 85f5 48bd f151 8dbd
000002c0: c45e 3b3c 1681 39bd c420 59bd b4d1 a7bc
000002d0: 474f 013e 6c70 383b 279c a1bc f536 30bd
000002e0: 9a12 823c 0e81 9ebd 6b9e 1ebd 6402 453d
000002f0: 3876 edbc ab6e ab3c fbcd 8d3d 19bf 26bd
00000300: d8f4 3bbd 98e0 45bd 96ca 70bc afd5 0cbe
00000310: a4a5 91bd cca7 e1bd 01ff 0fbb 2103 4bbc
00000320: 1521 bd3b 9816 793d 8267 583c c148 46bd
00000330: 1302 b03c 8b67 de3b 0213 ab3c 4bdc fd3d
00000340: abc5 953d 738e 873d 9aad 0ebd e40c 69bd
00000350: 72fa 863c 0360 8d3d d6df bf3d 0a5f 80bd
00000360: 1dab abba 3a18 42bc bd9e 3dbc c1fc 553d
00000370: 996c 863d 32cd 203c 94c8 56bc d371 a93d
00000380: b6c1 7dbd 4629 1d3d ccc1 68bb c70b 9cbd
00000390: 61f7 aabd 95fa 04be c7ad 29bd 4bb8 52bd
000003a0: 2b73 81bd 6a36 e4bd 02de 79bd 3e4f e3bd
000003b0: 56b3 613d 5654 22bd 0c14 5f3d 1190 803d
000003c0: eafa 753d cfad 15bd 5c24 35bd 2aa5 3a3c
000003d0: cc1b 223d 7f89 af3d a8bb a9bd af62 b5bc
000003e0: 5d0f d7bc e365 693d 5f47 663d 800f 823d
000003f0: c68b 2b3d 4061 8fbd b9e0 5a3d 9ea5 8fbb
0.15107355 -0.045967624 0.053496357 -0.04869667 -0.00905372 0.010075187 -0.021722782 0.1301294
-0.08266298 -0.024860883 -0.011611537 -0.14285795 0.00243276 0.027888808 0.0037230232 -0.127904
-0.07396574 -0.010127695 -0.07775218 0.023657428 -0.082543075 -0.033117183 0.0733327 -0.020803902
0.112488545 0.09877261 0.06326935 0.013292975 -0.013535203 0.015863683 0.12016299 -0.007448896
0.09033675 -0.02305473 -0.05679083 0.033586342 0.09828116 0.010336213 -0.054999817 0.01766695
-0.08231957 -0.0072291302 0.09953609 0.064201266 0.06468407 -0.0211723 0.06460647 0.007203538
-0.011216224 -0.005696267 -0.07244309 -0.031472057 0.02364476 0.06887683 0.10672667 0.054328065
-0.029805342 -0.038182247 -0.043053344 0.062924586 0.022101259 -0.046473768 0.015468055 0.007438975
-0.11939578 0.003883909 -0.032055818 -0.00043980463 -0.042899184 0.08745795 -0.14128326 0.036332175
-0.008966978 -0.123846136 -0.02413697 0.031802233 0.07287508 -0.05258801 -0.006117192 -0.02767432
-0.037766192 0.0033399644 -0.018707475 -0.021140631 -0.015845124 0.112620115 -0.20277286 -0.09819261
-0.062347956 -0.10188833 0.0049798256 -0.06714631 0.06044592 -0.04085438 0.01444876 0.04187246
-0.14442514 0.0154820755 -0.0613588 -0.0645094 0.019010153 -0.015565402 0.08627243 -0.04806768
0.023861604 0.026688952 0.00859655 0.069219664 -0.027370857 -0.033798367 0.015316367 0.08797935
0.07678622 0.060148597 0.016700454 -0.019521317 0.017630108 0.021628106 0.14936683 -0.011605874
0.04520742 -0.056503683 -0.010103312 -0.020683154 -0.008395489 -0.041298263 0.008363096 -0.03763686
0.044017345 -0.066724196 0.023337396 0.0908043 0.09716908 0.052527323 -0.14768572 0.052380063
-0.0032081406 0.028554047 -0.028286261 0.051972575 0.0069054584 0.023643505 -0.121185824 -0.011561107
0.07422079 0.019524297 0.07960626 0.025041927 0.041232258 0.006144577 0.06491241 0.06529973
0.023543939 0.061725173 0.003148859 0.04422976 0.09352727 -0.0120640965 -0.019679297 0.091843575
0.14753903 -0.08842166 0.046638522 0.046338208 0.06967914 -0.03085259 -0.008583949 -0.046989094
0.0604734 0.013844926 0.023478808 0.039583616 -0.043115698 0.049624696 -0.04906227 -0.06900395
0.011436168 -0.04528912 -0.053009763 -0.020485736 0.12627898 0.002814318 -0.01972778 -0.04302116
0.01587801 -0.07739459 -0.038725298 0.048097983 -0.028987035 0.020926794 0.06924053 -0.04070959
-0.045887798 -0.048309892 -0.014696738 -0.13753389 -0.071116716 -0.11018333 -0.0021972063 -0.012390883
0.005771766 0.060812563 0.013208272 -0.048409227 0.021485364 0.0067872456 0.020883087 0.12395533
0.07313093 0.06618967 -0.034833528 -0.05689706 0.016476844 0.069030784 0.09368865 -0.06268127
-0.001309726 -0.011846596 -0.011573491 0.052242998 0.06563682 0.009814547 -0.013109345 0.08273663
-0.061952315 0.03836944 -0.0035515903 -0.07619434 -0.08347965 -0.12986214 -0.041425493 -0.051445287
-0.06320795 -0.11143191 -0.06100274 -0.110990986 0.05510267 -0.03963121 0.054462478 0.062774785
0.060053743 -0.03654271 -0.044224128 0.011391917 0.03957729 0.08571147 -0.08287746 -0.022141783
-0.026252443 0.056981932 0.05622041 0.06350613 0.041881345 -0.07000971 0.05343697 -0.004383757

network_body._body_endoder.seq_layers.4.bias f4 [256]
00000000: ddf0 803b 80a3 8bba 3e04 883b bd7a d8ba
00000010: eb41 8d3b f72f 0e3b efac d738 a3ac 0b3b
00000020: 9dfa 203a f5bf 213b 9e52 fdba 9fbd a7b7
00000030: aa05 c13a f131 6c3b 6a46 7ab8 58f4 93bb
00000040: e994 22bb 9d21 edb9 86eb a63b e6c0 863b
00000050: 43c3 403b 96a4 6d3b a586 383b 55a9 08bb
00000060: a3ff a83b c395 28bb b4b4 80bb e976 5f3b
00000070: 660b 1ebb 223e 6b3b e174 13ba 6422 523b
00000080: f1e0 d23a ee1b ccb8 ff2a 1f3b e16f fcb7
00000090: 2a7a 5f3b 26e2 ba3b f23f 5fbb 6713 593a
000000a0: 9956 6cbb 4a68 f5b9 d615 813b 367b a2bb
000000b0: f91f 903b 84df 40bb d30a 92bb 0212 94bb
000000c0: 7a00 2dbb 04af 71bb 7802 4e3b 6672 e3b9
000000d0: ad16 95bb 2151 a03b c7b7 84bb a0c6 093b
000000e0: 7022 653b 8d91 4fbb b331 67bb f9d1 873b
000000f0: a934 8b3b 4e50 8dbb 0092 113b 9f9e 883b
00000100: 6b55 c4ba b5e8 813b a08d 623b e916 1c3b
00000110: 7b99 d13a 3a4e 103b b3da 67ba 26ed 78bb
00000120: caf1 443b 5c3c c9ba aee5 523b 4354 83b9
00000130: bfc5 6e3b a02e 96bb c843 533b ead6 52bb
00000140: c05f 643b 9d4d 13bb 09a6 903b 6c9f 45bb
00000150: 27f1 c8b9 29b1 afbb 9765 ea37 e5ad 0e3b
00000160: 336d 18bb 47a0 71bb fd98 893b d68c 98bb
00000170: e0f8 8a3a 7826 183b f51d 7f3b 6edd e83a
00000180: 13f7 8d3b 3b28 58bb e98c 15bb 887a b23b
00000190: c15d 8d3b 5a27 cdba e494 6e3a 7345 65bb
000001a0: 8484 d13a 6a8e a63b dd96 5dbb 1f5f 33ba
000001b0: 83cd 59bb f3a5 3c3b b2ef 8f3b 8ea5 cd3a
000001c0: a219 193b d173 f8ba adf8 c13a b845 72bb
000001d0: cade 71bb 24e6 5e3b cc73 703b 6d10 a93b
000001e0: b2c9 673a 18db 903b e201 1fbb 5c9b 973b
000001f0: 7794 8e3b 1c2a 403b 4f3d a0bb 8a8d 3a3b
00000200: a346 e738 2f1e 8f3b 7814 623b 555f 383b
00000210: c8d9 56bb 9af5 b3ba 5724 033b 4ce9 b4ba
00000220: 2b41 bb3b 1253 863b a220 e03a 02fb 68bb
00000230: a61c bbba 700f a03b 12d5 08bb 817d a63a
00000240: 0770 703b a499 73bb d6b6 8cbb 2911 3eba
00000250: bc8d 77ba e418 14bb 87ee 45bb f2cf 9ab8
00000260: eeda 1d3b 4cd2 5a3a 4e5f 31bb 1f5a adba
00000270: 1f94 45bb ce8b a0bb 85e5 a03b 6163 c63b
00000280: 4f7a 8ebb 7e8f 6dbb 2cb9 973b 4099 8d3a
00000290: 6bdb 2ebb e101 9dbb 237e 1d3b 53ae 44bb
000002a0: 13be 3338 e1d2 363b 71bd 94ba 6b93 cc3b
000002b0: ab37 cfba b7ad 0cbb 720c 64bb be86 7c3b
000002c0: c34a 0c3b 57bc 153b 94b3 563b c301 a9bb
000002d0: c0ac a23a d238 9b3b e092 733b c0a4 79bb
000002e0: 4e1b 033b e953 4a3b c6cc 53ba c972 a2bb
000002f0: fe2b 8c3b 78b3 66bb dbb9 963b 7ae4 ad3b
00000300: 954f c9ba 8c39 95ba 1b97 9a3b a284 81ba
00000310: e794 35ba 9321 483b cfeb 74bb 43b7 883b
00000320: 7a21 883b 6dc6 a03b e5ca 27ba df47 4a3b
00000330: 79b1 413b a714 61bb a533 07bb 81ad 923b
00000340: 0468 80bb 1153 8bbb 17a5 4e3a b461 98bb
00000350: c672 973b ac61 35bb e988 4abb d644 40bb
00000360: 99b4 8abb 7d55 943a 1068 a0bb 0007 123b
00000370: 1bba 903b 198b b03a cccc efba 483f 6dbb
00000380: 737f 503b 2096 033a cb10 7a3b a47e a63b
00000390: 2ba2 223b 8bd7 233b 6f3a 01bb 0683 a3ba
000003a0: 3e02 00bb 1ed3 813a d76d a53b 68d2 b8b9
000003b0: 158c 1fbb b051 b23a 6486 67bb 1fd7 a3bb
000003c0: fd27 1d3b a639 9abb 2833 7e3b 51e7 5939
000003d0: 4a25 473a cb09 023b 71e0 0bbb 2e85 883a
000003e0: bff9 7c3b fe5f 903a 575e 9aba fe26 923b
000003f0: d6bf 8fbb 633d 5abb 2158 89bb f46b 80ba
0.003934963 -0.0010653585 0.0041508963 -0.0016516071 0.0043108365 0.002169607 0.0001028421 0.0021312616
0.000614086 0.0024681066 -0.001932699 -1.999625e-05 0.001472642 0.003604051 -5.9670223e-05 -0.004515212
-0.0024807996 -0.00045229206 0.0050939946 0.0041123508 0.002941326 0.003626143 0.0028156426 -0.0020852883
0.0051574274 -0.002572403 -0.0039277915 0.0034097976 -0.002411568 0.0035895188 -0.00056250213 0.0032063955
0.0016088766 -9.73268e-05 0.0024287102 -3.0092839e-05 0.0034099915 0.0057032285 -0.0034065214 0.0008280784
-0.0036062358 -0.00046807743 0.0039393706 -0.0049585355 0.0043983427 -0.00294301 -0.0044568568 -0.0045187483
-0.002639799 -0.0036878 0.0031434577 -0.00043382047 -0.0045498223 0.004892484 -0.0040502283 0.002102293
0.0034963153 -0.0031672448 -0.0035277426 0.0041449037 0.004248221 -0.0043125516 0.0022212267 0.0041692997
-0.001497907 0.0039645084 0.0034569278 0.0023817366 0.0015991175 0.0022019283 -0.00088445394 -0.0037983148
0.0030051344 -0.0015353072 0.0032180357 -0.00025049047 0.0036433784 -0.004583195 0.0032236446 -0.0032171556
0.003484711 -0.002247668 0.004414324 -0.0030154837 -0.00038326645 -0.0053616953 2.794228e-05 0.002177113
-0.0023258447 -0.0036869214 0.004199146 -0.004655461 0.0010602735 0.0023216289 0.0038927768 0.0017766187
0.004332432 -0.0032982964 -0.0022819585 0.005446736 0.004314155 -0.0015651986 0.0009101166 -0.0034984022
0.0015984927 0.005082895 -0.0033811845 -0.0006842482 -0.0033234067 0.0028785437 0.0043925876 0.0015689598
0.0023361226 -0.0018955414 0.0014798843 -0.0036967825 -0.0036906474 0.0034011686 0.0036690114 0.005159429
0.00088420056 0.0044206493 -0.0024262597 0.0046266746 0.0043511945 0.0029321974 -0.004890121 0.0028465712
0.000110280955 0.004367612 0.0034497064 0.0028132994 -0.0032783616 -0.0013729811 0.0020010674 -0.0013802438
0.0057145557 0.004099258 0.0017099569 -0.0035550003 -0.0014275506 0.004884653 -0.0020878953 0.0012702198
0.0036687867 -0.0037170434 -0.0042942567 -0.0007250482 -0.00094434223 -0.0022597844 -0.0030201988 -7.382025e-05
0.002408679 0.0008347377 -0.0027064863 -0.0013225711 -0.0030148102 -0.0048994785 0.0049101734 0.0060543274
-0.0043480764 -0.0036248858 0.0046302285 0.0010803118 -0.0026681076 -0.0047914837 0.0024031482 -0.0030011132
4.2853946e-05 0.002789669 -0.0011347962 0.0062431595 -0.0015809437 -0.0021465847 -0.0034797457 0.003853246
0.0021406866 0.0022847855 0.0032760845 -0.0051576807 0.0012411103 0.004736998 0.0037166402 -0.0038092583
0.0020005289 0.0030872768 -0.0008079525 -0.004957531 0.004277705 -0.0035202187 0.0045997924 0.0053067775
-0.00153588 -0.0011384948 0.00471772 -0.0009881447 -0.000692679 0.003053759 -0.0037371998 0.004172237
0.0041543813 0.0049064667 -0.0006400778 0.0030865592 0.0029555245 -0.0034344585 -0.0020630148 0.0044762497
-0.0039186496 -0.0042518456 0.00078828767 -0.004650319 0.0046218364 -0.0027676625 -0.0030904359 -0.0029337904
-0.0042329547 0.0011316981 -0.0048952177 0.0022282004 0.0044167168 0.0013469189 -0.0018295287 -0.0036201049
0.0031814247 0.0005019624 0.0038156982 0.0050810147 0.0024815898 0.00250003 -0.0019718667 -0.0012474961
-0.0019532586 0.0009904837 0.0050484943 -0.0003525198 -0.002434497 0.0013604667 -0.0035327906 -0.0050000097
0.0023980134 -0.0047065793 0.0038787816 0.00020780905 0.0007596804 0.0019842263 -0.0021343494 0.0010415667
0.0038601009 0.0011014936 -0.0011777383 0.0044602146 -0.0043868823 -0.003330075 -0.004191414 -0.0009797798

network_body._body_endoder.seq_layers.4.weight f4 [256, 256]
00000000: 7cbf 13bd f8cd 76bd 592c b5bd 9924 10bb
00000010: 5e8e 0bbd 92b3 2abd 51b5 7e3d a6ad cbbd
00000020: 7f3f 693c faf5 123e b4b7 06bd 53c2 49bd
00000030: 6e66 143d a8e8 debc 08ab 32bd fe64 8cbd
00000040: e5b2 2b3e 08e1 b8bb b1c9 bebc 5cac 903d
00000050: 7caf 5d3c e6d1 1dbc c7e2 223c 3a7f 68bc
00000060: 4a12 e43d 4540 783c aeb4 673d d305 063d
00000070: cd9f 903c 8a8c 3c3d 4e09 e0bc b24e 643d
00000080: ace4 de3c be47 0dbd 2d28 423d 4160 283d
00000090: 5c69 cabb e99a 9b3d ec0f d13c a633 c43b
000000a0: 02f8 61bd 5f6e a5ba 59ae c2bd 6256 a0bc
000000b0: 1302 d0bc f771 e93d d7bc f4bc 038a 113a
000000c0: 76c6 07be c00f 93bc 5982 a2bc 8c98 8f3d
000000d0: b3cb 4dbd fe39 09bd 56aa 223e da55 bd3c
000000e0: b9f9 023d df91 febb b8c0 80bd cf8b 22bd
000000f0: 1281 c53d c56f ecbd b5b4 b93d 07aa 41bd
00000100: 1c0a 9dbc 7d3b 2ebc 595f 35bd 4321 2d3e
00000110: 5141 4ebc 074f c83c 7803 b3bd d7d0 873d
00000120: f9ce a2bc 9662 153d aa32 b1bd 97c9 753d
00000130: 64dd e93d 5262 9c3d 7657 eebd b5e3 37bd
00000140: 1dcd 9abd 115c aabd 18c8 ad3b 3900 323d
00000150: 2c72 2dbc 072c f6bb 9e9f 70bd cb73 a83d
00000160: b24e 98bd 8b31 9c3d d7cc 76bd fc90 7b3d
00000170: ff55 b7bd c603 cbbc aab5 bd3d 2992 eabd
00000180: d09e e0bd f9e4 c9bd 3ffb ee3d 84a1 963d
00000190: 133e 603c a822 ccbc e085 d83d b895 8dbd
000001a0: 50ff e33c ed50 44bd e3b6 d63d 0ecd 533d
000001b0: 69a4 97bd 36f7 d9bc 214e d1bd d368 bfbc
000001c0: da03 5ebc 0aad 3fbd 3ac8 743c 07bf a53d
000001d0: 2209 08bc 2c5e 62be f895 093c a48a 1dbd
000001e0: ba61 6ebd d975 0ebd dfd0 223c 07a9 0f3a
000001f0: 8bb5 683d f851 17bd 9a7d 9ebb 3223 82bd
00000200: 876e a03d df7a 413d 6ee8 97bd aa5c b83d
00000210: 5728 c13c dca8 963b 1ce6 163c c900 dbbd
00000220: 2cf9 333b 9515 423b e489 cdbc ce69 ba3c
00000230: 4707 fa3c 5495 b9bc 07d6 dc3b 810c e73d
00000240: 1d68 953d fda5 153d bd77 5abc 57c2 cf3b
00000250: 1c24 c6ba b2b6 adbc 9abf a1bd 1515 053d
00000260: 0a3e 623d b1bc 3fbd 95eb 0a3d 3572 a83d
00000270: 62ec 2f3e fda7 163d 8e83 2e3c c2f5 043e
00000280: 2e45 483d 46cc 29bb 2174 bebd f071 adbd
00000290: 0ffc 92bd eca0 503d bd5f 593b ad32 633c
000002a0: f479 35bc 56d7 8e3c 0279 7fbd 1e48 69bd
000002b0: 08b1 ccbc d4bc b1bc ff41 c5bb e18a 873c
000002c0: cd90 24be 7259 c2bd a0ef 313c 0ff0 aabc
000002d0: 43b9 0fbd a394 8ebd c139 8e3d d393 a03d
000002e0: b55e 483d 9a75 873c 13fe f9bc 83ac 483d
000002f0: c87b 9d3d 9687 81bd 9de9 56bc c703 153d
00000300: e244 a3bd 2a2e 3d3c d8f5 f93c eb20 c4bc
00000310: 71f4 ab3d 0c75 473c ad58 a83d 2326 5f3d
00000320: 0499 443d 0f1b 95bd 9633 82bc 84c9 f23c
00000330: 397d 9abd e46c 2ebd ba6b f73c ded8 3ebd
00000340: 0d9b 61bd 314d 44bd 5d4e dc3c b800 393d
00000350: c704 efbd 4cd4 5e3d f396 84bd 0bdc f43b
00000360: 642b 47bd 8ae6 db3c ee1b 42bd 5c5f e33d
00000370: 6994 90bc 3a33 683d 1f10 d23c 320b dcbd
00000380: 1ae8 3e3c 4f88 8fbd a715 86bd bbc5 513c
00000390: 30ab 85bc eb35 7e3d 1a37 283d d47b 973d
000003a0: ff07 da3c 05b2 243e 4d80 09bd 18ad 4cbd
000003b0: 9e08 9cbd 9090 25bd cc1b 5a3d 8a9f 56bb
000003c0: 329d 8c3b ac76 dd3c 1c72 8e3c b922 11bb
000003d0: 4bb6 cfbc 3ab5 82bd 74f5 d63d da7f d53d
000003e0: 3026 44bd 3ee7 8e3d eebc 22bd 10f9 debb
000003f0: fb9c d23d 1d1c b1bd b8af 5ebd 0cbe 43bd
-0.036071286 -0.06025502 -0.08846349 -0.002199447 -0.03407132 -0.041675158 0.062184636 -0.0994523
0.01423633 0.14351645 -0.032890037 -0.049257588 0.036230497 -0.027210549 -0.04362014 -0.068552
0.16767462 -0.00564206 -0.023289533 0.07064125 0.013530608 -0.009632563 0.009941763 -0.014190489
0.11136301 0.015152042 0.056568794 0.0327204 0.017654324 0.046032466 -0.027348187 0.055739112
0.027208649 -0.034492247 0.047401596 0.04110742 -0.0061771106 0.07597906 0.025520287 0.0059876023
-0.05516816 -0.0012621394 -0.095059104 -0.01957244 -0.025391614 0.1139869 -0.029875202 0.00055518764
-0.132593 -0.017951846 -0.019837545 0.07011518 -0.05024309 -0.03350257 0.1588529 0.023112226
0.031976435 -0.007768854 -0.06286758 -0.039684113 0.09643759 -0.11544756 0.0906767 -0.04728129
-0.01916986 -0.0106343 -0.044280384 0.1690722 -0.012588815 0.024451746 -0.08740896 0.0663163
-0.019874083 0.036470972 -0.086522415 0.060006704 0.1141918 0.076359406 -0.116377756 -0.044894893
-0.075586535 -0.083183415 0.005303394 0.043457244 -0.010586303 -0.0075125727 -0.058745973 0.08225211
-0.07436885 0.07626637 -0.060253944 0.061417565 -0.08951949 -0.024782073 0.09263165 -0.11453659
-0.10967791 -0.09858126 0.11669015 0.073550254 0.013686675 -0.02491887 0.1057241 -0.06913322
0.027831703 -0.04792874 0.104841016 0.051709227 -0.074044056 -0.026607137 -0.1021998 -0.023365414
-0.013550723 -0.046795882 0.014940316 0.08093076 -0.008302959 -0.22106236 0.008397572 -0.038462296
-0.058198668 -0.034780357 0.009937494 0.0005480204 0.056813758 -0.036943406 -0.00483675 -0.06354369
0.078335814 0.04723632 -0.07417379 0.09002049 0.023578806 0.0045977663 0.009210136 -0.10693509
0.002746175 0.0029614915 -0.025090165 0.02275553 0.030521048 -0.022654213 0.0067393812 0.11281682
0.07295249 0.036535252 -0.013334212 0.006340306 -0.0015116963 -0.02120528 -0.07897873 0.03249081
0.055234946 -0.04681081 0.033916075 0.08224908 0.17180017 0.0367813 0.010651482 0.12984374
0.0488941 -0.002590911 -0.092994936 -0.084689975 -0.071769826 0.050934717 0.0033168637 0.0138670625
-0.011076439 0.017436665 -0.06237126 -0.056953542 -0.024986759 -0.021696486 -0.0060198302 0.016545715
-0.16070862 -0.094897166 0.010860354 -0.020866422 -0.03508879 -0.06961944 0.069446094 0.07840695
0.048918445 0.016535569 -0.03051666 0.048992645 0.07689625 -0.06324689 -0.013117221 0.036380555
-0.07972123 0.011546651 0.030512735 -0.023941478 0.08396233 0.012173902 0.082200386 0.05447973
0.04799749 -0.07280552 -0.015893739 0.029637106 -0.075434156 -0.042584315 0.030202735 -0.04659354
-0.05507951 -0.047925178 0.026892835 0.0451667 -0.11670833 0.05440168 -0.06474104 0.00747252
-0.048625365 0.026843328 -0.047389917 0.11102173 -0.017648892 0.05668948 0.025642453 -0.10744323
0.011652017 -0.07008421 -0.065470986 0.01280349 -0.01631698 0.06206314 0.041068174 0.07396665
0.026615141 0.16083534 -0.033569623 -0.049969763 -0.07618831 -0.04042107 0.053249165 -0.0032748901
0.0042912 0.027034126 0.017388396 -0.002214594 -0.025355479 -0.063822225 0.10496035 0.104247764
-0.04788798 0.069777 -0.03973096 -0.006804593 0.10283848 -0.0864794 -0.054366797 -0.047788665
