Endless Runner/Assets/training/results/Run 1/cfg/cfg-14490.onnx (onnx, 597435 bytes, 8 tensors)

action_model._discrete_distribution.branches.0.bias f4 [3]
000000 00 00 00 00 00 00 00 00 00 00 00 00
       0.0 0.0 0.0

action_model._discrete_distribution.branches.0.weight f4 [3, 256]
000000 ff 95 c3 3a e3 7e 36 bb 3a f1 70 3c 52 82 e7 bb
       0.0014922022 -0.0027846626 0.01470595 -0.007065096
000010 0d 50 9d 3b 63 14 33 3a 72 79 5c ba e4 9c 1c 3c
       0.0048008026 0.0006831346 -0.0008410431 0.00955889
000020 a7 17 79 3a 58 e7 6e 3a 48 87 1b bb 59 ff 37 bb
       0.00095021207 0.00091134524 -0.0023731757 -0.0028075783
000030 ad c0 21 3c 65 cb d9 3b d3 94 d3 b9 80 a1 18 bc
       0.009872598 0.006646561 -0.0004035594 -0.009315848
000040 ad 2d e8 bb 7f 9d d5 ba d9 12 0a 3b 70 71 8f 3b
       -0.007085523 -0.0016297548 0.0021068363 0.0043775365
000050 10 f3 71 ba a7 b5 f1 b9 c0 63 1d 3c 72 5e 3a 3b
       -0.00092296395 -0.00046102444 0.009606302 0.0028437641
000060 e1 8a 49 3c 5e db 87 bb 58 8b 2c bc f8 12 1b 3c
       0.012301178 -0.0041460237 -0.010531269 0.009464972
000070 75 25 b1 b9 53 15 17 bb ed 32 f9 ba 38 66 80 3b
       -0.00033787978 -0.0023053482 -0.001901237 0.0039184354
000080 07 ca d8 3b 9b 51 4c b9 80 f7 5a 3b db 87 57 bb
       0.0066158804 -0.00019485356 0.0033411682 -0.0032887373
000090 27 1d 09 3a dc f2 95 3b 3c 33 29 bb 27 24 57 ba
       0.00052304793 0.0045760702 -0.0025817892 -0.0008206986
0000a0 f0 59 3b bc 19 73 96 3b 30 d8 f7 3b 4b 13 02 bb
       -0.011435017 0.0045913574 0.0075636134 -0.0019847925
0000b0 5f fb 5f 3b 7a 44 5b bb e2 57 bb bb b3 8d 86 bb
       0.0034176928 -0.0033457563 -0.0057172636 -0.0041062473
0000c0 2b 6b 09 bb b9 d5 3c 3b 90 4c 16 3c 58 8a a3 bb
       -0.0020968418 0.0028813912 0.009173527 -0.004990857
0000d0 ab 26 bb bb 7b d3 23 3b 4e 1c 45 bc 55 29 f6 ba
       -0.0057113967 0.0024997878 -0.012030674 -0.0018780628
0000e0 d2 bf cf 3b 58 3f f3 bb a2 02 dd ba 87 88 e1 3b
       0.0063400054 -0.0074233226 -0.0016861747 0.0068827304
0000f0 f0 5a 5c 3c 28 58 4a bc 0d 18 1c ba 3c bd b0 3b
       0.013449416 -0.01235012 -0.00059545116 0.0053936522
000100 50 e1 f7 ba 2d 2c 53 3b fa fc 00 3b 7a 04 b9 bb
       -0.0018911753 0.0032222376 0.0019682036 -0.0056462856
000110 fd 17 ca ba 3d 0d da 3b e8 23 f0 ba ab 73 11 bc
       -0.0015418526 0.00665441 -0.0018321248 -0.008877675
000120 fd 61 a0 3a eb 97 d3 3a 0b 10 00 3c e0 94 35 3b
       0.0012236234 0.0016143298 0.007816325 0.0027707145
000130 93 95 31 3b 32 d9 59 b9 0a b4 d7 3b 5d 64 6c bb
       0.002709721 -0.00020775644 0.0065827416 -0.0036070563
000140 02 9d 0a bb a3 6e 84 bb c8 c8 ad 3b ce 9f 00 bc
       -0.0021150713 -0.0040415092 0.005303476 -0.0078506
000150 00 21 9d ba 58 a8 d6 bb 0b 00 01 bc 7f f6 8c 3c
       -0.0011987984 -0.00655083 -0.007873545 0.017207382
000160 d5 24 fe 38 52 19 b5 ba 76 51 a3 3b 4f 67 23 bc
       0.00012118524 -0.001381675 0.004984076 -0.009973361
000170 b5 e0 40 3b a2 85 03 3c 7c a5 3a ba 60 a4 8a bb
       0.002943081 0.008027466 -0.0007119996 -0.004231021
000180 12 6c ee ba 2b 5a 70 3b 5c 48 8a 3b 59 93 8c 3b
       -0.0018190166 0.0036674838 0.0042200517 0.004290026
000190 2e c2 4c 3b 5b b9 a7 bb fb 1e 90 3b ed 2b 11 bb
       0.003124367 -0.0051185316 0.0043982244 -0.0022151426
0001a0 65 13 cf 3b b2 07 e5 ba 4a a2 55 ba f3 c5 e1 ba
       0.0063194507 -0.0017473607 -0.0008149488 -0.0017225131
0001b0 88 19 dd bb 40 e6 d8 3b 98 0d e9 3b f7 09 72 bb
       -0.0067474283 0.006619245 0.007112216 -0.003693221
0001c0 4b a6 1b 3b 05 4c 20 bc 5d 42 97 3b 32 25 c9 bb
       0.0023750241 -0.0097837495 0.0046160654 -0.006138467
0001d0 03 45 9f bb d7 9a 55 3c 8e b2 06 3b c1 ba 45 3c
       -0.0048605218 0.013037405 0.0020553204 0.012068451
0001e0 ce db 0c 3c ce a1 84 3a a7 d2 f4 bb 93 0c 8a 3c
       0.008597327 0.0010119022 -0.007471401 0.016851699
0001f0 4d 63 91 3b 41 68 41 3a c2 af 5b ba 8a 6c a5 bb
       0.0044368864 0.0007377901 -0.0008380377 -0.0050483393
000200 73 4a 65 bb ed 1b e1 3b 93 e3 15 3a 6d 8b 0b 3b
       -0.0034987002 0.006869784 0.000571781 0.002129282
000210 a5 a4 79 3a ef 1d 6d 39 03 00 b0 3b 37 52 6b bb
       0.000952313 0.00022613232 0.005371095 -0.0035907158
000220 8a 5d d9 3b 23 81 af 3a 4a 75 f6 38 05 d9 88 bb
       0.006633465 0.0013389926 0.00011752041 -0.0041762614
000230 99 b8 85 ba df 06 65 bb 45 e6 18 bb 62 d2 81 bb
       -0.0010202109 -0.0034946722 -0.002333061 -0.003961847
000240 5b a9 fc 3b 92 77 13 bb ef c0 ab bb 45 45 ec ba
       0.0077106184 -0.002250169 -0.0052415053 -0.0018026015
000250 a1 0e 17 bb 1a 4b 89 3b f7 1d 20 bc 85 73 3a bb
       -0.002304949 0.004189861 -0.009772769 -0.0028450203
000260 b0 fe 5d 3a 10 ca 88 bb fb 05 61 3b a3 a7 37 3b
       0.00084684324 -0.0041744784 0.003433584 0.0028023503
000270 9f 00 0e bc 21 3a c2 bb f5 9d af 3b c7 b8 c2 3b
       -0.00866714 -0.0059273397 0.005359406 0.0059424373
000280 29 7c a2 bb 33 a0 a4 3b e7 db 3d 3b 58 bc e2 b9
       -0.0049586487 0.00502398 0.0028970183 -0.00043246406
000290 d2 e0 da bb 1b 00 44 bb 57 a0 29 3b e8 6e db b8
       -0.0066796327 -0.002990729 0.0025882924 -0.00010463392
0002a0 d4 33 9f 3b e1 19 2b 3c 3b f9 be bb cc 57 97 3a
       0.0048584733 0.010443182 -0.0058280504 0.0011546551
0002b0 e4 16 00 bb 75 43 50 bb 1e e5 01 3a 57 a3 56 3b
       -0.0019544894 -0.0031778489 0.00049551006 0.0032751167
0002c0 1f 36 e6 3a 50 da 51 bb 40 98 b8 b8 cb 66 17 bc
       0.0017563737 -0.0032020994 -8.8021625e-05 -0.009240816
0002d0 fb 03 19 bb e1 fe 0b b9 fb 7b 08 3b 08 56 e2 bb
       -0.002334832 -0.00013351023 0.0020825851 -0.0069072284
0002e0 13 0a 38 3b e7 1b 98 b9 54 ce 0b ba db 6d db bb
       0.0028082177 -0.00029012488 -0.00053331745 -0.0066964454
0002f0 d3 23 07 3b 52 98 be bb 7b 5a eb 3b cb 0c 50 3c
       0.0020620718 -0.005816498 0.007182417 0.012698363
000300 f9 1f ba bb c3 62 d5 3b 8a 19 36 3c 57 fe 0d bb
       -0.005680081 0.0065120175 0.011114487 -0.002166649
000310 ae 4e 0b 3c 42 29 d4 bb bc b5 bd 3a c8 97 4a 3c
       0.008502645 -0.006474645 0.0014473717 0.012365289
000320 92 ad ba 3b bb 51 75 3b c3 ca 7f 3b e2 80 33 3c
       0.0056969607 0.0037432748 0.0039030768 0.010956021
000330 60 b7 3f 3b e3 e2 88 ba 1c 71 27 bb eb 36 bc 3b
       0.0029253587 -0.0010443594 -0.0025549596 0.0057438514
000340 eb af b3 bb 7f ad 10 bb 3a 60 aa 3b 38 8a 63 bc
       -0.0054836175 -0.0022076068 0.0051994594 -0.013887934
000350 ba cb b4 b9 27 74 ab ba ca 6a 75 bb 97 a8 23 bc
       -0.00034484064 -0.0013080881 -0.0037447684 -0.009988925
000360 a7 fa 75 bc 23 04 9c ba 73 df 46 bc 0e 52 00 3b
       -0.015013373 -0.0011903088 -0.012138235 0.0019580158
000370 3f 0f e4 3b 1d 63 98 ba 39 76 2b 3b c3 f2 7e bb
       0.0069598253 -0.0011626218 0.0026162995 -0.0038902021
000380 23 20 3e bb 8f b0 1a bc bb e0 04 3b f7 bf 4e 3c
       -0.0029010854 -0.009441509 0.0020275551 0.01261901
000390 33 74 d9 3b a7 f8 4d ba f9 6d c0 ba c3 e3 ef 3a
       0.0066361665 -0.00078571815 -0.0014681212 0.0018302131
0003a0 69 00 07 bc 31 13 09 3c af 91 f5 3b cf ee d5 bb
       -0.008239844 0.008366392 0.0074941735 -0.0065287123
0003b0 6b 1e 80 39 04 2b 92 ba 15 74 d3 36 98 af 10 bb
       0.00024436726 -0.0011151736 6.3018038e-06 -0.0022077318
0003c0 73 aa 15 3b d0 c6 74 3b be 9c 14 3c 93 b0 88 ba
       0.0022837191 0.0037349947 0.009070573 -0.00104286
0003d0 1b b0 35 3c c7 fc ba 3b 30 73 d6 bb 6d 4e 2c 3a
       0.01108935 0.005706403 -0.006544493 0.00065729656
0003e0 55 1c fa 3a d0 4c ed 3b 97 05 2f ba 1f ba 24 3b
       0.001908193 0.007241823 -0.0006676553 0.002513535
0003f0 b9 df 1b bc 13 74 68 ba 73 cf 0a bc 8a 4b 66 3a
       -0.009513789 -0.0008867394 -0.008472311 0.000878506

network_body._body_endoder.seq_layers.0.bias f4 [256]
000000 00 00 00 00 00 00 00 00 00 00 00 00 00 00 00 00
       0.0 0.0 0.0 0.0
000010 00 00 00 00 00 00 00 00 00 00 00 00 00 00 00 00
       0.0 0.0 0.0 0.0
000020 00 00 00 00 00 00 00 00 00 00 00 00 00 00 00 00
       0.0 0.0 0.0 0.0
000030 00 00 00 00 00 00 00 00 00 00 00 00 00 00 00 00
       0.0 0.0 0.0 0.0
000040 00 00 00 00 00 00 00 00 00 00 00 00 00 00 00 00
       0.0 0.0 0.0 0.0
000050 00 00 00 00 00 00 00 00 00 00 00 00 00 00 00 00
       0.0 0.0 0.0 0.0
000060 00 00 00 00 00 00 00 00 00 00 00 00 00 00 00 00
       0.0 0.0 0.0 0.0
000070 00 00 00 00 00 00 00 00 00 00 00 00 00 00 00 00
       0.0 0.0 0.0 0.0
000080 00 00 00 00 00 00 00 00 00 00 00 00 00 00 00 00
       0.0 0.0 0.0 0.0
000090 00 00 00 00 00 00 00 00 00 00 00 00 00 00 00 00
       0.0 0.0 0.0 0.0
0000a0 00 00 00 00 00 00 00 00 00 00 00 00 00 00 00 00
       0.0 0.0 0.0 0.0
0000b0 00 00 00 00 00 00 00 00 00 00 00 00 00 00 00 00
       0.0 0.0 0.0 0.0
0000c0 00 00 00 00 00 00 00 00 00 00 00 00 00 00 00 00
       0.0 0.0 0.0 0.0
0000d0 00 00 00 00 00 00 00 00 00 00 00 00 00 00 00 00
       0.0 0.0 0.0 0.0
0000e0 00 00 00 00 00 00 00 00 00 00 00 00 00 00 00 00
       0.0 0.0 0.0 0.0
0000f0 00 00 00 00 00 00 00 00 00 00 00 00 00 00 00 00
       0.0 0.0 0.0 0.0
000100 00 00 00 00 00 00 00 00 00 00 00 00 00 00 00 00
       0.0 0.0 0.0 0.0
000110 00 00 00 00 00 00 00 00 00 00 00 00 00 00 00 00
       0.0 0.0 0.0 0.0
000120 00 00 00 00 00 00 00 00 00 00 00 00 00 00 00 00
       0.0 0.0 0.0 0.0
000130 00 00 00 00 00 00 00 00 00 00 00 00 00 00 00 00
       0.0 0.0 0.0 0.0
000140 00 00 00 00 00 00 00 00 00 00 00 00 00 00 00 00
       0.0 0.0 0.0 0.0
000150 00 00 00 00 00 00 00 00 00 00 00 00 00 00 00 00
       0.0 0.0 0.0 0.0
000160 00 00 00 00 00 00 00 00 00 00 00 00 00 00 00 00
       0.0 0.0 0.0 0.0
000170 00 00 00 00 00 00 00 00 00 00 00 00 00 00 00 00
       0.0 0.0 0.0 0.0
000180 00 00 00 00 00 00 00 00 00 00 00 00 00 00 00 00
       0.0 0.0 0.0 0.0
000190 00 00 00 00 00 00 00 00 00 00 00 00 00 00 00 00
       0.0 0.0 0.0 0.0
0001a0 00 00 00 00 00 00 00 00 00 00 00 00 00 00 00 00
       0.0 0.0 0.0 0.0
0001b0 00 00 00 00 00 00 00 00 00 00 00 00 00 00 00 00
       0.0 0.0 0.0 0.0
0001c0 00 00 00 00 00 00 00 00 00 00 00 00 00 00 00 00
       0.0 0.0 0.0 0.0
0001d0 00 00 00 00 00 00 00 00 00 00 00 00 00 00 00 00
       0.0 0.0 0.0 0.0
0001e0 00 00 00 00 00 00 00 00 00 00 00 00 00 00 00 00
       0.0 0.0 0.0 0.0
0001f0 00 00 00 00 00 00 00 00 00 00 00 00 00 00 00 00
       0.0 0.0 0.0 0.0
000200 00 00 00 00 00 00 00 00 00 00 00 00 00 00 00 00
       0.0 0.0 0.0 0.0
000210 00 00 00 00 00 00 00 00 00 00 00 00 00 00 00 00
       0.0 0.0 0.0 0.0
000220 00 00 00 00 00 00 00 00 00 00 00 00 00 00 00 00
       0.0 0.0 0.0 0.0
000230 00 00 00 00 00 00 00 00 00 00 00 00 00 00 00 00
       0.0 0.0 0.0 0.0
000240 00 00 00 00 00 00 00 00 00 00 00 00 00 00 00 00
       0.0 0.0 0.0 0.0
000250 00 00 00 00 00 00 00 00 00 00 00 00 00 00 00 00
       0.0 0.0 0.0 0.0
000260 00 00 00 00 00 00 00 00 00 00 00 00 00 00 00 00
       0.0 0.0 0.0 0.0
000270 00 00 00 00 00 00 00 00 00 00 00 00 00 00 00 00
       0.0 0.0 0.0 0.0
000280 00 00 00 00 00 00 00 00 00 00 00 00 00 00 00 00
       0.0 0.0 0.0 0.0
000290 00 00 00 00 00 00 00 00 00 00 00 00 00 00 00 00
       0.0 0.0 0.0 0.0
0002a0 00 00 00 00 00 00 00 00 00 00 00 00 00 00 00 00
       0.0 0.0 0.0 0.0
0002b0 00 00 00 00 00 00 00 00 00 00 00 00 00 00 00 00
       0.0 0.0 0.0 0.0
0002c0 00 00 00 00 00 00 00 00 00 00 00 00 00 00 00 00
       0.0 0.0 0.0 0.0
0002d0 00 00 00 00 00 00 00 00 00 00 00 00 00 00 00 00
       0.0 0.0 0.0 0.0
0002e0 00 00 00 00 00 00 00 00 00 00 00 00 00 00 00 00
       0.0 0.0 0.0 0.0
0002f0 00 00 00 00 00 00 00 00 00 00 00 00 00 00 00 00
       0.0 0.0 0.0 0.0
000300 00 00 00 00 00 00 00 00 00 00 00 00 00 00 00 00
       0.0 0.0 0.0 0.0
000310 00 00 00 00 00 00 00 00 00 00 00 00 00 00 00 00
       0.0 0.0 0.0 0.0
000320 00 00 00 00 00 00 00 00 00 00 00 00 00 00 00 00
       0.0 0.0 0.0 0.0
000330 00 00 00 00 00 00 00 00 00 00 00 00 00 00 00 00
       0.0 0.0 0.0 0.0
000340 00 00 00 00 00 00 00 00 00 00 00 00 00 00 00 00
       0.0 0.0 0.0 0.0
000350 00 00 00 00 00 00 00 00 00 00 00 00 00 00 00 00
       0.0 0.0 0.0 0.0
000360 00 00 00 00 00 00 00 00 00 00 00 00 00 00 00 00
       0.0 0.0 0.0 0.0
000370 00 00 00 00 00 00 00 00 00 00 00 00 00 00 00 00
       0.0 0.0 0.0 0.0
000380 00 00 00 00 00 00 00 00 00 00 00 00 00 00 00 00
       0.0 0.0 0.0 0.0
000390 00 00 00 00 00 00 00 00 00 00 00 00 00 00 00 00
       0.0 0.0 0.0 0.0
0003a0 00 00 00 00 00 00 00 00 00 00 00 00 00 00 00 00
       0.0 0.0 0.0 0.0
0003b0 00 00 00 00 00 00 00 00 00 00 00 00 00 00 00 00
       0.0 0.0 0.0 0.0
0003c0 00 00 00 00 00 00 00 00 00 00 00 00 00 00 00 00
       0.0 0.0 0.0 0.0
0003d0 00 00 00 00 00 00 00 00 00 00 00 00 00 00 00 00
       0.0 0.0 0.0 0.0
0003e0 00 00 00 00 00 00 00 00 00 00 00 00 00 00 00 00
       0.0 0.0 0.0 0.0
0003f0 00 00 00 00 00 00 00 00 00 00 00 00 00 00 00 00
       0.0 0.0 0.0 0.0

network_body._body_endoder.seq_layers.0.weight f4 [256, 63]
000000 a9 76 a1 3e 10 c3 93 3d ea fc c9 3c 1e c9 7c be
       0.31535843 0.072149396 0.024656732 -0.24686095
000010 e1 98 f7 3d fb 7b 19 3e 34 32 18 be db 25 17 be
       0.12089706 0.14988701 -0.14862901 -0.14760534
000020 ac ad 57 3d 51 41 c3 bd 9e 66 56 bd 3e a3 aa bc
       0.05265586 -0.095339425 -0.052343957 -0.020829793
000030 e0 a5 45 be fb 50 e9 bd df c0 75 be 57 4c 1e be
       -0.19301558 -0.11392399 -0.23999356 -0.15458809
000040 ac 81 8b bd d2 0d 8b bb ff 50 bf 3c ce 03 55 3e
       -0.06811842 -0.004243591 0.023354052 0.20802233
000050 b9 4e df bd 3f 05 8f bd 6d c6 39 be c3 e0 71 bc
       -0.10903687 -0.069834225 -0.181421 -0.01476306
000060 b1 e7 0d be bd 47 51 bc 3d de e5 3d 66 ea a4 bd
       -0.13857915 -0.012773451 0.11224029 -0.080525205
000070 73 7a 37 be f1 6b 49 3e dc ee ea 3c 01 69 bd bd
       -0.17917804 0.19670083 0.02867835 -0.092485435
000080 9e 86 07 3e 84 ca 0c be c3 26 8c bd be 1b 30 be
       0.13234946 -0.13749129 -0.06843331 -0.17198083
000090 66 92 0d 3e 20 07 fe bd ab be 8a bd 45 56 6a 3d
       0.13825378 -0.12403703 -0.06774648 0.05721118
0000a0 c1 46 50 bc 73 67 85 3d b1 dd 44 3c 8b 02 cb bd
       -0.012712182 0.06513872 0.012015746 -0.099125944
0000b0 55 51 f4 3c 66 67 ce bc 4a 6f 66 be 9d 01 7a 3e
       0.029823938 -0.025195789 -0.22503391 0.24414678
0000c0 6d e7 a3 be 4f 54 82 3d 26 3d c1 3c 2b 8f 54 bd
       -0.320125 0.06363737 0.023588728 -0.051894348
0000d0 6a 31 eb bd 7d 7a 6e 3d 03 ba 1f be 61 61 90 3e
       -0.11484034 0.058222283 -0.15598302 0.28199294
0000e0 1c 3e 19 bc 5e b6 81 bd 3d bd cd bd 82 de 2f 3e
       -0.009353187 -0.06333612 -0.1004586 0.17174724
0000f0 8d 1f d8 bd f0 4b dc 3d e0 3c 16 be 78 13 38 3e
       -0.10552893 0.107566714 -0.1467166 0.17976177
000100 2a 18 fa bd d5 2f 1a 3c 6c 24 5d be 94 ee f8 bd
       -0.1221164 0.009410818 -0.21595925 -0.1215488
000110 82 b9 65 39 eb 83 8c 3d 85 c6 11 3e e5 28 9d 3d
       0.00021908249 0.06861099 0.14235885 0.07673816
000120 01 45 07 3d c0 de 20 3d 37 8f 18 3e a5 96 45 3e
       0.03302479 0.03927493 0.14898382 0.19295748
000130 ed 76 66 3d c9 9c 27 bd 59 20 08 be 3a 7c 6e 3d
       0.05626576 -0.040921006 -0.1329359 0.05822394
000140 97 c9 a0 3c 3d d3 dc 3d 0b fb 23 be 14 32 83 be
       0.019627376 0.10782478 -0.16013734 -0.25624144
000150 97 81 80 bd 5a ad e8 bd 71 a4 ab 3d b2 aa cc bd
       -0.06274717 -0.11361189 0.08380974 -0.09993495
000160 c2 55 90 3c 7e ae ce 3c 7e 83 28 be b0 1b 45 be
       0.017619018 0.025229689 -0.1645641 -0.19248843
000170 bf b6 6a 3d f4 ae dc bd f1 a9 35 3c 67 9a 17 3e
       0.057303187 -0.10775557 0.0110878805 0.14804994
000180 25 d1 10 3d a3 3c 7d bd ff 17 40 3e 83 97 e0 bd
       0.035355706 -0.061825406 0.18759154 -0.109663986
000190 ac 55 f4 bd 95 6d bb bd b5 6b 62 3d ee 7d 96 3d
       -0.11930403 -0.091517605 0.0552785 0.07348238
0001a0 c6 2b 9b 3e f7 15 10 be ac b9 12 be 53 5a 36 3e
       0.30306834 -0.14070879 -0.1432864 0.17807893
0001b0 87 4e 4e be 2a 6e cd bd 74 66 be 3d df 86 97 bd
       -0.20147143 -0.10030778 0.09296885 -0.073987715
0001c0 20 41 a8 3d d9 21 07 3d 38 d4 72 3d 14 9f f4 3d
       0.082155466 0.032991264 0.05928442 0.11944404
0001d0 b4 18 59 3c 94 6b e0 3d a5 2d 5c bd c9 29 4a 3e
       0.013250519 0.10958019 -0.053754468 0.19742502
0001e0 6d a6 2e be f5 ce e6 ba 4b 3d 25 3e ee 87 d4 3b
       -0.17055674 -0.0017609285 0.16136663 0.0064859306
0001f0 f0 6f 03 be ec 23 16 be 99 3e fb ba e0 d6 3d 3e
       -0.1283567 -0.1466214 -0.0019168436 0.18539
000200 03 a3 66 3d 81 88 18 3e 24 3d 07 bd 28 73 91 bd
       0.056307804 0.14895822 -0.033017293 -0.071020424
000210 d7 b3 06 be 7a 93 49 be 5d 90 d3 bd 5a 19 29 3e
       -0.13154541 -0.19685164 -0.103302695 0.16513577
000220 f6 74 e4 3d b6 28 a8 bd 33 7b 2a 3d eb a2 09 be
       0.11155121 -0.0821089 0.0416214 -0.13441055
000230 e2 dc 97 bd bd 9f 85 3d d3 85 84 3e 80 b3 41 be
       -0.07415177 0.06524608 0.2588335 -0.1891613
000240 a6 5d e4 3c 11 c4 21 3e 4a 02 b3 bc 59 41 03 3e
       0.027876686 0.1579745 -0.021851677 0.12817897
000250 53 a6 53 3e f5 20 ef 3d ee f6 b7 bd 82 d4 13 3d
       0.20668916 0.11676208 -0.08982645 0.036091335
000260 1b 40 0e bd 3b e6 e4 3c 54 9b 4e 3c b3 a8 01 3d
       -0.034729104 0.027941814 0.012610275 0.031655025
000270 2a 5c 2a bd ce 63 b2 bd 1a ec 7c 3d cf e3 f1 3d
       -0.0415918 -0.087104425 0.0617486 0.11811029
000280 bf 49 19 bb 39 cb 2a be 8f d4 77 3d b7 17 ff bd
       -0.0023389903 -0.16679086 0.060505446 -0.12455695
000290 10 24 22 bc 3f 0a bb bc b6 1b 53 3d 23 43 5b be
       -0.009896293 -0.022832034 0.0515401 -0.2141233
0002a0 5b f1 16 3e 04 09 e1 bd 5b 85 a6 3e f7 73 b6 3d
       0.14740507 -0.10988048 0.32523617 0.08908837
0002b0 52 d3 49 bd 17 ad 00 3e c4 8f 02 be a7 10 03 be
       -0.049273796 0.12566029 -0.12750155 -0.12799321
0002c0 46 71 67 3e cb 98 3a 3e f9 c0 46 3e 60 b9 08 3e
       0.22601804 0.18222348 0.1940955 0.13351965
0002d0 00 b0 95 3e 9e 8c e3 3d ab 13 18 bc c7 64 20 be
       0.2923584 0.11110805 -0.009282033 -0.15663444
0002e0 9d 17 1f 3e 96 e8 ca bd dd 5c 85 bd 34 88 f9 3c
       0.15536352 -0.099076435 -0.06511853 0.030460455
0002f0 3f 89 3d be 13 0b 03 be de d2 00 3e 0f ba 12 bc
       -0.18509386 -0.12797193 0.1258044 -0.008955493
000300 7c d2 7f 3d e5 de ef bd 3a 29 53 3c 65 8b 81 be
       0.062456593 -0.11712436 0.012888247 -0.25301662
000310 b1 4d 5f 3d 88 f8 2f 3e c7 0b 97 bd 80 51 01 3c
       0.05451745 0.17184651 -0.07375293 0.007892966
000320 b5 28 c2 3b 32 01 84 3d ed 0b f7 bb e4 23 ef 3d
       0.005925263 0.064455405 -0.0075392635 0.116767675
000330 f2 6b 83 b8 80 db fb bb ef 4b 23 3d 22 16 b0 3d
       -6.266673e-05 -0.0076860785 0.039867338 0.085979715
000340 3f fe 05 be 8e 6e c7 bd 7a 70 07 bd 88 fd 25 3e
       -0.13085268 -0.097378835 -0.03306625 0.16209996
000350 e3 e1 3a be 5b b1 81 3d 79 bf d6 bc d1 0a b3 bd
       -0.18250231 0.06332656 -0.026214348 -0.087422974
000360 7d fc 5f bc 03 4a 19 bb 47 4a 8c 3d 57 a2 18 be
       -0.013671038 -0.0023390062 0.06850105 -0.14905678
000370 ce 51 e7 3c 85 4a 00 bd ed e7 1f 3b ae 69 14 3d
       0.02823725 -0.031321067 0.0024399713 0.036233597
000380 a5 0f 77 bc 0a 41 ff 3c 34 86 27 bc 69 bd 4b be
       -0.015079414 0.031158943 -0.010224868 -0.19896473
000390 e8 8b 54 3c e1 65 61 3c c1 5f 38 3d 03 fe 9d 3e
       0.012972809 0.0137572 0.045013193 0.30857858
0003a0 51 0f 96 3d ce 36 38 3e c6 5e 8b 3d 5f 5b f2 bd
       0.0732714 0.17989656 0.06805186 -0.11833834
0003b0 ec 1e 28 bc 13 0c 42 3c 67 e8 fb ba 51 28 34 3e
       -0.010261279 0.011843699 -0.0019219042 0.17593504
0003c0 36 d5 62 3e 96 f4 1e be 6d d8 c0 3c e2 26 7b bd
       0.22151646 -0.1552299 0.0235407 -0.06131638
0003d0 36 2c 5d be 0a 35 f3 bc d4 37 0b bc 19 bf 8b be
       -0.21598896 -0.029688377 -0.008497197 -0.27294233
0003e0 0e 45 a0 3d f3 cb fd 3c 55 57 d0 bd 5c bd a2 3d
       0.07825671 0.03098104 -0.10172907 0.07946274
0003f0 d2 37 6d 3e e3 e9 7d bd da 81 6c 3d 93 68 40 bd
       0.23165825 -0.06199063 0.057741024 -0.04697473

network_body._body_endoder.seq_layers.2.bias f4 [256]
000000 00 00 00 00 00 00 00 00 00 00 00 00 00 00 00 00
       0.0 0.0 0.0 0.0
000010 00 00 00 00 00 00 00 00 00 00 00 00 00 00 00 00
       0.0 0.0 0.0 0.0
000020 00 00 00 00 00 00 00 00 00 00 00 00 00 00 00 00
       0.0 0.0 0.0 0.0
000030 00 00 00 00 00 00 00 00 00 00 00 00 00 00 00 00
       0.0 0.0 0.0 0.0
000040 00 00 00 00 00 00 00 00 00 00 00 00 00 00 00 00
       0.0 0.0 0.0 0.0
000050 00 00 00 00 00 00 00 00 00 00 00 00 00 00 00 00
       0.0 0.0 0.0 0.0
000060 00 00 00 00 00 00 00 00 00 00 00 00 00 00 00 00
       0.0 0.0 0.0 0.0
000070 00 00 00 00 00 00 00 00 00 00 00 00 00 00 00 00
       0.0 0.0 0.0 0.0
000080 00 00 00 00 00 00 00 00 00 00 00 00 00 00 00 00
       0.0 0.0 0.0 0.0
000090 00 00 00 00 00 00 00 00 00 00 00 00 00 00 00 00
       0.0 0.0 0.0 0.0
0000a0 00 00 00 00 00 00 00 00 00 00 00 00 00 00 00 00
       0.0 0.0 0.0 0.0
0000b0 00 00 00 00 00 00 00 00 00 00 00 00 00 00 00 00
       0.0 0.0 0.0 0.0
0000c0 00 00 00 00 00 00 00 00 00 00 00 00 00 00 00 00
       0.0 0.0 0.0 0.0
0000d0 00 00 00 00 00 00 00 00 00 00 00 00 00 00 00 00
       0.0 0.0 0.0 0.0
0000e0 00 00 00 00 00 00 00 00 00 00 00 00 00 00 00 00
       0.0 0.0 0.0 0.0
0000f0 00 00 00 00 00 00 00 00 00 00 00 00 00 00 00 00
       0.0 0.0 0.0 0.0
000100 00 00 00 00 00 00 00 00 00 00 00 00 00 00 00 00
       0.0 0.0 0.0 0.0
000110 00 00 00 00 00 00 00 00 00 00 00 00 00 00 00 00
       0.0 0.0 0.0 0.0
000120 00 00 00 00 00 00 00 00 00 00 00 00 00 00 00 00
       0.0 0.0 0.0 0.0
000130 00 00 00 00 00 00 00 00 00 00 00 00 00 00 00 00
       0.0 0.0 0.0 0.0
000140 00 00 00 00 00 00 00 00 00 00 00 00 00 00 00 00
       0.0 0.0 0.0 0.0
000150 00 00 00 00 00 00 00 00 00 00 00 00 00 00 00 00
       0.0 0.0 0.0 0.0
000160 00 00 00 00 00 00 00 00 00 00 00 00 00 00 00 00
       0.0 0.0 0.0 0.0
000170 00 00 00 00 00 00 00 00 00 00 00 00 00 00 00 00
       0.0 0.0 0.0 0.0
000180 00 00 00 00 00 00 00 00 00 00 00 00 00 00 00 00
       0.0 0.0 0.0 0.0
000190 00 00 00 00 00 00 00 00 00 00 00 00 00 00 00 00
       0.0 0.0 0.0 0.0
0001a0 00 00 00 00 00 00 00 00 00 00 00 00 00 00 00 00
       0.0 0.0 0.0 0.0
0001b0 00 00 00 00 00 00 00 00 00 00 00 00 00 00 00 00
       0.0 0.0 0.0 0.0
0001c0 00 00 00 00 00 00 00 00 00 00 00 00 00 00 00 00
       0.0 0.0 0.0 0.0
0001d0 00 00 00 00 00 00 00 00 00 00 00 00 00 00 00 00
       0.0 0.0 0.0 0.0
0001e0 00 00 00 00 00 00 00 00 00 00 00 00 00 00 00 00
       0.0 0.0 0.0 0.0
0001f0 00 00 00 00 00 00 00 00 00 00 00 00 00 00 00 00
       0.0 0.0 0.0 0.0
000200 00 00 00 00 00 00 00 00 00 00 00 00 00 00 00 00
       0.0 0.0 0.0 0.0
000210 00 00 00 00 00 00 00 00 00 00 00 00 00 00 00 00
       0.0 0.0 0.0 0.0
000220 00 00 00 00 00 00 00 00 00 00 00 00 00 00 00 00
       0.0 0.0 0.0 0.0
000230 00 00 00 00 00 00 00 00 00 00 00 00 00 00 00 00
       0.0 0.0 0.0 0.0
000240 00 00 00 00 00 00 00 00 00 00 00 00 00 00 00 00
       0.0 0.0 0.0 0.0
000250 00 00 00 00 00 00 00 00 00 00 00 00 00 00 00 00
       0.0 0.0 0.0 0.0
000260 00 00 00 00 00 00 00 00 00 00 00 00 00 00 00 00
       0.0 0.0 0.0 0.0
000270 00 00 00 00 00 00 00 00 00 00 00 00 00 00 00 00
       0.0 0.0 0.0 0.0
000280 00 00 00 00 00 00 00 00 00 00 00 00 00 00 00 00
       0.0 0.0 0.0 0.0
000290 00 00 00 00 00 00 00 00 00 00 00 00 00 00 00 00
       0.0 0.0 0.0 0.0
0002a0 00 00 00 00 00 00 00 00 00 00 00 00 00 00 00 00
       0.0 0.0 0.0 0.0
0002b0 00 00 00 00 00 00 00 00 00 00 00 00 00 00 00 00
       0.0 0.0 0.0 0.0
0002c0 00 00 00 00 00 00 00 00 00 00 00 00 00 00 00 00
       0.0 0.0 0.0 0.0
0002d0 00 00 00 00 00 00 00 00 00 00 00 00 00 00 00 00
       0.0 0.0 0.0 0.0
0002e0 00 00 00 00 00 00 00 00 00 00 00 00 00 00 00 00
       0.0 0.0 0.0 0.0
0002f0 00 00 00 00 00 00 00 00 00 00 00 00 00 00 00 00
       0.0 0.0 0.0 0.0
000300 00 00 00 00 00 00 00 00 00 00 00 00 00 00 00 00
       0.0 0.0 0.0 0.0
000310 00 00 00 00 00 00 00 00 00 00 00 00 00 00 00 00
       0.0 0.0 0.0 0.0
000320 00 00 00 00 00 00 00 00 00 00 00 00 00 00 00 00
       0.0 0.0 0.0 0.0
000330 00 00 00 00 00 00 00 00 00 00 00 00 00 00 00 00
       0.0 0.0 0.0 0.0
000340 00 00 00 00 00 00 00 00 00 00 00 00 00 00 00 00
       0.0 0.0 0.0 0.0
000350 00 00 00 00 00 00 00 00 00 00 00 00 00 00 00 00
       0.0 0.0 0.0 0.0
000360 00 00 00 00 00 00 00 00 00 00 00 00 00 00 00 00
       0.0 0.0 0.0 0.0
000370 00 00 00 00 00 00 00 00 00 00 00 00 00 00 00 00
       0.0 0.0 0.0 0.0
000380 00 00 00 00 00 00 00 00 00 00 00 00 00 00 00 00
       0.0 0.0 0.0 0.0
000390 00 00 00 00 00 00 00 00 00 00 00 00 00 00 00 00
       0.0 0.0 0.0 0.0
0003a0 00 00 00 00 00 00 00 00 00 00 00 00 00 00 00 00
       0.0 0.0 0.0 0.0
0003b0 00 00 00 00 00 00 00 00 00 00 00 00 00 00 00 00
       0.0 0.0 0.0 0.0
0003c0 00 00 00 00 00 00 00 00 00 00 00 00 00 00 00 00
       0.0 0.0 0.0 0.0
0003d0 00 00 00 00 00 00 00 00 00 00 00 00 00 00 00 00
       0.0 0.0 0.0 0.0
0003e0 00 00 00 00 00 00 00 00 00 00 00 00 00 00 00 00
       0.0 0.0 0.0 0.0
0003f0 00 00 00 00 00 00 00 00 00 00 00 00 00 00 00 00
       0.0 0.0 0.0 0.0

network_body._body_endoder.seq_layers.2.weight f4 [256, 256]
000000 1b c4 1a 3e 12 cf 4e bd 08 59 40 3d 5a cc 1e bd
       0.15113871 -0.050490446 0.046959907 -0.038769104
000010 7a 13 64 bc d8 ea 93 3b 12 51 0c bd 12 e3 12 3e
       -0.013920659 0.0045140795 -0.034257002 0.14344433
000020 e6 bd a1 bd e6 7a c0 bc da ef e9 bb a0 cb 0b be
       -0.078975484 -0.023496103 -0.0071391882 -0.13651896
000030 a6 42 f3 ba 80 6f 03 3d 44 43 eb 3b 3c 2a fd bd
       -0.0018559291 0.032088757 0.0071796495 -0.12361571
000040 3c 37 a4 bd 27 6c 92 bc 87 f2 a1 bd eb 7b e7 3c
       -0.080183476 -0.017873837 -0.079075865 0.02825733
000050 be f6 a7 bd 0e 26 e4 bc 63 e7 88 3d 13 d4 60 bc
       -0.08201359 -0.027850177 0.066847585 -0.013722437
000060 b0 07 d4 3d 61 56 ba 3d 7c db 71 3d 40 8d 6c 3b
       0.10353029 0.09098507 0.059047207 0.0036094934
000070 27 86 9e bc d3 f4 14 3c 2b 9b f2 3d ee 80 49 bc
       -0.019351078 0.009091574 0.11846002 -0.012298806
000080 84 e3 b0 3d 5e 4a 98 bc 0c b2 45 bd 6c 19 11 3d
       0.08637145 -0.018590149 -0.0482655 0.035424635
000090 4f 89 c7 3d ec 59 73 3c 7e 08 4a bd 40 45 b9 3c
       0.097429864 0.014852982 -0.049324505 0.022616029
0000a0 f9 c6 ad bd 13 cd d3 bb ca 83 c5 3d 72 ae 91 3d
       -0.08485217 -0.0064636557 0.096442774 0.07113351
0000b0 db f5 8e 3d 0b 02 84 bc d9 61 92 3d c6 d6 d0 b9
       0.06980487 -0.016114255 0.07147569 -0.0003983287
0000c0 90 c0 9f bb f1 51 e4 b9 49 ff 8a bd fe 23 b3 bc
       -0.00487525 -0.000435486 -0.06786973 -0.021867748
0000d0 c6 6d 94 3c 77 db 75 3d 0f 1c c6 3d 21 fd 73 3d
       0.01811875 0.06002375 0.096733205 0.059567574
0000e0 16 2a eb bc 1a 31 1c bd b5 ce 3a bd c6 b1 6b 3d
       -0.028706592 -0.038132764 -0.045607287 0.057542585
0000f0 63 72 03 3d dd be 2f bd bb 92 7c 3c 9e 1c 62 3c
       0.03209151 -0.04290663 0.015415843 0.013800768
000100 91 93 e6 bd 43 90 f8 3b d4 51 cd bc fd f0 d5 3b
       -0.11258615 0.0075855567 -0.025063433 0.006528972
000110 9f f2 45 bd f8 8d ab 3d d1 25 0c be d0 6e 16 3d
       -0.048327085 0.08376688 -0.13686301 0.036726773
000120 3b 58 42 bc 0a 29 02 be 37 f1 e5 bc e8 6b 1b 3d
       -0.011861856 -0.12710968 -0.028069122 0.037944704
000130 e2 58 a1 3d c8 7c 62 bd 97 90 10 bc f6 d7 b0 bc
       0.07878281 -0.055294782 -0.008823535 -0.021587353
000140 cd b6 21 bd 97 c2 89 ba 16 87 65 bc 34 08 94 bc
       -0.039480973 -0.0010510263 -0.014009258 -0.018070318
000150 1b 63 2d bc b6 50 d8 3d bf 35 55 be 96 12 dc bd
       -0.010582711 0.105622694 -0.20821284 -0.107457325
000160 14 3c 61 bd fc 69 cb bd 40 53 66 3c 0a 39 91 bd
       -0.054988936 -0.09932324 0.014057934 -0.070909575
000170 f8 ea 88 3d ef 2b 0f bd 8d 0e 03 3c 68 b4 3f 3d
       0.06685442 -0.034954008 0.007999075 0.04680291
000180 e7 3c 18 be 32 cc 08 3c a9 ae 8d bd dd 9f 8d bd
       -0.14866982 0.008349465 -0.069180794 -0.06915257
000190 44 59 6d 3c 62 83 b7 bc 21 89 a2 3d 23 97 5d bd
       0.014486615 -0.022401515 0.079363115 -0.054099213
0001a0 01 b6 98 3c fb 3f 04 3d be dd 79 3b 68 2d 94 3d
       0.018641474 0.03228758 0.0038126553 0.07235223
0001b0 92 0b aa bc 57 9a 22 bd d6 02 52 3c 42 63 af 3d
       -0.02075747 -0.03969797 0.012818059 0.08563854
0001c0 18 45 9a 3d 2b 26 59 3d 72 3a 67 3c 47 7c b6 bc
       0.0753271 0.053014915 0.014113056 -0.022276057
0001d0 5f 78 a7 3c 7e f5 d8 3c 75 57 18 3e 30 d5 62 bc
       0.02044314 0.026484247 0.14877112 -0.013844773
0001e0 72 1c 54 3d 09 87 5e bd ee 0e 0f 3b 3c 6b 84 bc
       0.05178494 -0.054328 0.0021828967 -0.016164415
0001f0 a1 f9 55 bc d3 84 41 bd 9b 8c 8a 3b 95 9c 11 bd
       -0.013060004 -0.04724581 0.0042281873 -0.03554972
000200 05 ad 40 3d 48 99 8b bd 50 8e 90 3c 93 89 b3 3d
       0.047040004 -0.068163455 0.017645985 0.087664746
000210 2a 88 d1 3d 16 a3 82 3d af 2f 14 be c8 05 3b 3d
       0.10231049 0.063787624 -0.14471315 0.04565981
000220 24 f3 6f ba 4b 60 bd 3c cd 27 0a bd 08 81 3f 3d
       -0.0009153357 0.023117205 -0.033729363 0.046753913
000230 e0 39 8d 3b 9e 7d cf 3c 62 89 f0 bd c2 c5 79 bc
       0.0043098778 0.025328454 -0.11744954 -0.015244903
000240 d2 49 96 3d ed 3a 46 3c 34 3b 9e 3d 8e b1 a7 3c
       0.07338299 0.01209901 0.07726136 0.020470407
000250 7b e6 1e 3d c5 fe 39 3c cd 6e 76 3d ed 6b 8a 3d
       0.038794022 0.011352246 0.06016426 0.067588665
000260 ac 9c ed 3c 32 38 5c 3d 13 52 09 3c 2a 95 37 3d
       0.029005371 0.05376453 0.008381384 0.04481999
000270 9a 8b c8 3d be bd 41 3b 2d 4f b6 bc 7f 77 b1 3d
       0.09792252 0.0029562558 -0.02225455 0.0866537
000280 e5 02 13 3e 79 43 a8 bd 08 cb 5c 3d 1e 15 61 3d
       0.14356573 -0.082159944 0.053904563 0.05495178
000290 df 6f 7a 3d a3 1e d3 bc 81 12 5e bc 32 5c 4a bd
       0.061141845 -0.025771445 -0.013554216 -0.04940433
0002a0 f0 8b 6f 3d 67 8f 81 3c 42 33 97 3c de e0 09 3d
       0.058483064 0.01581545 0.018457059 0.033661716
0002b0 75 86 29 bd b1 47 31 3d 2a 82 69 bd 26 a2 94 bd
       -0.041387994 0.04328126 -0.0570089 -0.0725749
0002c0 ef 39 85 3c 3c a4 1f bd 00 fa 66 bd 1b 79 dc bc
       0.016262976 -0.038974985 -0.056390762 -0.026913216
0002d0 2f 54 fe 3d 44 af a8 3a c8 cf 6d bc 4d c4 4a bd
       0.124184005 0.0012869616 -0.014514871 -0.049503613
0002e0 e0 ae a9 3c 6f cd 9d bd 71 ab 3a bd 19 5b 3d 3d
       0.02071327 -0.07705199 -0.045573656 0.046229456
0002f0 8e d4 0d bd bf 1d c0 3c 4a 8a 98 3d 34 ba 2d bd
       -0.034626536 0.023451684 0.074482515 -0.042413905
000300 1a c6 59 bd c2 21 2b bd a3 4f 11 bb 62 1f 08 be
       -0.05316744 -0.04178024 -0.0022172711 -0.13293222
000310 2e 71 88 bd d1 cb d9 bd 0f 70 cb bb 68 be 91 bc
       -0.06662212 -0.10634578 -0.006208427 -0.017790988
000320 1f 4a 33 3c 7a 20 7d 3d 21 bd 22 3c 4b 96 41 bd
       0.010942965 0.06179855 0.009932787 -0.04726247
000330 5f 98 bc 3c ee 00 70 3b be ee 6c 3c c3 b8 04 3e
       0.023021875 0.0036621648 0.014461217 0.12961106
000340 d1 5d 8e 3d ff 15 65 3d 68 79 01 bd 4a 0e 73 bd
       0.06951488 0.05592918 -0.031609923 -0.0593398
000350 f1 28 8f 3c 09 d4 8b 3d f9 0e b3 3d 24 43 80 bd
       0.017475577 0.06827552 0.0874309 -0.06262806
000360 6d 8e f8 bb 9f c0 4e bc df 61 92 bc 69 d6 56 3d
       -0.007585338 -0.012619167 -0.017868934 0.05245057
000370 bc ed 8e 3d d5 7e 80 3c e0 2a a0 bc 1b 90 9f 3d
       0.06978938 0.015685478 -0.019551694 0.07791158
000380 75 9b 73 bd ab b4 33 3d 71 26 9d bb aa 2a 8b bd
       -0.059474427 0.04387347 -0.0047958423 -0.06795247
000390 15 74 9a bd 39 a6 08 be 88 5d 2c bd 77 fa 5e bd
       -0.07541672 -0.13344659 -0.042081386 -0.05443808
0003a0 74 0e 64 bd da 56 da bd e0 f2 86 bd c9 27 e0 bd
       -0.055677846 -0.10661097 -0.065892935 -0.109450884
0003b0 1c a4 48 3d 8e b0 1b bd 7b 91 74 3d b7 3a 91 3d
       0.048984632 -0.038010173 0.059709053 0.07091277
0003c0 f9 22 59 3d c1 13 07 bd c4 3c 3e bd 5c f0 85 3c
       0.05301187 -0.032977823 -0.04644467 0.016349964
0003d0 47 9b 43 3d 75 d9 a3 3d 4f 69 b8 bd a0 88 91 bc
       0.047755506 0.08000461 -0.09004461 -0.017765343
0003e0 ed bc 00 bd 18 b2 81 3d d4 13 52 3d 88 d6 8d 3d
       -0.031430174 0.06332797 0.05128844 0.06925684
0003f0 e2 5b 1c 3d 34 b9 85 bd 55 ec 42 3d 3e 9d 36 3a
       0.038173564 -0.06529465 0.047588665 0.000696618

network_body._body_endoder.seq_layers.4.bias f4 [256]
000000 00 00 00 00 00 00 00 00 00 00 00 00 00 00 00 00
       0.0 0.0 0.0 0.0
000010 00 00 00 00 00 00 00 00 00 00 00 00 00 00 00 00
       0.0 0.0 0.0 0.0
000020 00 00 00 00 00 00 00 00 00 00 00 00 00 00 00 00
       0.0 0.0 0.0 0.0
000030 00 00 00 00 00 00 00 00 00 00 00 00 00 00 00 00
       0.0 0.0 0.0 0.0
000040 00 00 00 00 00 00 00 00 00 00 00 00 00 00 00 00
       0.0 0.0 0.0 0.0
000050 00 00 00 00 00 00 00 00 00 00 00 00 00 00 00 00
       0.0 0.0 0.0 0.0
000060 00 00 00 00 00 00 00 00 00 00 00 00 00 00 00 00
       0.0 0.0 0.0 0.0
000070 00 00 00 00 00 00 00 00 00 00 00 00 00 00 00 00
       0.0 0.0 0.0 0.0
000080 00 00 00 00 00 00 00 00 00 00 00 00 00 00 00 00
       0.0 0.0 0.0 0.0
000090 00 00 00 00 00 00 00 00 00 00 00 00 00 00 00 00
       0.0 0.0 0.0 0.0
0000a0 00 00 00 00 00 00 00 00 00 00 00 00 00 00 00 00
       0.0 0.0 0.0 0.0
0000b0 00 00 00 00 00 00 00 00 00 00 00 00 00 00 00 00
       0.0 0.0 0.0 0.0
0000c0 00 00 00 00 00 00 00 00 00 00 00 00 00 00 00 00
       0.0 0.0 0.0 0.0
0000d0 00 00 00 00 00 00 00 00 00 00 00 00 00 00 00 00
       0.0 0.0 0.0 0.0
0000e0 00 00 00 00 00 00 00 00 00 00 00 00 00 00 00 00
       0.0 0.0 0.0 0.0
0000f0 00 00 00 00 00 00 00 00 00 00 00 00 00 00 00 00
       0.0 0.0 0.0 0.0
000100 00 00 00 00 00 00 00 00 00 00 00 00 00 00 00 00
       0.0 0.0 0.0 0.0
000110 00 00 00 00 00 00 00 00 00 00 00 00 00 00 00 00
       0.0 0.0 0.0 0.0
000120 00 00 00 00 00 00 00 00 00 00 00 00 00 00 00 00
       0.0 0.0 0.0 0.0
000130 00 00 00 00 00 00 00 00 00 00 00 00 00 00 00 00
       0.0 0.0 0.0 0.0
000140 00 00 00 00 00 00 00 00 00 00 00 00 00 00 00 00
       0.0 0.0 0.0 0.0
000150 00 00 00 00 00 00 00 00 00 00 00 00 00 00 00 00
       0.0 0.0 0.0 0.0
000160 00 00 00 00 00 00 00 00 00 00 00 00 00 00 00 00
       0.0 0.0 0.0 0.0
000170 00 00 00 00 00 00 00 00 00 00 00 00 00 00 00 00
       0.0 0.0 0.0 0.0
000180 00 00 00 00 00 00 00 00 00 00 00 00 00 00 00 00
       0.0 0.0 0.0 0.0
000190 00 00 00 00 00 00 00 00 00 00 00 00 00 00 00 00
       0.0 0.0 0.0 0.0
0001a0 00 00 00 00 00 00 00 00 00 00 00 00 00 00 00 00
       0.0 0.0 0.0 0.0
0001b0 00 00 00 00 00 00 00 00 00 00 00 00 00 00 00 00
       0.0 0.0 0.0 0.0
0001c0 00 00 00 00 00 00 00 00 00 00 00 00 00 00 00 00
       0.0 0.0 0.0 0.0
0001d0 00 00 00 00 00 00 00 00 00 00 00 00 00 00 00 00
       0.0 0.0 0.0 0.0
0001e0 00 00 00 00 00 00 00 00 00 00 00 00 00 00 00 00
       0.0 0.0 0.0 0.0
0001f0 00 00 00 00 00 00 00 00 00 00 00 00 00 00 00 00
       0.0 0.0 0.0 0.0
000200 00 00 00 00 00 00 00 00 00 00 00 00 00 00 00 00
       0.0 0.0 0.0 0.0
000210 00 00 00 00 00 00 00 00 00 00 00 00 00 00 00 00
       0.0 0.0 0.0 0.0
000220 00 00 00 00 00 00 00 00 00 00 00 00 00 00 00 00
       0.0 0.0 0.0 0.0
000230 00 00 00 00 00 00 00 00 00 00 00 00 00 00 00 00
       0.0 0.0 0.0 0.0
000240 00 00 00 00 00 00 00 00 00 00 00 00 00 00 00 00
       0.0 0.0 0.0 0.0
000250 00 00 00 00 00 00 00 00 00 00 00 00 00 00 00 00
       0.0 0.0 0.0 0.0
000260 00 00 00 00 00 00 00 00 00 00 00 00 00 00 00 00
       0.0 0.0 0.0 0.0
000270 00 00 00 00 00 00 00 00 00 00 00 00 00 00 00 00
       0.0 0.0 0.0 0.0
000280 00 00 00 00 00 00 00 00 00 00 00 00 00 00 00 00
       0.0 0.0 0.0 0.0
000290 00 00 00 00 00 00 00 00 00 00 00 00 00 00 00 00
       0.0 0.0 0.0 0.0
0002a0 00 00 00 00 00 00 00 00 00 00 00 00 00 00 00 00
       0.0 0.0 0.0 0.0
0002b0 00 00 00 00 00 00 00 00 00 00 00 00 00 00 00 00
       0.0 0.0 0.0 0.0
0002c0 00 00 00 00 00 00 00 00 00 00 00 00 00 00 00 00
       0.0 0.0 0.0 0.0
0002d0 00 00 00 00 00 00 00 00 00 00 00 00 00 00 00 00
       0.0 0.0 0.0 0.0
0002e0 00 00 00 00 00 00 00 00 00 00 00 00 00 00 00 00
       0.0 0.0 0.0 0.0
0002f0 00 00 00 00 00 00 00 00 00 00 00 00 00 00 00 00
       0.0 0.0 0.0 0.0
000300 00 00 00 00 00 00 00 00 00 00 00 00 00 00 00 00
       0.0 0.0 0.0 0.0
000310 00 00 00 00 00 00 00 00 00 00 00 00 00 00 00 00
       0.0 0.0 0.0 0.0
000320 00 00 00 00 00 00 00 00 00 00 00 00 00 00 00 00
       0.0 0.0 0.0 0.0
000330 00 00 00 00 00 00 00 00 00 00 00 00 00 00 00 00
       0.0 0.0 0.0 0.0
000340 00 00 00 00 00 00 00 00 00 00 00 00 00 00 00 00
       0.0 0.0 0.0 0.0
000350 00 00 00 00 00 00 00 00 00 00 00 00 00 00 00 00
       0.0 0.0 0.0 0.0
000360 00 00 00 00 00 00 00 00 00 00 00 00 00 00 00 00
       0.0 0.0 0.0 0.0
000370 00 00 00 00 00 00 00 00 00 00 00 00 00 00 00 00
       0.0 0.0 0.0 0.0
000380 00 00 00 00 00 00 00 00 00 00 00 00 00 00 00 00
       0.0 0.0 0.0 0.0
000390 00 00 00 00 00 00 00 00 00 00 00 00 00 00 00 00
       0.0 0.0 0.0 0.0
0003a0 00 00 00 00 00 00 00 00 00 00 00 00 00 00 00 00
       0.0 0.0 0.0 0.0
0003b0 00 00 00 00 00 00 00 00 00 00 00 00 00 00 00 00
       0.0 0.0 0.0 0.0
0003c0 00 00 00 00 00 00 00 00 00 00 00 00 00 00 00 00
       0.0 0.0 0.0 0.0
0003d0 00 00 00 00 00 00 00 00 00 00 00 00 00 00 00 00
       0.0 0.0 0.0 0.0
0003e0 00 00 00 00 00 00 00 00 00 00 00 00 00 00 00 00
       0.0 0.0 0.0 0.0
0003f0 00 00 00 00 00 00 00 00 00 00 00 00 00 00 00 00
       0.0 0.0 0.0 0.0

network_body._body_endoder.seq_layers.4.weight f4 [256, 256]
000000 0a 49 1c bd bb 82 65 bd d9 26 bf bd b0 b6 8f bb
       -0.038155593 -0.056032877 -0.093335815 -0.0043857917
000010 75 6a 11 bd 4a 97 17 bd 90 2b 80 3d f0 6c c8 bd
       -0.035501916 -0.037009515 0.06258309 -0.09786403
000020 b4 20 2c 3c 7e 6a 0f 3e d3 ec 0f bd 62 11 39 bd
       0.010505844 0.14005467 -0.035137963 -0.045182593
000030 3c 5f 21 3d 30 94 cc bc 07 64 43 bd 74 38 8f bd
       0.039397463 -0.024973005 -0.047702815 -0.069931895
000040 81 a4 2c 3e 7b 74 9c bb d7 41 e8 bc d6 b3 9a 3d
       0.16859628 -0.0047746277 -0.028351707 0.07553832
000050 56 3b 1c 3c af db bd bb 9c a2 6c 3c 45 12 89 bc
       0.009535631 -0.0057940106 0.014443066 -0.016732344
000060 77 57 d8 3d 5c 20 41 3c 9e ab 5c 3d 68 91 12 3d
       0.105635576 0.0117875 0.053874604 0.0357832
000070 3f cc 62 3c 82 64 2e 3d 1e 41 d4 bc 23 43 5f 3d
       0.013842641 0.04257632 -0.025909957 0.054507386
000080 34 57 f4 3c 18 34 16 bd e7 3d 47 3d 03 42 28 3d
       0.029826738 -0.036670774 0.04864302 0.04107858
000090 1a 80 31 bc 16 40 9a 3d a8 6d f9 3c fd f1 94 3b
       -0.010833764 0.07531755 0.030447796 0.004545449
0000a0 f4 52 6d bd eb 42 bc 38 0b 2c bb bd 21 01 97 bc
       -0.05794044 8.977003e-05 -0.0913926 -0.018433155
0000b0 23 e5 c9 bc 44 56 e6 3d 23 7c f2 bc d1 8d 3a 3b
       -0.024645394 0.112469226 -0.029600209 0.0028465877
0000c0 7d d2 02 be 0a 04 c3 bc b7 0c 70 bc 19 d2 99 3d
       -0.12775607 -0.023805637 -0.014651469 0.07510776
0000d0 a3 9b 4b bd 25 c7 de bc 74 0a 22 3e a4 e9 aa 3c
       -0.049708974 -0.027194569 0.158243 0.020863362
0000e0 32 0e 10 3d 01 ed 27 bc 51 87 75 bd 57 71 1b bd
       0.035169788 -0.010249377 -0.0599435 -0.037949886
0000f0 cf 62 ce 3d c3 c9 e2 bd ac bf b4 3d 91 cd 32 bd
       0.1007744 -0.11073639 0.08825621 -0.043653075
000100 44 70 43 bc 17 92 27 bc ab b8 28 bd e6 7a 2f 3e
       -0.011928622 -0.010227702 -0.041191738 0.17136726
000110 b5 f4 9d bc 79 e3 d7 3c 43 4e b5 bd 63 ab 7d 3d
       -0.019281724 0.026353585 -0.08852818 0.061931025
000120 78 9b cb bc 80 0d 2e 3d e6 4d aa bd 4f 64 82 3d
       -0.024854407 0.042493343 -0.08315639 0.063667886
000130 f2 86 e0 3d ae 59 96 3d 1a 92 f7 bd 2b f6 46 bd
       0.10963239 0.07341324 -0.120884135 -0.048574608
000140 5a d2 8d bd c4 7b b1 bd 61 63 d2 3b f5 74 42 3d
       -0.06924887 -0.086661845 0.0064205383 0.04747482
000150 ae 59 08 bc 33 61 d0 bb b3 7a 5e bd 66 89 a0 3d
       -0.008322163 -0.0063592433 -0.054316234 0.07838707
000160 36 63 90 bd eb 7c a5 3d d6 36 63 bd 51 8b 74 3d
       -0.07050173 0.08080467 -0.055472218 0.059703175
000170 81 35 bb bd b2 0e e8 bc 3b 5f bb 3d 43 58 e3 bd
       -0.091410644 -0.02832732 0.09149023 -0.11100819
000180 6c 70 e5 bd 83 67 d2 bd 3d d9 e6 3d 15 6c a7 3d
       -0.112030834 -0.102736495 0.11271904 0.08174912
000190 24 72 7f 3c 70 ee f1 bc 78 65 d1 3d fa be 8b bd
       0.015591178 -0.029532641 0.10224432 -0.06823535
0001a0 ce 9c ff 3c 34 59 52 bd c0 db ce 3d 0a b4 55 3d
       0.0312027 -0.051354602 0.10100508 0.05217365
0001b0 54 58 a1 bd e0 6f c6 bc c8 88 cb bd ef f1 ce bc
       -0.078781754 -0.024223268 -0.09938198 -0.025261847
0001c0 d2 4b 15 bc 51 2b 4a bd 84 59 8b 3c 6c 70 a5 3d
       -0.009112315 -0.049357716 0.017010458 0.080780834
0001d0 7a bb 73 bc 47 76 63 be d7 74 c0 3b cc 25 1b bd
       -0.014876241 -0.22213088 0.0058733034 -0.037877843
0001e0 31 60 80 bd f9 10 0d bd 58 9b f2 3b b3 e8 11 ba
       -0.06268347 -0.034440015 0.0074037723 -0.0005565986
0001f0 41 7c 60 3d 17 d3 1a bd 54 e6 48 bb 23 ee 83 bd
       0.054805998 -0.037798967 -0.0030654864 -0.06441905
000200 00 34 9a 3d 8a 88 2c 3d 1d c1 8d bd 0f 4b b3 3d
       0.075294495 0.0421224 -0.06921599 0.08754551
000210 ac a4 90 3c aa f7 e3 3b 3d a8 96 3c 05 73 d8 bd
       0.017656647 0.006957014 0.01839077 -0.10568813
000220 41 d2 b9 b9 23 e3 00 3c d1 5b b2 bc 56 22 a8 3c
       -0.000354426 0.007866654 -0.021772297 0.020524185
000230 88 e4 16 3d fa 23 92 bc 04 4b 2f 3c 3e be db 3d
       0.036839038 -0.01783942 0.010699037 0.10729645
000240 22 f9 9d 3d 7c 48 07 3d bd 76 8d bc 75 e3 d8 3b
       0.07713534 0.03302811 -0.017268533 0.006618912
000250 8d af 2b 3b 7b e5 95 bc fe 81 a4 bd 29 f7 11 3d
       0.0026197166 -0.018297901 -0.080326065 0.0356361
000260 04 77 49 3d 62 80 35 bd f7 04 f3 3c 00 43 a3 3d
       0.049185768 -0.04431189 0.029665453 0.079717636
000270 8d 4c 2e 3e 70 9f 0e 3d ca 44 00 3c d2 85 04 3e
       0.1702139 0.03482002 0.007828901 0.12941673
000280 1f 52 52 3d d2 bd c4 bb 62 0d c1 bd f1 6a b6 bd
       0.051347848 -0.0060040737 -0.09426381 -0.08907116
000290 77 c2 86 bd 60 71 51 3d 33 0f 2c 3c 9e fa 88 3c
       -0.0658006 0.051133513 0.010501671 0.016721066
0002a0 7a 41 da bb 3f d1 6a 3c 92 ca 86 bd 5c ca 71 bd
       -0.0066606374 0.014332115 -0.06581606 -0.059030876
0002b0 a0 d0 c3 bc 18 3b 85 bc a8 98 7c bb 45 57 c3 3c
       -0.023903191 -0.01626353 -0.0038543139 0.023845324
0002c0 cc 67 21 be 2c 6e cc bd b1 26 8a 3c 36 34 96 bc
       -0.15762252 -0.09981951 0.016864153 -0.018335443
0002d0 88 e5 14 bd e3 c3 7d bd a6 0c 86 3d ff 8f a6 3d
       -0.03635171 -0.06195439 0.06545381 0.08132934
0002e0 a2 a1 67 3d 39 99 a6 3c ee ef 0a bd b3 a8 52 3d
       0.05655063 0.020336734 -0.03392022 0.051430415
0002f0 62 97 a7 3d cd 83 71 bd 0a ce 10 bc 33 ef 05 3d
       0.08183171 -0.058963586 -0.008838186 0.03269882
000300 5b 25 ab bd ee 6d 08 3c 16 62 dc 3c 3e 88 9f bc
       -0.08356734 0.0083269905 0.02690224 -0.019474145
000310 c4 d0 a5 3d 7b 07 66 3c 45 56 a1 3d e2 dd 4c 3d
       0.080964595 0.014039869 0.07877783 0.05001629
000320 52 e4 34 3d a9 81 9f bd 95 f5 9c bc 56 bb 09 3d
       0.044163056 -0.077884026 -0.019160071 0.033625923
000330 43 41 9e bd e0 cf 1d bd a5 9a c6 3c 64 2d 46 bd
       -0.077272914 -0.038528323 0.024243662 -0.04838313
000340 da 79 68 bd fc 35 33 bd 01 06 ca 3c ed a2 43 3d
       -0.05675683 -0.043752655 0.024661066 0.0477628
000350 b3 cc e3 bd 09 21 53 3d 5d 38 8d bd f3 65 99 3b
       -0.11123028 0.051545177 -0.06895516 0.0046813427
000360 2e 0d 39 bd f7 64 ff 3c 29 1f 56 bd ab 18 e9 3d
       -0.045178585 0.031176073 -0.05227581 0.11381658
000370 26 1b a9 bc 8c 7b 61 3d 0e 9b c0 3c 99 5e df bd
       -0.020642828 0.055049464 0.023511436 -0.10906715
000380 4e 04 87 3c f4 19 97 bd 6f a8 8d bd 7d 1a de 3b
       0.016481545 -0.07377997 -0.06916892 0.00677806
000390 a3 49 70 bc b7 84 7b 3d b1 ea 0f 3d c2 c0 a1 3d
       -0.014665994 0.061405864 0.03513593 0.07898094
0003a0 3d 04 c9 3c 29 f1 20 3e 2b f4 10 bd 16 99 3d bd
       0.024538154 0.15716995 -0.035389107 -0.046288572
0003b0 d8 36 96 bd b0 f0 39 bd 73 5c 6c 3d 40 77 d2 bb
       -0.07334679 -0.045395553 0.057705354 -0.006422907
0003c0 36 0c 27 3a 1e a8 c6 3c b2 7e 5b 3c 59 f1 5a 3b
       0.0006372364 0.024250086 0.013396906 0.0033408015
0003d0 ca ca af bc 9d 69 74 bd df 17 cf 3d b7 9e db 3d
       -0.021459002 -0.059671033 0.10111975 0.10723632
0003e0 fb 7f 2d bd 49 3a 98 3d 71 8b 18 bd 36 80 17 bc
       -0.04235838 0.07432992 -0.037242357 -0.009246876
0003f0 40 7c cb 3d 96 99 a9 bd 87 ba 4f bd 1d 7d 60 bd
       0.09935808 -0.08281247 -0.050714996 -0.054806817
