Endless Runner/Assets/training/results/Run 1/cfg/cfg-66498.onnx (onnx, 597435 bytes, 8 tensors)

action_model._discrete_distribution.branches.0.bias f4 [3]
00000000: 11a4 3d3b c15c f6ba 9e9b 17ba
0.0028936903 -0.0018795953 -0.00057833816

action_model._discrete_distribution.branches.0.weight f4 [3, 256]
00000000: df36 ff39 3dd5 1abc f61e fdbb 2f73 e53b
00000010: 3f6f d2bb 7858 493c 243d 87bb fe17 193c
00000020: 8d77 7a3b ed22 333c 8a17 94bb 92ff 583b
00000030: 0845 e5bb c2a3 c9bb 0504 b2bb 74b5 33bc
00000040: adda ff39 4e24 2f3c 9bb5 f33a de7f 10ba
00000050: 90b9 af3b 3d78 2e3c 8850 d53b c396 64bb
00000060: 570a 063a 07bd 77bb bd1c c7ba adda 983c
00000070: 86f1 92bb 2313 353b 5aa9 e4bb 70a2 0b3a
00000080: 69b8 83bc 7e51 0ebc 7b81 373c dcbd 95bb
00000090: db27 4e3b ecce dcba 6d3e 2fbc b728 873a
000000a0: 92d0 ddbb fe1d 27bc 6073 cbba f206 d4ba
000000b0: dc0b bdbb b020 113c 6bc7 f4ba 2145 acbc
000000c0: 29d2 22bb 77d6 33bc b20d bdba 8b0a 2dbb
000000d0: ee94 933b d934 63bc ac78 483c 7a22 3ebc
000000e0: 688a feb7 6b3d 083c b16d 033c 49d0 2c3b
000000f0: 2612 60bc b42d 483b e2e1 bdba 1355 813c
00000100: 5291 e8bb 08b6 ae3b 4f7c 33bc 886d 553c
00000110: 4882 853b ec42 a53b 6a62 0b3c 4b88 81bc
00000120: 4483 05bc 3857 903b aaed d63b f887 1e3c
00000130: d7ff 7b3c 33da 86bb 7cbd ca3b 1d0a 833b
00000140: e46d bb3b c37a febb e423 db3a f830 e6b9
00000150: 4f9b 42bb a3a4 8a3b 58ed 9b3b e9e3 913b
00000160: c28d 68bc 33dc 37bb 7614 733b 0d93 7e3c
00000170: 74c8 a43b e37e a7bb 792e 0f3c e808 4d3b
00000180: 3162 b43b b3e0 12bb 4452 273b 996e eb3b
00000190: e30a 14bc 1ef5 2a3a eeb0 f43b 3777 d5ba
000001a0: f8db 023c 89e4 de3b 5a1f 813b 817f 0e3c
000001b0: 8687 12bc d7f0 6abb e55b 18bc acf6 4fbc
000001c0: f857 c53b b211 873b b55a 27ba b551 ecbb
000001d0: bb7a 11bc 3272 a3b9 991d 983a a076 89bb
000001e0: 872b 93bb 8dde 4f3c 4dc9 7ebc 9ea6 0a3b
000001f0: c099 babb b59c a2bb 6b9b 493b 5eac 73bb
00000200: f533 b73b 346c a1bb d7ea 08bc dc58 e5ba
00000210: 2fa2 f939 5b81 38bb ac08 0d3b ccaa 9e3a
00000220: 4e20 03bb 1b2b 75bb 09d0 9cbb 6179 cf39
00000230: b42f be3b 21d8 c83b 43de 173c 29a3 89bb
00000240: 9ff8 31bb f89c 143b b6dd 863b 49a2 443c
00000250: 103c 963a 1407 383b 416c 313b 6927 03bb
00000260: b872 f33b d75d 173c 99c8 403b 73c8 42bb
00000270: 3915 f2b9 e70d 793b d492 cb3a b8d5 4ebc
00000280: 99a8 ceba 6089 8cbc bd97 153c 393a 26bc
00000290: 1355 ebbb 7e3f 10bb c401 543c 3b19 7b3c
000002a0: dd21 c13b 78a8 04bb f50c 8d3b 5578 db3a
000002b0: 5396 4ebc eb8e 02bc 0b60 d4bb e204 703b
000002c0: 9ca1 c4bb cd66 613b 4655 edbb 68db 2abc
000002d0: feba 56bb ba2c 2a3b 1275 e63b ba28 49bc
000002e0: 5754 603b b702 943b a710 6abb 1635 57bb
000002f0: be54 c9bb e008 023c 9026 bcba e955 03bc
00000300: 821e 1fbc 7efd 073b dc6d 3a3c c986 a0bb
00000310: a209 33bb 666c 3ebc 1264 153c a4fb a0bb
00000320: 0abc 703a 505e 4c39 23ee cf3b 22da a93b
00000330: 0530 bdbb 10bb c3bb 0a4e b63b e19b 523b
00000340: 9b23 9abb 90c7 c83a 8e3d c2bb fcc6 25bc
00000350: 630c 2bbc 1e28 d3b8 bafc 11bb c25d 8d3b
00000360: fb12 6abb 9553 b23b 69de 8b3c b274 843c
00000370: 6760 0bbc 61e9 043c 90a1 0dba ccdb 203c
00000380: 8de3 9a3b 6211 cc3b e969 a0bb 3b91 69bc
00000390: ddc4 773a ce36 ffbb 859d bd3a 6617 bbba
000003a0: 3ade b9bb 29aa 45bb cf0d 833a c149 373b
000003b0: 3073 5aba b201 5e3b b412 323c 48bc e7bb
000003c0: 1c3b 47bc c217 b13b 286e 03bc 03e2 b03b
000003d0: 0bf1 f53b 06b2 a93b 75e7 2aba 89ff 0cbb
000003e0: ceda 29ba 9137 2a3b 75f7 5c3a e08a 203b
000003f0: e56b 3fbc 0d3f db39 fa48 6dbc 7258 4d3c
0.00048678272 -0.009450254 -0.007724638 0.0070022563 -0.006421953 0.012289159 -0.0041271616 0.009344099
0.003821823 0.01093362 -0.0045194076 0.0033111316 -0.0069967546 -0.0061535547 -0.005432608 -0.010968555
0.00048800316 0.010689808 0.0018593551 -0.0005512218 0.005362697 0.010648784 0.006509844 -0.00348799
0.0005113235 -0.0037801878 -0.001519106 0.01865896 -0.0044843582 0.0027629815 -0.006978196 0.0005326634
-0.016079145 -0.008686421 0.011200304 -0.004569752 0.0031456861 -0.0016846335 -0.010696036 0.0010311817
-0.0067692483 -0.010200022 -0.0015522055 -0.0016176386 -0.005769236 0.008857891 -0.0018675154 -0.021029057
-0.0024844503 -0.010976425 -0.0014423637 -0.002640399 0.004503838 -0.01386758 0.012235802 -0.0116049
-3.034361e-05 0.008315424 0.008021758 0.0026369265 -0.013676202 0.003054482 -0.0014486874 0.015787637
-0.0070974017 0.0053317584 -0.01095493 0.013026603 0.0040743686 0.005043378 0.00850735 -0.01581206
-0.008148972 0.0044049285 0.0065590935 0.009675972 0.015380821 -0.004115367 0.006187139 0.0039990083
0.005719887 -0.007766099 0.001671907 -0.00043905503 -0.0029694622 0.004231052 0.004758518 0.004452218
-0.014193954 -0.0028054833 0.0037091053 0.015537989 0.0050287787 -0.0051115616 0.008739107 0.0031285826
0.0055048694 -0.0022411763 0.0025531212 0.007184815 -0.009035799 0.00065215107 0.0074673807 -0.0016286139
0.007987015 0.006802146 0.003940505 0.0086973915 -0.008943444 -0.0035849118 -0.009299253 -0.0126930885
0.0060224496 0.0041219825 -0.0006384061 -0.0072118887 -0.008879359 -0.00031174865 0.00116055 -0.0041950494
-0.004491273 0.012687338 -0.0155509235 0.002115644 -0.005694598 -0.0049625286 0.0030762802 -0.0037181596
0.0055909106 -0.004926229 -0.008356771 -0.0017497796 0.00047613817 -0.0028153274 0.0021520061 0.0012105345
-0.0020008269 -0.0037409726 -0.004785542 0.0003957255 0.0058040265 0.00612928 0.0092693 -0.0042003584
-0.0027156246 0.0022676568 0.0041157855 0.012001582 0.0011461992 0.002808039 0.002707258 -0.0020012504
0.007429447 0.009238682 0.002941644 -0.0029721528 -0.0004617365 0.0038002671 0.0015531429 -0.012624197
-0.0015766799 -0.01715535 0.0091304155 -0.010145717 -0.0071817725 -0.00220105 0.012939874 0.01532584
0.0058939294 -0.0020242017 0.004304523 0.0016744236 -0.012609082 -0.007968645 -0.006481176 0.0036624004
-0.0060007107 0.003439355 -0.0072428314 -0.010428287 -0.0032765265 0.00259666 0.007032999 -0.012277776
0.0034229958 0.004516925 -0.0035715492 -0.0032838038 -0.0061441353 0.007936686 -0.0014354754 -0.008016088
-0.0097118635 0.0020750458 0.011378732 -0.00489888 -0.0027318974 -0.011622524 0.009118097 -0.0049128104
0.00091832934 0.0001949009 0.006345527 0.005183474 -0.0057735466 -0.0059732273 0.005563502 0.0032136368
-0.0047039515 0.0015318263 -0.005927748 -0.010118242 -0.010439965 -0.000100687364 -0.002227588 0.0043141553
-0.003571688 0.0054420927 0.017073827 0.016168926 -0.008506871 0.0081122825 -0.0005402798 0.009818029
0.004726833 0.006227658 -0.004895438 -0.014255817 0.0009451637 -0.0077885156 0.00144665 -0.0014273941
-0.0056722434 -0.0030161238 0.0009998622 0.0027967545 -0.00083332043 0.0033875522 0.010868717 -0.0070720054
-0.012160089 0.0054044435 -0.008021869 0.0053980364 0.007505541 0.0051786928 -0.0006519475 -0.0021514616
-0.0006479443 0.0025973062 0.0008429208 0.0024496838 -0.011683439 0.00041817912 -0.014482731 0.012533294

network_body._body_endoder.seq_layers.0.bias f4 [256]
00000000: 90dd 29bb 5719 3cbb 42fd eb39 e345 f1b9
00000010: 00a1 ef34 b33a 07bb 9fd4 16ba c8e3 103b
00000020: e5a4 a7ba e4b5 023b 510e c639 9e19 833a
00000030: 9a15 cab9 b88f 413a f7d2 dc3a 3612 3b39
00000040: 5adc 863a 176c d839 84a7 a838 3253 3b3b
00000050: b8cb afba d62e ad3a 12b5 a239 1f86 b5ba
00000060: 962d ea3a f4bd c93b df55 073b e2f8 2cb9
00000070: c1a0 ee3a 8240 2b3a b3a9 2dbb 5c8c baba
00000080: f5b5 21bb 0673 54ba c6bc 85bb 3fcb 8d3b
00000090: cb18 93b9 c822 0dbb 54e6 2abb 396b 5cb8
000000a0: 4e5e 07bb 4521 753b ac52 c03a c37a 3f3b
000000b0: 6ec5 343b 6ce0 553b c177 093b b455 233b
000000c0: 152f 92bb cd0e 1d3b 303c 55b8 9e63 ca3b
000000d0: 7594 6a3b acdd a2ba 6e53 89ba 1ac9 9c3a
000000e0: 1d5d 1339 4c2f 7dba f69d af39 9b5f 113b
000000f0: 5b57 f7b9 26e0 7cba 02b1 69ba 3ba6 52bb
00000100: 52eb e63a 0049 40bb a39b a53a f4fe 4abb
00000110: cc39 14bb ff3f 8f3b 7cf8 dd3a 6c7d dd39
00000120: 4e9c 3fbb 828b bc3a 444f a639 cc94 44bb
00000130: 55e9 5f3b f6eb f93a f09d b239 8657 fd3a
00000140: 5afc 2db8 f68c 89ba 3f8c e8ba f7cb 79ba
00000150: 3598 ab3a 3bb3 703b b9ed 803a 7b6a 163a
00000160: b0eb e439 a65a 7fba 5e63 0c39 659e ee3a
00000170: eee8 b1b9 d217 dfba 189d 293b 3a54 7fba
00000180: 14a1 45ba cad1 a1ba 1e4e 75ba 0c7f 15bb
00000190: d051 2f3b 041e ceba f777 943a 7b61 873b
000001a0: 723a 1eba f237 f6b8 d850 b9bb 941e 773a
000001b0: 14c5 a33a 0998 c53a a2d7 6c3a 961d 11bb
000001c0: 48bc f3ba c03b 59bb 135f 8cba f365 afba
000001d0: f937 ffba fc45 8fba 2b1e 403b b7f4 343b
000001e0: a6e9 8fba 4091 c73a 853f 163b 43e5 19bb
000001f0: fa92 653a 4dee 99ba 4bbe 2dba 5041 283a
00000200: ca01 24bb 4c39 e73a 1cf9 c2ba 5137 e73a
00000210: 6db5 80bb 0b37 833b 851e 04bb 72ee 49bb
00000220: 2fda 873a 554c 323a 41be 8c3a 7894 c7b8
00000230: fe95 d439 9483 003b b825 17b8 69bb 7d3b
00000240: 8fac 3abb 9046 0eba e922 4639 1c2a 77b9
00000250: 1ac2 25ba 01ea d9ba c556 923b dcf4 813b
00000260: 732b c1ba 613a 09bb a624 d03a 13d5 04b9
00000270: fe77 9fb7 50c0 1a3b c4bf 483a 4d3e 6ebb
00000280: e480 56bb 9fa1 753a ad19 cf3a 3edf d239
00000290: 02ef 053b 3ac8 18bb a780 baba d5a1 953a
000002a0: 64bf 663b e517 29b9 788d 9c3a 9139 0c3b
000002b0: 2f76 ce3b f3db ec3a dd56 8c3b cc58 a6b8
000002c0: fc40 4f3a bdb8 363b 40ff bbba 6339 cfb9
000002d0: ce5e 393b ce58 23ba 0a0b e53a 2b36 363a
000002e0: dfeb 2a3a d463 43b9 94fa b33a 1016 133b
000002f0: a74d 663b 0740 dabb 90a6 f1b8 2de8 5ebb
00000300: d895 1b3c 4dca e6b9 948c d63a abea d43a
00000310: 4e07 363b 1c4e d3b7 2187 c6ba 4960 8bba
00000320: bb93 6a3b 0c2e ed38 201b b33a 3f10 bf39
00000330: 7deb e0b8 a1fe 46bb 6145 10b9 eee1 0bbb
00000340: 9acb 213b 831a da3a d397 b3ba 6db1 05bb
00000350: b274 b3ba 8d9d a1ba cf2b da39 bd4b 24ba
00000360: 37fb b03b 5c7b 29bb 8a3a 883b 4e01 8eb9
00000370: 3805 2f3a 52c5 3d3b 46c7 cc3a 6224 ed3a
00000380: 4adb e0ba 870b 7c3a cc33 c138 5189 54bb
00000390: ec13 423b 99df dcba 0a5f 92b9 fe96 a9b9
000003a0: 27d4 6dbb dbe6 823a d837 283a 7668 e13a
000003b0: 9b11 e63a f673 09ba beac c6b9 3b9b 8ab9
000003c0: cb09 21bb ed5d 4b3b 5fea b1b8 07af e03a
000003d0: 2da2 843a 3d97 0f3b 5f9d bb3a d11a c5ba
000003e0: 0170 14ba b893 2cbb a131 523a 8521 0abb
000003f0: 5522 b0ba 9288 ad38 8643 2bba 1d6c b33a
-0.0025919415 -0.0028701627 0.00045011385 -0.00046019172 4.4634362e-07 -0.0020634353 -0.0005753729 0.0022108424
-0.0012790231 0.001994484 0.0003777617 0.0010002141 -0.00038544537 0.00073837815 0.001684754 0.00017840494
0.0010289059 0.00041279264 8.0420665e-05 0.0028583524 -0.0013412153 0.0013212811 0.00031033956 -0.0013849175
0.0017866369 0.0061566774 0.0020650548 -0.00016495914 0.0018205867 0.0006532745 -0.0026498854 -0.0014232504
-0.0024675105 -0.0008104298 -0.0040813414 0.0043272073 -0.00028056497 -0.0021535624 -0.0026077228 -5.2551946e-05
-0.0020655575 0.0037403863 0.0014673076 0.0029217459 0.0027583498 0.0032634987 0.002097592 0.002492291
-0.004461179 0.002396512 -5.083921e-05 0.006176426 0.0035794054 -0.0012425683 -0.0010477134 0.0011961788
0.000140537 -0.0009658232 0.0003349629 0.002218223 -0.00047176596 -0.0009646438 -0.0008914621 -0.0032142538
0.0017617738 -0.0029340386 0.0012634884 -0.0030974718 -0.0022617457 0.0043716426 0.0016935016 0.0004224585
-0.0029237452 0.0014384838 0.00031721045 -0.0029995916 0.0034166176 0.0019067514 0.00034068478 0.0019328452
-4.1481435e-05 -0.001049428 -0.0017741992 -0.00095289893 0.0013091626 0.0036727923 0.0009836472 0.0005737913
0.0004366315 -0.00097409857 0.00013388458 0.0018205164 -0.00033933617 -0.0017020649 0.0025880989 -0.0009740029
-0.0007538956 -0.0012345847 -0.00093576487 -0.0022811322 0.0026751645 -0.0015725498 0.0011327256 0.0041314936
-0.0006035931 -0.00011740615 -0.0056553893 0.0009426859 0.0012494647 0.0015075217 0.00090348173 -0.0022142879
-0.0018595541 -0.0033147186 -0.0010709487 -0.0013381824 -0.0019471637 -0.0010930891 0.0029314857 0.0027611682
-0.0010979667 0.0015225783 0.0022926044 -0.0023482598 0.0008757558 -0.0011743993 -0.0006627782 0.0006418424
-0.002502548 0.0017640977 -0.0014875266 0.0017640387 -0.0039278776 0.0040043644 -0.0020159793 -0.003081229
0.0010364706 0.00068015355 0.0010737852 -9.516714e-05 0.00040547544 0.0019609677 -3.6036334e-05 0.0038716441
-0.00284842 -0.0005427385 0.00018895757 -0.00023571443 -0.0006323174 -0.0016625525 0.00446591 0.003965957
-0.001473768 -0.0020939338 0.0015880063 -0.00012667877 -1.9010153e-05 0.0023613162 0.000765797 -0.0036353052
-0.0032730633 0.0009370092 0.0015800499 0.0004022065 0.002043665 -0.0023312704 -0.0014229015 0.0011416028
0.0035209293 -0.00016125997 0.0011944016 0.0021396617 0.0063007097 0.0018070921 0.004282816 -7.9320365e-05
0.0007906107 0.0027881109 -0.0014343038 -0.00039524873 0.0028285268 -0.00062311895 0.0017474603 0.00069508207
0.0006520133 -0.00018633838 0.0013731294 0.002244357 0.00351415 -0.0066604647 -0.000115228 -0.00340129
0.009496175 -0.00044019744 0.00163688 0.0016244253 0.002777535 -2.5189533e-05 -0.0015146473 -0.0010633554
0.003579362 0.000113096175 0.00136647 0.00036442463 -0.000107250155 -0.0030364173 -0.00013758756 -0.0021344381
0.0024688006 0.0016639981 -0.0013701863 -0.0020399943 -0.0013691394 -0.0012330279 0.0004161284 -0.00062673894
0.005401041 -0.0025860881 0.004157369 -0.00027085323 0.0006676498 0.0028956723 0.0015623353 0.0018092508
-0.0017155197 0.0009614755 9.212605e-05 -0.003243048 0.0029613925 -0.0016851305 -0.000279181 -0.0003234669
-0.0036289783 0.0009987013 0.0006417013 0.001719727 0.0017552854 -0.0005243415 -0.00037894206 -0.00026437067
-0.0024572487 0.0031031326 -8.483673e-05 0.0017142006 0.0010119133 0.0021910213 0.0014313868 -0.0015037899
-0.0005662442 -0.0026333164 0.00080182595 -0.0021077108 -0.0013437966 8.274721e-05 -0.0006533194 0.0013688836

network_body._body_endoder.seq_layers.0.weight f4 [256, 63]
00000000: 5572 15bd 00f0 b03d 7dd1 b4bd 1a3b cabd
00000010: 5460 863c 16dd 05be 3f7d ae3d b549 1f3e
00000020: 298a b63d 918d efbc 7363 4f3d add3 163d
00000030: e1fa 0dbd 491e 52bd 9430 d73d db97 253e
00000040: e67e e0bd 768a c3bb 5e77 4b3d 8155 2abe
00000050: a77e 1abe 0d56 d53d 2d41 d2bd e532 8fbb
00000060: dddd 343e 5133 363e f9c1 d43d 6b3d 44be
00000070: c374 5a3d 9a73 27bd b2a7 6d3d 6a5a f03d
00000080: f088 61be 6842 bf3d be0e b23d 5727 c33d
00000090: c709 f03c a9fe 8c3e 801b 98bd 0bee 15be
000000a0: d6a9 6fbd 7308 dcbd cfb3 9d3c 65d3 d0bd
000000b0: b4e7 59be e34b 1dbe f22a 94bd 9d72 9a3d
000000c0: f300 a03d 39d2 0f3e c41a 063e 3435 9bbd
000000d0: 1faf a2bd 0409 fabd 9561 cdbd 8d53 36bc
000000e0: e9dd 043d 5b3f d5bc 04b7 28bc 3c22 16bb
000000f0: d9d9 7e3e 7c32 623e 873c 533d 26bd 4d3d
00000100: bdfd ecbd 01ed 00be 4ef7 8d3e 349c 223d
00000110: 960f 4e3e 3653 18be dc28 843d 28f2 acbd
00000120: 1903 463d df25 c53d 24c3 7e3d 36b1 ef3d
00000130: 3c02 403e f2bc ad3d f218 1e3e 2d69 8a3d
00000140: f50a a7bd 87a0 3d3d 5b21 dabd 048f 243e
00000150: 731a b6bd db12 8fbe f6ea 883e 5a5d 7d3e
00000160: 9fb0 1e3e da03 dbbd e29d 0e3e 065a 903d
00000170: 14f8 ffba 1871 b03d f82b 143e 4571 44bc
00000180: fa81 5e3d 2e3e 01bc 615c d4bc 4b3a 6dbe
00000190: 342d b43d 4ed0 5a3e 7591 9b3c 763c cebd
000001a0: 8b03 16bd b86f bbbd 686f 253e 34e4 9bbd
000001b0: 772c 10be 2864 6f3b ae86 acbc 5872 08bd
000001c0: 09ff 3cbe f3b7 15be e3ce 86bd 5506 93bd
000001d0: 76bd c2bd 41a6 543d fa91 013e 190b 7ebe
000001e0: 4793 b23d 246c 3c3e 9a3b a93d e35b 393d
000001f0: dc4b 7cbe d9c3 94bc 6dcc 683e 01be 4f3d
00000200: d780 3abd 135d e2bd 5af6 1fbe f0f9 a03d
00000210: 7e83 2b3e 1ff5 093e 417d 7b3e 23da b3be
00000220: 7c45 76bd c356 46be 4aa7 e73c b870 20bd
00000230: d815 703e 36bd 46bc 8682 10bd 3052 e8bd
00000240: 3d90 1abe 8d95 283d b4f1 6cbe 80a2 28bd
00000250: 68be c63d 399f 97bd 30cf d03c 79f2 593d
00000260: 9083 213e 0021 b73d 895d 1a3b 31fb d6bc
00000270: 3f75 04bd 8d87 3cbe 0a34 0fbe 9034 f13d
00000280: 588c 50bd 14a6 b0bd 5cf0 8a3d 1fe3 d5bd
00000290: ca1c 8f3d 3071 013e ed61 bd3c 9347 c53c
000002a0: d918 7e3e a985 9ebd 5d5c fc3d 8b86 3a3e
000002b0: a888 363c e151 8d3c a925 d53c dad3 2b3e
000002c0: 2799 25bd 36b7 df3d 5ca3 cdbc b3a3 1b3e
000002d0: 51a2 97bb 11bc 7a3e 9c97 26bc b08e 733e
000002e0: 8ea0 ab3d fdaf a73c 6d75 573c 2092 5c3e
000002f0: 9dfc 343e 234f 8c3d 42c2 4abd 16e1 80be
00000300: 0dca 843d 25fe 0f3e 5aba 8c3d 7c49 c93d
00000310: acc6 143e 0ee3 293e d3dd 523e 9bb1 b2bd
00000320: b06d dd3d 3a01 65be a0e6 10bd 9dc4 59be
00000330: 8f04 94bd d909 b73c e13c e73d 7e6c 5cbd
00000340: f2c2 9d3d 4e51 f8ba 178c 803e b28a 373e
00000350: 2636 e33b 4e0a 3cbd 8882 c6bd 72ab 3e3e
00000360: 8282 933d 9b3a 23be 2785 4ebe 164e 973c
00000370: d71b 943d 6075 673d 7382 0c3c d040 203c
00000380: 4078 da3b a5e3 c6bc bac7 68be 6bc2 27be
00000390: 0766 523d 22a3 b03d 8c2f f5bc 8c2c 8d3d
000003a0: c277 7a3e 6310 a53d c506 ef3d 7fa9 413e
000003b0: a207 afbe 3eb8 73bd 93cb 443e eed3 e7bd
000003c0: ba38 fdbd d40d e03e fc9b ce3c fb7e 4cbd
000003d0: 7fb5 2e3d 3f32 dfbd da54 8abd f762 1c3d
000003e0: f37e cb3b dc68 a43d 68b0 aa3d 0d53 5e3e
000003f0: cf25 c1bc b131 da3d 1fdc 0a3e 5b39 093e
-0.03648599 0.08639526 -0.08829019 -0.09874554 0.016403355 -0.13072619 0.085199825 0.15555461
0.08913071 -0.029242309 0.05063195 0.036822964 -0.034663085 -0.051298413 0.105073124 0.1617121
-0.10961704 -0.0059674336 0.049674384 -0.1663418 -0.15087377 0.104168035 -0.102663375 -0.004370081
0.17662759 0.17793013 0.1038856 -0.19164054 0.05333401 -0.04088173 0.058021255 0.11735995
-0.22024894 0.09338838 0.08694218 0.09528988 0.029301537 0.2753804 -0.0742712 -0.14641587
-0.058511578 -0.10743799 0.019250778 -0.1019657 -0.21279794 -0.1536098 -0.07234754 0.07541392
0.07812681 0.14045037 0.13096148 -0.07578507 -0.07943558 -0.12208751 -0.10028378 -0.0111283185
0.032438193 -0.026031187 -0.010297541 -0.002290859 0.2488779 0.22089571 0.051571395 0.050229214
-0.11571834 -0.1259041 0.2772774 0.03969975 0.20123133 -0.14875492 0.06453106 -0.08444625
0.048342798 0.09626364 0.06219782 0.11703722 0.18750852 0.08483304 0.15439203 0.06758342
-0.08156387 0.04629567 -0.10650893 0.16070181 -0.088917635 -0.27944073 0.2674176 0.24742642
0.15497063 -0.10694094 0.13927415 0.070484206 -0.0019528889 0.08615321 0.14469898 -0.011989896
0.054323174 -0.00788836 -0.025922956 -0.23166768 0.08797684 0.21368524 0.018990258 -0.10070126
-0.036624473 -0.09152168 0.1615578 -0.07611886 -0.14079462 0.0036528204 -0.021060314 -0.03331217
-0.18456663 -0.14620952 -0.06582429 -0.07178942 -0.09508793 0.051916365 0.12653342 -0.24808921
0.08719497 0.18400627 0.08263321 0.045253646 -0.24638313 -0.018159794 0.22734232 0.05071831
-0.045533027 -0.11052909 -0.1562132 0.07860172 0.16749379 0.13472413 0.245595 -0.35127363
-0.06012486 -0.19369034 0.028278012 -0.039169997 0.23445833 -0.012130072 -0.035280727 -0.11343801
-0.15094085 0.041158248 -0.23139077 -0.041170597 0.09704286 -0.07403416 0.02548942 0.053209756
0.15772843 0.08941841 0.0023554286 -0.026242824 -0.032338377 -0.18411084 -0.13984695 0.117776036
-0.050915092 -0.08625427 0.06784126 -0.104437105 0.06987913 0.12640834 0.023117984 0.02408198
0.24814166 -0.077403374 0.123223044 0.18215387 0.01114098 0.017250957 0.026018934 0.16780034
-0.04042926 0.109236166 -0.02510231 0.15199165 -0.004627504 0.24485804 -0.010167982 0.237849
0.08380233 0.02046966 0.013150555 0.21540117 0.1767449 0.06851032 -0.049501665 -0.25171727
0.06483851 0.14061792 0.06871481 0.09828469 0.14528912 0.1659052 0.20592432 -0.08725282
0.10811937 -0.22363749 -0.03537619 -0.21266408 -0.07227432 0.022343563 0.112909086 -0.053814404
0.077031985 -0.0018945129 0.2510688 0.17924002 0.006933945 -0.045908265 -0.096928656 0.18620089
0.07202627 -0.15940325 -0.20167981 0.018469851 0.072318725 0.056508422 0.008576023 0.0097810775
0.006667167 -0.024278471 -0.2273244 -0.16382758 0.051366832 0.08624865 -0.029929899 0.06893262
0.24459746 0.08059766 0.11671213 0.18912314 -0.3418551 -0.05950188 0.19218282 -0.11319719
-0.12364335 0.4376055 0.025220864 -0.049925786 0.042653557 -0.108982556 -0.067544654 0.038180318
0.006210202 0.08027813 0.08334428 0.21711369 -0.023577599 0.10654009 0.13560532 0.13400786

network_body._body_endoder.seq_layers.2.bias f4 [256]
00000000: d867 47ba 4ed4 e0ba 9820 14bb 961f 8b3a
00000010: b064 3f3b ea21 a23a b6b6 8dba edfb ca3a
00000020: 82cf 303b 77ef 803a a08e 2f3b c461 54b9
00000030: 11e8 2d3a 5a59 f439 3e62 9eba 08e8 e23a
00000040: 685a 03bb 6be8 caba b4ee 56b9 4982 013b
00000050: e32c 0dbb 3b9b 3c3b df33 483a 0390 e63a
00000060: 99ca dc39 fd0c 75ba 4d35 d5ba 58ed 4a3b
00000070: 940a 2aba 966b 7b3a da42 26ba c0a8 26bb
00000080: a68c d039 7299 243a 86b4 eeb8 6486 383a
00000090: f243 2d3b fa0c 29ba d7b0 6d3b da6b af3a
000000a0: 3c6d c1ba b6d1 38bb d595 f3ba 89d0 033a
000000b0: eec5 4cbb 2bef 72ba 0ec8 013b 1251 f4b9
000000c0: 21ff 0aba d629 3e3b 1ab3 f13a ee11 d73a
000000d0: 5ad3 27ba 8226 233a 5820 3fba 14f7 3a3b
000000e0: 4900 17ba ae1f 43bb 32c9 2539 7f53 213b
000000f0: 73e8 a3ba 080c 953a 3f9e b5ba d920 79bb
00000100: fdb3 3eba 1cc3 cf3a 6930 043b 3813 773a
00000110: 8a55 12bb 0c7e d0b9 fef1 c73a 6d79 c33a
00000120: 79de 0c3b d02e be3a 377e d43a b84e 1abb
00000130: 520f 993b 3b66 883a db84 8fba 7ed5 a33a
00000140: 6e7e e139 ba96 003a 6adc a83a 7c08 e73a
00000150: 4d9b 873a 77a9 9d39 41e0 4c3b e5ac e23a
00000160: bb72 1b3b 37e2 e03a f04f 28ba 81cb 2bbb
00000170: b6e6 e039 677d a63a b5d1 493a 4276 c3b8
00000180: 3049 533b eca2 b1ba 76d2 d93a 7530 783a
00000190: 822e e2b9 e646 08bb a967 0dba 1c22 c23a
000001a0: 3b51 ca3a 410d 4639 5133 fe3a e484 b03a
000001b0: 2767 123b 0d72 033b 499d ec3a faba b0ba
000001c0: 2027 1eba d7e8 bc3b 34a3 353b 57d3 04bb
000001d0: 4ebb 29ba 36fc 84b9 2fbf 013a ad6b 2b3b
000001e0: e4ef 853b 3059 40ba a634 0d3a c61e 0dbb
000001f0: d925 063b 4f73 0d3b 711f 0f3a 1195 833a
00000200: 418e 30ba 4276 a6ba 8b12 95b7 4c3a 12bb
00000210: 6fcc a039 5216 69bb c852 143b 7b9e 1a3b
00000220: aa69 8638 3d47 6139 1d44 37bb a246 363b
00000230: 62e0 2c3b 54ac ae3a c095 333b 453b 9f3a
00000240: ca0d 563a 21fa 04bb db14 403a 2821 26ba
00000250: 8ca3 52ba 5514 c9ba f504 2bbb 0523 003b
00000260: ccab 29ba f3f3 d7b8 2d3b 7f3a b6d6 a23b
00000270: 0727 9aba 80fa 96ba b1a2 4039 ebdf 88b8
00000280: 59d2 303b 0b67 2bbb e735 4d3b 62f7 6139
00000290: 5f31 103b bf31 a33a 6142 8dba 1c39 51b9
000002a0: d63f 1839 e075 67bb 7a42 d7ba 05da f839
000002b0: da7c 13bb fb00 a6b8 24e4 98ba cc02 1eba
000002c0: 3ecb f9ba 792d 05b8 b2d6 5b3a d237 cf39
000002d0: dbf5 3f3b f7ac b739 ac55 0fbb 83ac db3a
000002e0: 3f25 64ba 7785 f93a 0e07 fa3a c88c 90b9
000002f0: e455 b739 ec81 283a 0e0e a23a c056 8fba
00000300: 96c7 1d3a 3011 873a 53c4 52b8 1454 2b3b
00000310: 9ccc 233a a43c 053b 26e7 713a 6297 31bb
00000320: f700 36bb b949 80ba 4907 0aba fbcb dd3a
00000330: 167b 7c39 5bff 19ba 4214 49ba 8214 f73a
00000340: 8a1d b1b9 4cae 8cbb 14e4 013b 9f2a 2e3b
00000350: c37f 0cbb cd7e 93ba 9d0f adba 8d68 2db9
00000360: 10cf d53a 7390 2b38 7403 8c3a 8539 a4ba
00000370: e0fc 12bb 04a9 adba d2a9 a43a 32c6 4eba
00000380: f489 213b 656b 3ab9 2b89 84b9 d44e 19bb
00000390: 6444 093a 70d2 fcba 92e6 913b 1103 19bb
000003a0: 6930 30bb 9598 ff3a 0860 92b9 a059 ae3a
000003b0: 86a3 b33b 5c41 42b7 50b3 55b9 7693 09bb
000003c0: 7921 ef3a 0100 223b 49c2 ccba 06a4 0f3b
000003d0: 0af2 323b 5a69 d13a 8b1a 4c3a 5d47 083b
000003e0: e0c6 963a fcff 683a e944 62b9 326a e13a
000003f0: 76fe 393a e2ab 8a3a 1cbc 0e3b 2afe c2ba
-0.00076067215 -0.0017153115 -0.0022602435 0.0010614272 0.0029204302 0.0012369726 -0.0010811898 0.0015486457
0.0026979153 0.0009836991 0.0026787892 -0.00020254316 0.0006634007 0.0004660588 -0.0012083722 0.0017311582
-0.00200429 -0.0015480643 -0.00020497554 0.0019761494 -0.0021541647 0.0028779048 0.0007637124 0.0017590526
0.00042112617 -0.00093479437 -0.0016266495 0.0030964222 -0.00064865616 0.00095909217 -0.0006342359 -0.0025430173
0.00039777643 0.00062789686 -0.000113823495 0.0007039069 0.0026438204 -0.0006448772 0.0036268735 0.0013383583
-0.0014757286 -0.002820117 -0.0018584082 0.00050283276 -0.0031245905 -0.0009267206 0.001980308 -0.0004659971
-0.00053022994 0.0029016635 0.0018440217 0.0016408542 -0.0006402038 0.00062236947 -0.00072908914 0.0028528618
-0.00057602354 -0.0029773521 0.00015810577 0.0024616418 -0.0012505188 0.0011371383 -0.0013856365 -0.0038013963
-0.0007274745 0.0015850994 0.0020170456 0.0009425166 -0.0022328817 -0.00039766764 0.0015254614 0.0014913507
0.0021494909 0.0014509801 0.0016211931 -0.0023545455 0.004671016 0.0010406444 -0.0010949628 0.0012499539
0.00043009542 0.00049052725 0.0012883071 0.001762643 0.0010345966 0.00030071635 0.0031261595 0.0017293958
0.0023719508 0.0017157261 -0.0006420603 -0.0026213827 0.00042896502 0.0012702168 0.000769879 -9.320352e-05
0.0032239668 -0.0013552583 0.0016618508 0.000946767 -0.0004314073 -0.0020794212 -0.000539417 0.0014811191
0.0015435586 0.00018887689 0.0019393956 0.0013467339 0.0022339316 0.0020056993 0.0018052246 -0.0013483458
-0.0006033052 0.0057650614 0.0027715685 -0.002026757 -0.0006474749 -0.00025364914 0.0004949448 0.002615671
0.004087435 -0.0007337509 0.00053865684 -0.0021533235 0.0020469336 0.0021583622 0.0005459702 0.0010038932
-0.00067350647 -0.0012700038 -1.7770819e-05 -0.002231258 0.00030669893 -0.0035566282 0.002263235 0.0023592997
6.4092994e-05 0.0002148421 -0.0027964183 0.0027813097 0.002637886 0.0013326504 0.002740249 0.0012148401
0.0008165507 -0.002029069 0.00073273265 -0.0006337338 -0.00080352346 -0.0015341142 -0.0026095484 0.0019552123
-0.0006472438 -0.00010297438 0.0009736296 0.004969443 -0.0011760899 -0.0011518747 0.00018371154 -6.526693e-05
0.0026980846 -0.0026153948 0.0031312646 0.0002154983 0.0022002084 0.0012450739 -0.0010777229 -0.00019953068
0.0001451963 -0.0035318062 -0.001642301 0.00047464683 -0.0022504837 -7.9156795e-05 -0.0011664671 -0.00060276384
-0.0019057763 -3.175202e-05 0.0008386179 0.00039523706 0.0029290828 0.0003503335 -0.0021871133 0.0016759787
-0.000870306 0.0019036968 0.0019075589 -0.0002757071 0.00034968473 0.0006428051 0.0012363808 -0.0010935888
0.00060188153 0.0010304805 -5.0250743e-05 0.0026142644 0.0006248446 0.0020330334 0.0009227864 -0.0027098288
-0.0027771571 -0.0009787596 -0.0005265368 0.0016921753 0.00024078446 -0.0005874538 -0.000767056 0.0018850716
-0.0003378208 -0.0042932387 0.0019819783 0.0026575697 -0.0021438457 -0.0011253 -0.0013203506 -0.00016537514
0.001631232 4.0904106e-05 0.0010682181 -0.0012529349 -0.0022428557 -0.0013249223 0.0012562817 -0.000788781
0.0024648877 -0.0001777835 -0.000252792 -0.0023392932 0.0005236326 -0.001928879 0.004452535 -0.0023347775
-0.0026884323 0.0019500429 -0.0002791884 0.0013301857 0.00548214 -1.1578519e-05 -0.00020380062 -0.0020992435
0.0018244229 0.002471924 -0.0015621866 0.0021917834 0.002730491 0.0015976832 0.00077859376 0.002079449
0.0011503361 0.00088882423 -0.0002157871 0.0017197786 0.00070951076 0.001057979 0.0021779602 -0.0014876772

network_body._body_endoder.seq_layers.2.weight f4 [256, 256]
00000000: 3f24 0fbe cd14 0e3c 7553 d33c 090b 24bc
00000010: de6b d93c f1f9 3a3d 2703 8cbc 47e0 123e
00000020: 2f14 183d 995e 84bb 3309 013e dab9 25bd
00000030: 5a10 a8bd 469b 453d 5d61 9cbc dbd8 97bc
00000040: 443f 8c3d 3a07 0f3e 80a7 103e 7db4 63bc
00000050: 61bb 7bbd c35a 983d 168a a6bd 227b 023e
00000060: 3a10 8dbd 480c 633c dbed 803d 0946 f9bc
00000070: 6959 453d b5b7 903d fa21 a2bd 1c3e 4a3d
00000080: 6d66 0d3d ad8f 203d 2939 14be f6b5 463d
00000090: 96eb 80bb 0551 0bbd 013c a13c ee41 b73c
000000a0: a233 95bd c647 c83c ad4c 883a 970c b9bc
000000b0: c62b 013d 4e44 7dbd 54e2 d7bb 214c 79bd
000000c0: 7238 e1bc bd72 753d 1c26 93bd 3da5 7b3d
000000d0: 25ad c7bd 0495 5e3d 34e5 9cbd 5637 9dbc
000000e0: a3ea 9cbd 11fe 8bbc 351f a5bd 7f42 c73d
000000f0: c7af 413c 5fdc dabc f2ef 8abd f0d2 c2bd
00000100: 37cb f4bd 7dc3 123d 03f4 c23d a77c d23d
00000110: a0b8 dcbc b916 8ebd daa1 16bd 3cdb 2b3e
00000120: bf45 febc 12bf 313d a3e6 143d a125 09be
00000130: a268 c33d b759 003e 865b 1a3e 79e8 c1bd
00000140: 75a5 4c3c 2238 1bbd 5904 4f3d ee10 3b3c
00000150: 11f5 eebc 60bd f03c 4e1f 973d 4659 b03c
00000160: 5d0b 8a39 fc1f 603d c263 3abd e0b8 80bb
00000170: ff9b 2e3d fa82 86bb e4d4 5dbd 4d3f 7c3d
00000180: 344e 05bd f503 f63c 28ae 78bc 66eb 54bc
00000190: e6d9 8a3d 7c07 313d 0eef 85bd eebe 24ba
000001a0: d389 b3bc f88c 183c 8ceb 0c3e 39db bcbd
000001b0: d15e a13c 373b 693c 8b39 8b3b dbe9 cd3d
000001c0: fc0e b53d cd7e 433d 711f 383c 0e50 2a3c
000001d0: 20cd a5bc be02 18bc 9f1d 13bd b8ec dd3c
000001e0: befb fbbc a19e ea3c 87e2 b23c 7bba 1d3d
000001f0: a5c5 a83c 38da 5fbc 6b3d 333c 96f8 493d
00000200: 0a7d 76bc 0e6e cbbd 42f7 6fbc a4f1 d5bd
00000210: ce36 29be d156 793d aa89 2e3d 3563 50bd
00000220: 3709 c63d b13c cdbd 6518 1a3d f8a1 903c
00000230: 2041 53bd b2fa d73c 86d9 e23c 056a 03bc
00000240: 36bb babd fde1 c53d a0eb 4a3d 6590 ba3b
00000250: df4d 7bbd e3f7 89bd 6c80 073e aaa6 853c
00000260: 4a9d d9bc 1a43 49bd a196 083d 6a9a 06bd
00000270: 0b18 46bc 4e23 263d ba39 093d 345b c03d
00000280: fe2e e13d 5c03 a0bd 609d ff3c 61fd bb3c
00000290: c37e c13c a9b6 66bc 71b7 663d 725a 31bd
000002a0: bef5 8bbd 30c0 a7bd 6e4f f33d 4c6a 0f3e
000002b0: 15b8 70bc 4aca 92bc cd58 1c3d 2830 2cbd
000002c0: b8e4 fbbd aad4 673d 9953 8bbd ca43 a53b
000002d0: 2cea 5fbd 9c1d 17bd d75a 92ba 3f62 b33c
000002e0: 06ba e23c c6e0 4fbc 372a abbd 2c8b c8bd
000002f0: a40a 3cbd 7f6d 1bbe 5009 5abc 2054 fcbc
00000300: c91e 4e3c 7067 af3c 783b e0b9 cb47 b0bd
00000310: a435 7fbc c8b0 9dbc 8d3e 50bd cfd9 c1bb
00000320: 1c57 4d3d 8d9a 063c d920 d63c 8bf3 793c
00000330: 8d3d dfbd 7bba 303d 6d4e 9d3d 271c f73d
00000340: 6d26 c53c 307f a93d d0ed 113d ce38 52bd
00000350: 203e a03c 7f58 9fbd e27d 3ebd b2e3 313c
00000360: 2363 abbc d0a1 abbc 3534 f7bc 88b2 d1bc
00000370: 1d0b 583c 374d aa3d cfb7 5dbd f7a4 6fbd
00000380: 170c 2c3d b345 c4bd 5e74 66bd 35ed 163d
00000390: 4cc3 70bd 4fd5 f63c aeca 893d 3d32 85bb
000003a0: 6306 12be 8bb9 e0bc 19ec 0c3c d452 debc
000003b0: a539 a93d 7ee2 dabb 5bf6 783c 7e10 a3bd
000003c0: 51ce 723d 685a e5bc 992d 773c e9fb 953c
000003d0: 39b4 363b 50ae 97bd de60 48bc 9401 a93d
000003e0: a5a4 9f3d 2ea9 903c be09 57bd 4fa3 463d
000003f0: 03e6 b33d 18b4 063d 3550 9c3c 77a8 783d
-0.1397867 0.0086719515 0.025796631 -0.010012397 0.026540693 0.04564852 -0.017091347 0.14343368
0.037128624 -0.004039597 0.12601165 -0.040460445 -0.08206244 0.048243783 -0.019089395 -0.018536022
0.068480045 0.139676 0.14126396 -0.013898012 -0.061457995 0.074391864 -0.081318066 0.12742284
-0.068878606 0.013857909 0.06295367 -0.030428903 0.04818097 0.07066289 -0.07916637 0.04937564
0.03452151 0.03919952 -0.1447493 0.048513375 -0.003934334 -0.034012813 0.019681932 0.022370305
-0.07285239 0.024448287 0.0010398828 -0.022589011 0.031535886 -0.06183272 -0.0065882597 -0.060863618
-0.027492736 0.059923876 -0.07185003 0.06143688 -0.097498216 0.05434133 -0.076609045 -0.019191425
-0.07661941 -0.017088922 -0.08062593 0.0972948 0.011821694 -0.02671641 -0.06784047 -0.095128894
-0.11952823 0.035830963 0.09519198 0.10277682 -0.026943505 -0.06937928 -0.036775447 0.1678285
-0.031039117 0.04339511 0.036352765 -0.1339326 0.095414415 0.12534223 0.15073976 -0.09468169
0.01249062 -0.03789533 0.050541256 0.011417611 -0.029169591 0.029387176 0.07379018 0.021526944
0.00026329877 0.054718003 -0.045505293 -0.003928289 0.04262924 -0.004104969 -0.054158106 0.061583806
-0.032545283 0.030031184 -0.015178241 -0.0129955765 0.06779842 0.04322003 -0.06539737 -0.0006284554
-0.021916306 0.009310953 0.13761729 -0.09221501 0.019698532 0.014235309 0.004248803 0.1005437
0.08840749 0.04772835 0.011237965 0.010395063 -0.020239413 -0.009277998 -0.03591692 0.027090415
-0.030759688 0.028640093 0.021836532 0.03850792 0.020602057 -0.013662867 0.010939936 0.049309336
-0.01504446 -0.09933101 -0.014646353 -0.1044648 -0.16524813 0.06087381 0.042611755 -0.05087586
0.09669726 -0.100213416 0.03762092 0.017655358 -0.05157578 0.026364658 0.027691614 -0.0080208825
-0.09117739 0.096622445 0.049541116 0.0056934827 -0.06135356 -0.06736734 0.13232583 0.016314823
-0.02656426 -0.04913626 0.033346776 -0.032862104 -0.012090693 0.040561013 0.033502318 0.093923956
0.10995291 -0.07813141 0.031202972 0.022947969 0.023620015 -0.0140816355 0.056327287 -0.043299146
-0.06833981 -0.08190954 0.118803844 0.14005393 -0.014692326 -0.017918725 0.038170625 -0.042038113
-0.12299484 0.056599297 -0.06803054 0.0050434815 -0.054666683 -0.036893472 -0.0011165988 0.021897433
0.027676594 -0.0126878675 -0.08357661 -0.0979217 -0.045908585 -0.15178488 -0.013307884 -0.030801833
0.012580582 0.021411628 -0.00042768917 -0.086074434 -0.015576754 -0.019249335 -0.050840903 -0.0059158574
0.050131902 0.008215559 0.02613871 0.015255819 -0.10900412 0.04314659 0.07680974 0.120659165
0.024066174 0.08276212 0.035627186 -0.051323704 0.019560874 -0.07780551 -0.04650677 0.010857509
-0.020921296 -0.020951182 -0.030176261 -0.025597826 0.013186243 0.08315509 -0.05413037 -0.058506932
0.042003717 -0.095836066 -0.05626332 0.036847312 -0.05878 0.03013101 0.06728111 -0.0040648268
-0.14260249 -0.027432224 0.008601212 -0.027139105 0.08262948 -0.006679832 0.0151954545 -0.0796213
0.05927879 -0.02799721 0.015086555 0.018308597 0.0027878417 -0.07406294 -0.012230126 0.08252254
0.07795075 0.017658796 -0.052499525 0.048495587 0.08784106 0.032886595 0.019081214 0.060707536

network_body._body_endoder.seq_layers.4.bias f4 [256]
00000000: d428 013a e642 02bb b284 39ba 76c0 be3a
00000010: 6b97 25bb 92da 0f3b c423 feba 27c9 45b9
00000020: 0b27 2e3b 89e9 fa3a b21f a9ba 7fb2 9a3a
00000030: 2c4a 21bb ee94 bfba d458 a0b9 e6dd e5ba
00000040: f36b b7b9 64aa 333b 4449 823a d4c0 1abb
00000050: f395 91ba c32c 473b 2885 4439 f667 093b
00000060: 8f33 edba 436f 3bba 0634 1139 2987 c23a
00000070: 2505 c2ba f8fd 0939 0dc1 1abb 01b5 c83a
00000080: a55e 0ebb 7469 48bb b7a4 44ba 499a 723a
00000090: 08f6 ad39 7a0c 22bb 53d5 18bb f621 47bb
000000a0: 674e 02bb 9f96 cbb8 3489 123b 0139 b6ba
000000b0: 23d9 3abb ccb9 db3a a883 d13a d57f ddba
000000c0: dbb0 4f3b b3e6 aeba c493 06bb ff97 0abb
000000d0: 3040 173b f7dc 1cbb 76b4 2e3b c6a1 2cba
000000e0: a497 223b 377f 063b e0a4 403a fa64 e83a
000000f0: 09b9 10bb c138 1f3a bf4e 0fba eb6d 183b
00000100: 4bc9 f2ba 4050 663a 45ce 40bb b068 a23a
00000110: 6a46 36ba 8501 563b 6173 04bb 0df3 efba
00000120: 0e77 3d3b 6eb7 abba 4270 023b 5a71 f73a
00000130: e6ec 0b3b 85d4 d1ba 8ee7 29b9 eb69 7f3a
00000140: a938 3d3a f83c dbba b5a3 27ba fb4d 3fb9
00000150: 7eb9 deba 8a13 cbb9 34b4 2f3a 14dd ca3a
00000160: d392 02bb 5216 37bb 01a8 2fbb 5da8 1d3b
00000170: 0a8f 043b e87c d13a 954f 403b 01ae 5d3a
00000180: d9b9 d739 a747 4dbb a25a cbba 3e15 223b
00000190: 68c6 caba 855f 1eba 6069 913a 9076 7339
000001a0: c768 113b f5dc 403b 4c62 393b 79d8 0e3b
000001b0: 00b2 1fb8 bc6f e0ba eff3 41ba e54c 8eba
000001c0: d622 ba3a 3c63 993a 7f1f 0bbb 1a02 0cba
000001d0: e147 1ebb 850e 48ba a348 8b3a 19e5 ddb9
000001e0: c44f 503b 15d3 423b d8ee ebba 6373 5ebb
000001f0: e046 20bb e2ca ecba 0a0e 883a 7356 f3ba
00000200: 7650 013b 3f76 ac3a 0a40 0cbb c365 bfba
00000210: 0450 083a 7513 94b9 4354 253b 4b24 b8ba
00000220: a00a 263b eae4 67ba b212 a2ba 6e91 d7ba
00000230: 074b 533a 2c19 acb9 7413 0c3b 63c9 4c3a
00000240: 9390 2eba 3eb3 133b db6f f63a 09b7 c63a
00000250: 3b8a a63a efd5 89ba 35b1 0a3a 7f10 16bb
00000260: bb16 f039 7e5f 083b 079e eb3a 8423 edba
00000270: c5aa a6ba aa78 273b 619e 12bb f30a 1abb
00000280: d8ea 52ba c5bb 0fbb 5b70 103b b855 39bb
00000290: dbe8 443b 046b e439 adce 503b 4561 5c3b
000002a0: 2f6d 8d3a 9c96 e9b9 7252 1a3b 6ff0 0c3a
000002b0: 7225 06bb 9bbe d7ba 40ef d6ba 6374 033b
000002c0: bdca c0ba cd0f 443a d69f 0bbb d558 26bb
000002d0: d30e 7c3a 46ad 873b 58e7 0a3b 2e2e 31bb
000002e0: fde1 68ba 64d6 623a 8b00 3f39 4d59 5abb
000002f0: d8a0 18bb f668 f43a ae68 d1ba b8b0 caba
00000300: cb1e 73ba 9e7f 95ba 8063 f63a dcc8 19bb
00000310: 3a32 92ba 85dd b3ba fb03 0d3b 677a 83ba
00000320: 933c 04bb f112 9db9 32d1 bb3a 3b14 deba
00000330: 562f e0ba 16b9 45bb ecd2 c33a c34c ccba
00000340: d308 9aba 2630 83ba 4c13 f2b9 19e5 1fba
00000350: 9415 4bbb fd4f 193b d98b bb3a 83c4 ab3a
00000360: 0405 293a d85d 633a 30f5 453b 929a 103b
00000370: 62d5 82ba 4a86 e339 9ce2 13bb ac82 1b3b
00000380: d5b1 3e3a 1827 e33a 99dc 8eba 524e ccba
00000390: 8c7f 1d3b a1ef abb9 f703 d6b9 1c72 0a3b
000003a0: f762 a3ba 402c dd3a a1e9 b938 b8fe bfba
000003b0: 823d 97ba d67d 163b e5d2 2a3b 8723 e6b9
000003c0: 4ccf c6b9 20f6 0a3a 1849 0ebb dafa 43bb
000003d0: b6d6 9e3a 11e8 6b3a fb3e e8b7 f162 8eba
000003e0: f674 083b 0298 8e39 f370 c239 703f 503b
000003f0: 976b 26bb ef97 01bb c35f 89ba 3c59 153b
0.00049270433 -0.00198763 -0.0007076963 0.0014553207 -0.0025267254 0.0021950346 -0.0019389321 -0.00018862319
0.0026573564 0.0019143085 -0.0012903123 0.0011802464 -0.002461086 -0.0014616528 -0.0003058376 -0.0017537444
-0.00034984908 0.0027414793 0.0009940048 -0.002361347 -0.001110731 0.003039167 0.00018741621 0.0020966507
-0.0018097031 -0.0007150063 0.00013847658 0.0014841306 -0.0014802559 0.00013159949 -0.0023613602 0.0015312732
-0.0021723893 -0.0030580433 -0.0007501351 0.00092545577 0.0003318044 -0.0024726675 -0.002332051 -0.0030385233
-0.0019883157 -9.70785e-05 0.0022359611 -0.0013902487 -0.0028510771 0.0016763746 0.0015984671 -0.0016899059
0.0031691107 -0.00133439 -0.0020534853 -0.0021147726 0.002307903 -0.0023935416 0.0026657856 -0.00065853854
0.0024809623 0.0020522603 0.0007348787 0.0017730289 -0.0022082946 0.00060738256 -0.0005466751 0.0023258876
-0.0018523125 0.0008785762 -0.0029419821 0.0012390818 -0.00069532415 0.0032654714 -0.0020210373 -0.0018306688
0.0028910073 -0.0013100931 0.0019903337 0.0018878386 0.002135092 -0.001600877 -0.00016203357 0.0009743261
0.0007218221 -0.0016726544 -0.00063949387 -0.0001824423 -0.0016992537 -0.00038733735 0.00067025726 0.0015477263
-0.001992394 -0.0027936888 -0.002680302 0.002405665 0.002022686 0.001598266 0.002934431 0.00084564096
0.00041146463 -0.0031323226 -0.0015514682 0.00247319 -0.0015470507 -0.0006041455 0.0011094026 0.00023218454
0.0022187696 0.0029428576 0.002828735 0.0021796508 -3.807433e-05 -0.0017123143 -0.00073987147 -0.0010856657
0.0014201056 0.0011702548 -0.002122849 -0.00053408893 -0.002415173 -0.0007631558 0.0010626506 -0.00042323096
0.0031785825 0.0029727865 -0.0018000258 -0.0033943288 -0.0024456307 -0.0018065835 0.001038016 -0.0018565193
0.0019731796 0.0013157799 -0.0021400475 -0.0014602471 0.00051999115 -0.00028243256 0.0025227226 -0.0014048902
0.0025335923 -0.00088460615 -0.0012365191 -0.001644654 0.0008060191 -0.0003282515 0.00213739 0.00078119914
-0.00066591165 0.0022537257 0.0018801646 0.001516075 0.0012705991 -0.0010516028 0.0005290688 -0.0022898016
0.00045793303 0.002080887 0.0017976173 -0.001809225 -0.0012715688 0.00255541 -0.0022372233 -0.0023505061
-0.00080458587 -0.0021931988 0.0022039625 -0.0028279852 0.003004602 0.00043567282 0.003186147 0.0033627313
0.0010789986 -0.00044553436 0.0023547676 0.00053764036 -0.0020469096 -0.0016460003 -0.0016398206 0.0020058386
-0.0014708858 0.0007479161 -0.0021304986 -0.0025382538 0.0009615246 0.004140529 0.002119502 -0.0027035582
-0.00088837725 0.00086531625 0.00018215382 -0.0033317388 -0.002328923 0.0018647003 -0.0015976632 -0.0015464043
-0.0009274303 -0.0011405831 0.0018797964 -0.0023465669 -0.0011153885 -0.0013722634 0.0021517265 -0.0010030986
-0.0020177707 -0.00029959486 0.0014329313 -0.0016943285 -0.0017103951 -0.0030170134 0.0014940179 -0.0015586842
-0.0011751897 -0.0010008856 -0.00046172214 -0.0006099507 -0.0030988203 0.0023393624 0.0014308646 0.001310483
0.0006447586 0.00086733466 0.0030205958 0.0022064787 -0.0009981806 0.00043396867 -0.002256549 0.002372901
0.0007274424 0.0017330376 -0.0010899483 -0.0015587306 0.0024032323 -0.000327942 -0.00040820215 0.0021125143
-0.0012465407 0.001687415 8.865004e-05 -0.0014648056 -0.0011538716 0.0022963188 0.0026065644 -0.00043895488
-0.0003791995 0.0005300958 -0.0021711048 -0.0029904158 0.0012118432 0.0008999119 -2.7685883e-05 -0.0010863227
0.0020821667 0.00027197605 0.00037086717 0.0031776093 -0.0025393718 -0.0019774397 -0.001048081 0.0022788784

network_body._body_endoder.seq_layers.4.weight f4 [256, 256]
00000000: f001 1d3d 96f5 10bd e4d8 04be 8a06 1f3e
00000010: 3d1d c43d b906 1abd 9afa 36bd 134e 04bd
00000020: 94a3 3bbd be14 673d 3675 ee3d ffc2 c4bd
00000030: 904a c93d 5de7 06be 7f03 603c e82e adbd
00000040: e119 fe3c 7385 96bd ce5f f63c 11ed 2abd
00000050: bb3f a4bd 8d29 bdbd e73d 5f3d 3a3d bebd
00000060: 1970 2e3d b090 8f3c c612 0c3b a60f 3fbc
00000070: 8f54 62bc 5947 de3b 8072 b4bc a67d 2cbd
00000080: 99fe d43c d36f 3bbd caa4 d03b 7fc2 953d
00000090: d2f2 93bc bcda 70bd 2aa0 8dbc a1ea 23bd
000000a0: 8e44 cb3c f0fd efbd 5693 28bc 397f 113c
000000b0: 68b5 78bc 0988 04bc d53f 38bc 4586 49bd
000000c0: 2808 8e3d a11e 99bb 83ec 96bc 5321 1fbb
000000d0: cc3b 87ba 4456 ddbc d9cb 053e addf 2e3d
000000e0: 844b dabd 4656 68bc 8e2d 033e eb26 9dbd
000000f0: b20c 0d3d 9ae9 9f3d 6b86 063d 954f 7fbd
00000100: 0a49 6cbc c1e3 e8bc 73a6 a9bd 05b5 0d3d
00000110: 6e4f 8a3d 5684 2fbd 0960 38bd 4189 a13d
00000120: ab96 c6bc a258 fbbd 3b50 243d 2e4f b1bd
00000130: 310e 003c 3a0f 8dbd b776 513d 9cc7 823d
00000140: c433 16bd efba a7bc 7d2a 843d 4f79 d3bc
00000150: 7855 45bd 1a67 823c 95f0 723d ba3a fb3c
00000160: f5bb 7c3d 4a37 c73c 0246 0cbd 444d 65ba
00000170: 14d6 643d 6804 debc 61ee c13d 0429 383c
00000180: 939a 05bd d979 4dbd e964 8e3d 81ab be3c
00000190: 7d4f 1abe 8927 f0bb b271 b83a 46de 59bd
000001a0: 0f15 2ebd 9031 d1bc 3146 b9bd f2bd 833d
000001b0: fe45 d83b d5db 20bc e0f3 20bc 7a32 e2bc
000001c0: 479c 5b3d 915a af3d 4d4e 01bd 163c 643d
000001d0: 25fe b439 301e 073d 717a 863d 5da2 a6bc
000001e0: 2b15 66bd d5b0 92bd cc2e 08bd 161b 713d
000001f0: 7651 c7bc 0a87 973d ae44 a03c 842a 963d
00000200: a582 193d 181c 48bc 4fec 81bc 6784 863d
00000210: df48 2a3d 300b 16bc 274f e4bd d703 8abc
00000220: f5b4 db3b 3915 48bd d420 acbd 653c 52bd
00000230: ff19 15bc bff9 0f3e 2599 593b 8d78 92bc
00000240: 7d7f 4ebd 5627 c5bd e79d 8d3b 523d cf3d
00000250: 5100 b9bc 54af 0d3e 7226 1dbe 5dd7 1a3d
00000260: 5b76 94bd f3d3 0fbb 8134 54bc 4fcd 10bd
00000270: f1e3 593d bee3 25be 3076 5dbe 1727 58bd
00000280: bc8a fa3b 7c42 04bd 35d2 913d 5202 083d
00000290: 24b8 513b c6ba 82bd 73cf dc3b b35f 93bc
000002a0: 1df8 90bd 33ac 633d ecb2 8dbd f2bd f6bd
000002b0: e797 543d ade2 06be e7d2 493d aa37 9a3d
000002c0: 7e3b c1bd d925 e7bc 3848 a53d 819b 9f3d
000002d0: cdf2 f33d 8393 63bc ffeb a13d bf23 5cbd
000002e0: 0d8a 17b8 1711 8d3d 6267 ac3c 6fab c9bb
000002f0: ca36 803d 184a 38bd e3be b63d f016 03be
00000300: 6ea4 73bb 8799 9d3b 3891 0abc 9817 d83d
00000310: 5a19 b13d 0778 78bc a703 623d a36e 843d
00000320: b7dd a9bd a860 fa3c ab38 d2bd 08e3 433d
00000330: f975 603d 43bc a03d db5b b2bc d986 d03d
00000340: 34e5 54bd e546 c0bd 1e9a b23c 56a6 543d
00000350: 6b02 e7bc 2b8c 873d 8236 35ba 6ee2 6cbd
00000360: ee6c 98bb c67d 88bd f02b 02be b718 153d
00000370: 2a0f 9e3c 1cbc a3bc 3c79 6a3c c102 f73d
00000380: 0eee 5f3b 44b3 9d3d fe95 913d cc8d b9bd
00000390: cc39 db3d cf23 383d fca4 cebd 7c05 bf3c
000003a0: 4fac c7bc 9ce6 8abd 47d0 1abc ce51 40bc
000003b0: bd59 92bc ba50 5c3d 11d6 19be f793 27bd
000003c0: 5296 db3c e08b 373d 23f8 043d 1147 383d
000003d0: 8f42 9a3c 3227 ba3d 68aa b7bc ba8f 0cbc
000003e0: 4881 c93c ffa6 44bd 2bca 42bd 1f0a 30bd
000003f0: c88c a73b b4a4 b2bb cfba a8bd 4a15 54bd
0.038331926 -0.03539046 -0.12973362 0.15529838 0.09575889 -0.037604067 -0.044672586 -0.03230102
-0.045810297 0.056416266 0.1164345 -0.09607505 0.09828675 -0.13174196 0.0136727085 -0.08456212
0.0310182 -0.07349672 0.03007498 -0.04172999 -0.08019968 -0.09236441 0.054502394 -0.09289022
0.042587373 0.017525047 0.0021373495 -0.011661446 -0.013814106 0.0067834076 -0.022027254 -0.042112015
0.026000308 -0.04576094 0.0063673006 0.07312488 -0.018060122 -0.05880235 -0.017288286 -0.04001868
0.024812963 -0.117183566 -0.010289034 0.00888043 -0.015179969 -0.008089074 -0.0112456875 -0.049200315
0.069351494 -0.0046728407 -0.018423324 -0.0024281337 -0.0010317503 -0.027018674 0.13066043 0.042693783
-0.10658935 -0.014180725 0.12810346 -0.07673439 0.034435935 0.07808228 0.032843035 -0.062331755
-0.014421711 -0.028428914 -0.08283701 0.03459646 0.06753431 -0.042850815 -0.04501346 0.07887507
-0.024241766 -0.12272765 0.040115576 -0.086576805 0.0078158835 -0.0688767 0.051138606 0.06385729
-0.03667046 -0.02047488 0.064534165 -0.02581468 -0.048177212 0.015918303 0.05931147 0.030667651
0.061702687 0.024318356 -0.034246452 -0.000874717 0.055868223 -0.02710171 0.09469295 0.011240248
-0.032618117 -0.05016503 0.06952841 0.023275139 -0.15069385 -0.0073289317 0.001407197 -0.053190492
-0.04250055 -0.025536329 -0.09046591 0.064327136 0.0066001406 -0.009818037 -0.009823769 -0.02761196
0.053615835 0.08562196 -0.031568814 0.055721365 0.00034521628 0.032987773 0.065663226 -0.020341093
-0.05617253 -0.07162634 -0.033247754 0.05886372 -0.024330836 0.073988035 0.019563999 0.07332328
0.037478108 -0.012213729 -0.015859751 0.065682225 0.0415734 -0.009157941 -0.111479096 -0.016847534
0.0067049214 -0.048848365 -0.08404699 -0.051327128 -0.009100436 0.14060114 0.0033202854 -0.017879749
-0.05041455 -0.09626643 0.004321802 0.10119118 -0.022583159 0.13836414 -0.15346697 0.037803043
-0.07249137 -0.00219464 -0.012951971 -0.035352048 0.053195897 -0.16200158 -0.21627116 -0.052771654
0.007645933 -0.032289967 0.07120172 0.033205338 0.0032000626 -0.063832805 0.006738597 -0.017989969
-0.07078574 0.055584144 -0.06918892 -0.12047948 0.051902678 -0.13172407 0.049273398 0.07530148
-0.09435175 -0.02821629 0.08070415 0.07793332 0.11911545 -0.01389015 0.07906341 -0.053745028
-3.6129775e-05 0.06888025 0.02104539 -0.0061544697 0.0626045 -0.044992536 0.089231275 -0.12801719
-0.0037176865 0.0048095617 -0.008457474 0.10551375 0.086474136 -0.0151653355 0.055179264 0.06466415
-0.08294242 0.030563667 -0.10264715 0.047823936 0.054800007 0.07848408 -0.021772316 0.1018197
-0.051976398 -0.09388522 0.021802004 0.051916443 -0.028199395 0.06618532 -0.00069127243 -0.057833128
-0.0046516573 -0.066646144 -0.12712073 0.036400523 0.01929434 -0.019987158 0.014311131 0.12061072
0.0034168991 0.07700208 0.07108687 -0.09060249 0.10704383 0.044956025 -0.10090062 0.023318045
-0.024374155 -0.067822665 -0.009449071 -0.011738254 -0.017865056 0.053787924 -0.15023066 -0.040912595
0.026805077 0.04481113 0.032463204 0.04498965 0.018830566 0.09089507 -0.022420123 -0.008579189
0.024597779 -0.048010822 -0.047556084 -0.042978402 0.005113218 -0.005451763 -0.08238756 -0.051778115
