Endless Runner/results/ppo/My Behavior/checkpoint.pt (torch, 208391 bytes, 10 tensors)

network_body._body_endoder.seq_layers.0.weight f4 [128, 64]
0.056531858 -0.17068553 0.035797574 -0.08708695 0.01002672 -0.08586684 0.10296859 -0.101222135
0.12854002 -0.1296861 -0.06642774 -0.13333935 0.30508986 -0.11061195 -0.2042266 -0.23443322
-0.16142063 -0.18491498 0.10439535 -0.035972215 -0.07080233 0.0078114388 -0.15911974 0.15865348
0.01370895 0.11027421 -0.07975177 -0.031443473 0.063220605 0.069169834 -0.1893581 -0.106969714
0.20947696 -0.059014123 0.17459464 0.0052904817 0.22136895 -0.04108053 0.18433154 0.024068203
-0.1692172 0.22721887 0.19527318 -0.11875961 0.032051086 -0.11597736 0.10935833 -0.012720231
-0.05431976 0.083872005 -0.022079514 -0.13903514 0.007376823 -0.05575165 0.0560853 -0.23396358
-0.0145416455 -0.034937065 0.2363244 0.08155053 0.10443183 0.11890974 -0.080837354 -0.1209811
0.05074364 -0.04392794 0.0885335 0.061158054 0.122510225 -0.117355056 -0.20342456 -0.053715568
-0.2463543 0.08216267 0.07755604 -0.16025996 -0.12294536 0.112289056 -0.086474106 -0.16771238
0.12660235 0.20045565 0.012514222 0.16306458 -0.07172409 0.09449742 -0.0695797 6.420395e-05
0.039164133 0.08333689 0.06525407 0.10974271 0.16673675 -0.10544508 0.14065996 0.38997737
-0.121635854 0.040334687 0.011052914 0.01663336 -0.038217243 0.08667564 -0.033423692 -0.0096522225
-0.07074626 0.070276655 -0.051848765 -0.018648036 -0.07421522 0.10235041 0.2184697 -0.2489691
-0.02732968 -0.053629592 -0.08571508 -0.22208388 0.08994216 -0.12570935 -0.35527262 0.116829164
0.04582686 -0.024607355 -0.067983024 -0.10276017 -0.3326517 -0.06442191 0.094957344 0.1780896
-0.13061748 0.07136525 0.14673397 -0.050462626 0.086742215 0.025199916 -0.049200125 -0.015023694
0.034530155 -0.16670719 -0.06613557 -0.25426468 -0.2888526 0.22425352 0.12384023 -0.08111648
0.11932162 0.09363713 -0.29735103 -0.014249342 -0.028650302 -0.14803556 -0.029932385 0.03852242
0.05410959 -0.061893765 -0.028448664 -0.15930294 -0.03567342 -0.02874962 -0.040352523 0.048786275
-0.10304612 0.05696793 0.022032144 0.064397186 0.05454089 -0.16246882 0.25019264 0.1599828
-0.16212498 0.07740962 0.13122606 -0.08787189 -0.19672869 -0.05997921 -0.10336006 -0.04675496
-0.068189904 -0.07600867 -0.06717181 0.03708038 0.08429475 0.042828385 -0.039210074 -0.024870925
-0.08123162 -0.0821352 0.11071819 -0.004521265 0.11299421 0.16281463 -0.10550158 0.3562246
-0.18013503 -0.18678275 0.038212586 -0.04678967 0.086480305 0.06656237 0.20737295 0.09979992
0.14069541 -0.19351831 -0.1881418 -0.14000018 -0.060727526 -0.25414798 0.14292376 0.16886131
0.2124808 0.06994069 -0.20578967 -0.0104616005 0.017352471 -0.09199646 0.036920257 0.0570903
0.031230748 0.037117116 -0.14085688 0.1451718 -0.10699144 -0.102624975 0.09595717 0.01919045
-0.17063558 -0.05352076 -0.13168447 -0.11602362 -0.14000417 -0.033186503 -0.1057151 -0.043445054
0.06613105 0.024945645 -0.019903226 0.053701315 0.04918251 -0.19278076 0.09777123 -0.0054940693
0.24486664 0.08747164 0.063167214 0.06889939 0.049569562 -0.13719621 0.06916057 0.0051282095
0.16726118 -0.04043259 -0.13800006 -0.18291865 0.02038422 -0.16427037 0.25286704 0.02945681
00000000: f38d 673d 30c8 2ebe 7aa0 123d a55a b2bd
00000010: 1d47 243c f4da afbd 32e1 d23d 8d4d cfbd
00000020: ff9f 033e 6fcc 04be 440b 88bd 1c8a 08be
00000030: bd34 9c3e 8588 e2bd c720 51be 430f 70be
00000040: 734b 25be 5a5a 3dbe 3bcd d53d 9a57 13bd
00000050: d000 91bd 19f7 ff3b 49f0 22be 0f76 223e
00000060: 819b 603c 72d7 e13d e554 a3bd dfca 00bd
00000070: ce79 813d eaa8 8d3d 17e7 41be f012 dbbd
00000080: 2181 563e cbb8 71bd f0c8 323e c75b ad3b
00000090: 8bae 623e 0f44 28bd 68c1 3c3e ae2a c53c
000000a0: 4647 2dbe 10ac 683e b1f5 473e 3d38 f3bd
000000b0: 0048 033d 8a85 edbd 43f7 df3d 8468 50bc
000000c0: 667e 5ebd 16c5 ab3d 19e0 b4bc 3a5f 0ebe
000000d0: 47b9 f13b d85b 64bd b3b9 653d 2694 6fbe
000000e0: 1540 6ebc 2b1a 0fbd 06ff 713e f703 a73d
000000f0: 5be0 d53d f386 f33d 0e8e a5bd f0c4 f7bd
00000100: 90d8 4f3d c9ed 33bd 0d51 b53d de80 7a3d
00000110: a4e6 fa3d d957 f0bd 874e 50be db04 5cbd
00000120: 4d44 7cbe e744 a83d b3d5 9e3d 301b 24be
00000130: c7ca fbbd cef7 e53d 5619 b1bd cbbc 2bbe
00000140: 0ca4 013e 3f44 4d3e 7408 4d3c 67fa 263e
00000150: 14e4 92bd dd87 c13d cd7f 8ebd 3ca5 8638
00000160: 926a 203d 88ac aa3d eda3 853d c9c0 e03d
00000170: 0abd 2a3e 97f3 d7bd 2a09 103e 1dab c73e
00000180: 381c f9bd fc35 253d 4817 353c af42 883c
00000190: af89 1cbd ff82 b13d 48e7 08bd 5b24 1ebc
000001a0: 6ae3 90bd 35ed 8f3d 5f5f 54bd c4c3 98bc
000001b0: 26fe 97bd 179d d13d 85b6 5f3e c1f1 7ebe
000001c0: 7ee2 dfbc b4aa 5bbd 638b afbd f569 63be
000001d0: 9833 b83d f4b9 00be 4be6 b5be 2144 ef3d
000001e0: f2b4 3b3d 5d95 c9bc af3a 8bbd ed73 d2bd
000001f0: 5351 aabe a2ef 83bd ff78 c23d 1f5d 363e
00000200: 97c0 05be f227 923d 6e41 163e e6b1 4ebd
00000210: e7a5 b13d 0e70 ce3c 1286 49bd f125 76bc
00000220: 7e6f 0d3d 4ab5 2abe 1672 87bd fb2e 82be
00000230: 7de4 93be b7a2 653e f29f fd3d 6620 a6bd
00000240: e55e f43d d3c4 bf3d 653e 98be 1276 69bc
00000250: 0ab4 eabc a296 17be c334 f5bc afc9 1d3d
00000260: 04a2 5d3d 5184 7dbd 2c0d e9bc 4f20 23be
00000270: 4b1e 12bd 5384 ebbc b048 25bd 1ed4 473d
00000280: d809 d3bd 3457 693d c17c b43c ace2 833d
00000290: 4566 5f3d 3a5e 26be 4019 803e 88d2 233e
000002a0: 1704 26be ef88 9e3d 2060 063e 2df6 b3bd
000002b0: 3f73 49be c3ac 75bd 70ae d3bd 2182 3fbd
000002c0: 26a7 8bbd 6faa 9bbd 6091 89bd 99e1 173d
000002d0: baa2 ac3d d16c 2f3d be9a 20bd 1cbe cbbc
000002e0: c35c a6bd 8036 a8bd 38c0 e23d 1f27 94bb
000002f0: 8269 e73d e1b8 263e 3611 d8bd 1263 b63e
00000300: 5175 38be fa43 3fbe cd84 1c3d 86a6 3fbd
00000310: 961c b13d da51 883d 9359 543e e763 cc3d
00000320: 7512 103e aa29 46be 3ea8 40be 355c 0fbe
00000330: 6dbd 78bd af1f 82be 9b5a 123e fbe9 2c3e
00000340: 9194 593e 113d 8f3d 87ba 52be 2267 2bbc
00000350: c526 8e3c a468 bcbd b239 173d 85d7 693d
00000360: a0d7 ff3c 1e08 183d c93c 10be eba7 143e
00000370: 541e dbbd 0b2d d2bd 3185 c43d 4a35 9d3c
00000380: 18bb 2ebe 9638 5bbd 4bd8 06be cb9d edbd
00000390: 415d 0fbe 92ee 07bd 2981 d8bd 71f3 31bd
000003a0: b76f 873d cf5a cc3c 170c a3bc e9f5 5b3d
000003b0: 9973 493d 5268 45be 483c c83d 9807 b4bb
000003c0: 52be 7a3e 5524 b33d d05d 813d 201b 8d3d
000003d0: 7409 4b3d 2a7d 0cbe 0fa4 8d3d 8a0a a83b
000003e0: 8446 2b3e a59c 25bd e34f 0dbe 074f 3bbe
000003f0: cffc a63c 7e36 28be ca77 813e 684f f13c

network_body._body_endoder.seq_layers.0.bias f4 [128]
0.0 0.0 0.0 0.0 0.0 0.0 0.0 0.0
0.0 0.0 0.0 0.0 0.0 0.0 0.0 0.0
0.0 0.0 0.0 0.0 0.0 0.0 0.0 0.0
0.0 0.0 0.0 0.0 0.0 0.0 0.0 0.0
0.0 0.0 0.0 0.0 0.0 0.0 0.0 0.0
0.0 0.0 0.0 0.0 0.0 0.0 0.0 0.0
0.0 0.0 0.0 0.0 0.0 0.0 0.0 0.0
0.0 0.0 0.0 0.0 0.0 0.0 0.0 0.0
0.0 0.0 0.0 0.0 0.0 0.0 0.0 0.0
0.0 0.0 0.0 0.0 0.0 0.0 0.0 0.0
0.0 0.0 0.0 0.0 0.0 0.0 0.0 0.0
0.0 0.0 0.0 0.0 0.0 0.0 0.0 0.0
0.0 0.0 0.0 0.0 0.0 0.0 0.0 0.0
0.0 0.0 0.0 0.0 0.0 0.0 0.0 0.0
0.0 0.0 0.0 0.0 0.0 0.0 0.0 0.0
0.0 0.0 0.0 0.0 0.0 0.0 0.0 0.0
00000000: 0000 0000 0000 0000 0000 0000 0000 0000
00000010: 0000 0000 0000 0000 0000 0000 0000 0000
00000020: 0000 0000 0000 0000 0000 0000 0000 0000
00000030: 0000 0000 0000 0000 0000 0000 0000 0000
00000040: 0000 0000 0000 0000 0000 0000 0000 0000
00000050: 0000 0000 0000 0000 0000 0000 0000 0000
00000060: 0000 0000 0000 0000 0000 0000 0000 0000
00000070: 0000 0000 0000 0000 0000 0000 0000 0000
00000080: 0000 0000 0000 0000 0000 0000 0000 0000
00000090: 0000 0000 0000 0000 0000 0000 0000 0000
000000a0: 0000 0000 0000 0000 0000 0000 0000 0000
000000b0: 0000 0000 0000 0000 0000 0000 0000 0000
000000c0: 0000 0000 0000 0000 0000 0000 0000 0000
000000d0: 0000 0000 0000 0000 0000 0000 0000 0000
000000e0: 0000 0000 0000 0000 0000 0000 0000 0000
000000f0: 0000 0000 0000 0000 0000 0000 0000 0000
00000100: 0000 0000 0000 0000 0000 0000 0000 0000
00000110: 0000 0000 0000 0000 0000 0000 0000 0000
00000120: 0000 0000 0000 0000 0000 0000 0000 0000
00000130: 0000 0000 0000 0000 0000 0000 0000 0000
00000140: 0000 0000 0000 0000 0000 0000 0000 0000
00000150: 0000 0000 0000 0000 0000 0000 0000 0000
00000160: 0000 0000 0000 0000 0000 0000 0000 0000
00000170: 0000 0000 0000 0000 0000 0000 0000 0000
00000180: 0000 0000 0000 0000 0000 0000 0000 0000
00000190: 0000 0000 0000 0000 0000 0000 0000 0000
000001a0: 0000 0000 0000 0000 0000 0000 0000 0000
000001b0: 0000 0000 0000 0000 0000 0000 0000 0000
000001c0: 0000 0000 0000 0000 0000 0000 0000 0000
000001d0: 0000 0000 0000 0000 0000 0000 0000 0000
000001e0: 0000 0000 0000 0000 0000 0000 0000 0000
000001f0: 0000 0000 0000 0000 0000 0000 0000 0000

network_body._body_endoder.seq_layers.2.weight f4 [128, 128]
-0.09448389 0.14085944 0.15713693 0.127314 -0.06354116 -0.018949604 0.10031016 0.11090092
0.06289946 0.07257973 0.06504499 -0.0427195 -0.0016189753 0.09177423 -0.022279067 0.037563667
-0.046392184 -0.014850325 -0.10099601 0.11691881 0.16192846 0.0027155743 0.09053647 -0.056720186
-0.09921946 -0.068367206 0.008398051 0.020775441 0.037882894 -0.08884674 0.028981324 0.04195985
-0.084779315 0.0021515714 0.12871362 0.042639777 -0.0028122435 -0.09320271 0.0114422105 -0.124999605
-0.2606548 0.06230182 0.013269889 0.23290019 -0.036961515 0.10198101 0.05055119 0.11514659
-0.02939698 -0.13130265 0.17861065 0.102430366 0.1457644 0.09065531 -0.030983517 0.1915743
-0.15182617 0.026988953 -0.10139084 0.035681125 0.039667893 -0.26602557 -0.04820288 -0.055132993
0.12588665 0.059160203 -0.010522776 0.12130472 0.076428324 0.05308858 0.018242983 -0.02895705
-0.02904535 0.026372816 -0.09838371 -0.042880952 -0.04004532 0.07612103 -0.03381819 -0.1321352
0.03252307 0.046696268 0.07991366 -0.041407 0.14560843 0.14956993 0.19092625 -0.047465015
0.0032150662 -0.02605436 -0.065278396 0.0761779 -0.081310965 0.014980946 -0.030083928 0.069357224
0.015408268 0.11115952 0.0056264936 0.031016523 0.023659213 -0.18588503 0.0152131375 -0.14376946
0.07280946 0.03725769 0.048150003 0.071545295 -0.025129063 -0.039904337 -0.050877057 0.14977361
-0.00067210104 -0.030745462 0.12975319 -0.03822896 -0.1482719 -0.13673373 0.0073312116 -0.11535158
-0.058427274 -0.03765622 0.14167726 -0.1619778 0.21996945 0.01875867 -0.1433944 0.07506796
0.041473415 0.10049889 -0.18240471 -0.029484881 -0.053674657 0.08134939 0.043934762 -0.04685375
0.0673393 0.03230341 0.19952743 -0.02571352 -0.06322636 0.049044237 0.06751252 0.13178593
0.02154183 0.052225154 0.0046940767 0.032668587 -0.033350527 0.04401453 -0.025210747 0.14046094
-0.16321817 -0.04046863 -0.097713746 0.008341563 -0.035831608 0.0690788 -0.065139145 -0.012848776
0.13500072 -0.18222535 -0.10545612 -0.34101245 -0.13563927 -0.106011346 0.018587261 0.057752818
0.06293716 -0.024899382 -0.02270962 0.006680056 -0.062364675 0.1303926 -0.103937075 -0.07785661
-0.06063621 0.045532584 -0.030684855 -0.029114552 -0.13682072 -0.009009036 0.07220422 0.06167547
-0.1098859 0.035807382 -0.085991025 0.07735649 0.095037244 -0.0023234568 0.10720247 0.10698409
0.045686956 0.09671472 -0.03657633 0.03038544 0.1048843 -0.08075116 -0.031448804 0.116011925
0.06890193 -0.009164803 0.064786956 -0.015978597 0.06299277 -0.023248691 -0.10191802 -0.124970324
-0.19535424 0.062980376 -0.18435855 -0.13424788 0.025062464 0.040100392 0.026285723 -0.012198825
0.07294965 -0.004474082 0.024373598 0.060445733 -0.033887032 0.16482633 -0.011715329 -0.053012684
-0.093950026 -0.06456093 0.07450229 -0.04453747 -0.100282185 0.03227881 0.08859979 -0.064375564
0.0061103534 0.016490364 0.064434074 0.07650131 0.12774098 -0.09813349 -0.026285771 0.11870132
0.18323983 -0.041897632 0.008269947 -0.0842384 -0.27846316 0.016662613 -0.03005154 -0.13693964
-0.02845885 -0.08016598 -0.0870244 0.0841343 -0.014795893 0.09435485 -7.494847e-05 0.06006358
00000000: c580 c1bd 753d 103e 81e8 203e 9a5e 023e
00000010: de21 82bd 333c 9bbc 6a6f cd3d 0620 e33d
00000020: 6fd1 803d aea4 943d 4f36 853d a4fa 2ebd
00000030: cc33 d4ba 21f4 bb3d 9782 b6bc 5cdc 193d
00000040: bb05 3ebd c74e 73bc ffd6 cebd 2173 ef3d
00000050: 93d0 253e c7f7 313b 2f6b b93d 6d53 68bd
00000060: 9233 cbbd 1b04 8cbd fb97 093c 4231 aa3c
00000070: 182b 1b3d 48f5 b5bd 3e6a ed3c 17de 2b3d
00000080: c7a0 adbd 6101 0d3b 81cd 033e 0ca7 2e3d
00000090: 9e4d 38bb 10e1 bebd 1c78 3b3c cbff ffbd
000000a0: 8c74 85be 3130 7f3d f369 593c 637d 6e3e
000000b0: f564 17bd 6bdb d03d c40e 4f3d fad1 eb3d
000000c0: efd1 f0bc 3474 06be b6e5 363e 03c7 d13d
000000d0: 4343 153e 7ea9 b93d 25d1 fdbc 0e2c 443e
000000e0: 5278 1bbe f017 dd3c 00a6 cfbd 5f26 123d
000000f0: cd7a 223d 8134 88be 6270 45bd 22d3 61bd
00000100: 6ee8 003e f851 723d b967 2cbc 9c6e f83d
00000110: 7486 9c3d 6973 593d 4f72 953c 5637 edbc
00000120: 84f0 edbc ce0b d83c 667d c9bd f0a3 2fbd
00000130: 9006 24bd 58e5 9b3d f184 0abd 734e 07be
00000140: e936 053d 9644 3f3d c6a9 a33d 639a 29bd
00000150: 601a 153e dc28 193e 2c82 433e ad6a 42bd
00000160: dcb3 523b f46f d5bc aeb0 85bd 2903 9c3d
00000170: 5d86 a6bd a472 753c 9272 f6bc 290b 8e3d
00000180: f672 7c3c 9aa7 e33d 735e b83b 5d16 fe3c
00000190: f7d0 c13c a558 3ebe 8640 793c 4d38 13be
000001a0: 201d 953d 859b 183d f038 453d 5786 923d
000001b0: 77db cdbc bb72 23bd 7664 50bd 415e 193e
000001c0: f02f 30ba e8dd fbbc 05de 043e f895 1cbd
000001d0: 97d4 17be ed03 0cbe a93a f03b 733d ecbd
000001e0: 7051 6fbd 693d 1abd d813 113e 82dd 25be
000001f0: ac3f 613e c8ab 993c fbd5 12be 3bbd 993d
00000200: 07e0 293d 5dd2 cd3d 4dc8 3abe 478a f1bc
00000210: f5d9 5bbd 829a a63d f0f4 333d b8e9 3fbd
00000220: 30e9 893d 9550 043d eb50 4c3e 29a5 d2bc
00000230: d27c 81bd 9ce2 483d 0144 8a3d e4f2 063e
00000240: 7e78 b03c 0bea 553d c5d0 993b 7fcf 053d
00000250: 909a 08bd 9448 343d c586 cebc fed4 0f3e
00000260: aa22 27be 6fc2 25bd 251e c8bd 0dab 083c
00000270: 2ac4 12bd 3079 8d3d ac67 85bd ac83 52bc
00000280: a13d 0a3e 4899 3abe 61f9 d7bd 2f99 aebe
00000290: 05e5 0abe 7a1c d9bd 5044 983c 388e 6c3d
000002a0: 33e5 803d caf9 cbbc 8609 babc 5fe4 da3b
000002b0: 1a72 7fbd a385 053e f6dc d4bd 4973 9fbd
000002c0: ad5d 78bd 6080 3a3d ce5e fbbc a481 eebc
000002d0: bb1a 0cbe a39a 13bc cedf 933d 6b9f 7c3d
000002e0: dc0b e1bd c3aa 123d 101c b0bd 146d 9e3d
000002f0: e3a2 c23d 2345 18bb f88c db3d 791a db3d
00000300: 3f22 3b3d 5e12 c63d 10d1 15bd e3ea f83c
00000310: 94cd d63d dd60 a5bd 76d0 00bd a997 ed3d
00000320: 741c 8d3d f827 16bc 06af 843d 8ce5 82bc
00000330: 5a02 813d 0a74 bebc 65ba d0bd 71f0 ffbd
00000340: f10a 48be dbfb 803d 7dc8 3cbe 4778 09be
00000350: cc4f cd3c 4f40 243d 2855 d73c 95dd 47bc
00000360: a066 953d 529b 92bb 24ab c73c f295 773d
00000370: 21cd 0abd 3cc8 283e a7f1 3fbc d423 59bd
00000380: df68 c0bd 8538 84bd a894 983d ec6c 36bd
00000390: bf60 cdbd c936 043d cf73 b53d 56d7 83bd
000003a0: 5c39 c83b cd16 873c 03f6 833d b8ac 9c3d
000003b0: 88ce 023e 36fa c8bd 4255 d7bc ad19 f33d
000003c0: 39a3 3b3e da9c 2bbd ac7e 073c 2f85 acbd
000003d0: b992 8ebe 0880 883c a62e f6bc e839 0cbe
000003e0: 8922 e9bc 102e a4bd d939 b2bd 9b4e ac3d
000003f0: 796a 72bc 1e3d c13d a72d 9db8 3a05 763d

network_body._body_endoder.seq_layers.2.bias f4 [128]
0.0 0.0 0.0 0.0 0.0 0.0 0.0 0.0
0.0 0.0 0.0 0.0 0.0 0.0 0.0 0.0
0.0 0.0 0.0 0.0 0.0 0.0 0.0 0.0
0.0 0.0 0.0 0.0 0.0 0.0 0.0 0.0
0.0 0.0 0.0 0.0 0.0 0.0 0.0 0.0
0.0 0.0 0.0 0.0 0.0 0.0 0.0 0.0
0.0 0.0 0.0 0.0 0.0 0.0 0.0 0.0
0.0 0.0 0.0 0.0 0.0 0.0 0.0 0.0
0.0 0.0 0.0 0.0 0.0 0.0 0.0 0.0
0.0 0.0 0.0 0.0 0.0 0.0 0.0 0.0
0.0 0.0 0.0 0.0 0.0 0.0 0.0 0.0
0.0 0.0 0.0 0.0 0.0 0.0 0.0 0.0
0.0 0.0 0.0 0.0 0.0 0.0 0.0 0.0
0.0 0.0 0.0 0.0 0.0 0.0 0.0 0.0
0.0 0.0 0.0 0.0 0.0 0.0 0.0 0.0
0.0 0.0 0.0 0.0 0.0 0.0 0.0 0.0
00000000: 0000 0000 0000 0000 0000 0000 0000 0000
00000010: 0000 0000 0000 0000 0000 0000 0000 0000
00000020: 0000 0000 0000 0000 0000 0000 0000 0000
00000030: 0000 0000 0000 0000 0000 0000 0000 0000
00000040: 0000 0000 0000 0000 0000 0000 0000 0000
00000050: 0000 0000 0000 0000 0000 0000 0000 0000
00000060: 0000 0000 0000 0000 0000 0000 0000 0000
00000070: 0000 0000 0000 0000 0000 0000 0000 0000
00000080: 0000 0000 0000 0000 0000 0000 0000 0000
00000090: 0000 0000 0000 0000 0000 0000 0000 0000
000000a0: 0000 0000 0000 0000 0000 0000 0000 0000
000000b0: 0000 0000 0000 0000 0000 0000 0000 0000
000000c0: 0000 0000 0000 0000 0000 0000 0000 0000
000000d0: 0000 0000 0000 0000 0000 0000 0000 0000
000000e0: 0000 0000 0000 0000 0000 0000 0000 0000
000000f0: 0000 0000 0000 0000 0000 0000 0000 0000
00000100: 0000 0000 0000 0000 0000 0000 0000 0000
00000110: 0000 0000 0000 0000 0000 0000 0000 0000
00000120: 0000 0000 0000 0000 0000 0000 0000 0000
00000130: 0000 0000 0000 0000 0000 0000 0000 0000
00000140: 0000 0000 0000 0000 0000 0000 0000 0000
00000150: 0000 0000 0000 0000 0000 0000 0000 0000
00000160: 0000 0000 0000 0000 0000 0000 0000 0000
00000170: 0000 0000 0000 0000 0000 0000 0000 0000
00000180: 0000 0000 0000 0000 0000 0000 0000 0000
00000190: 0000 0000 0000 0000 0000 0000 0000 0000
000001a0: 0000 0000 0000 0000 0000 0000 0000 0000
000001b0: 0000 0000 0000 0000 0000 0000 0000 0000
000001c0: 0000 0000 0000 0000 0000 0000 0000 0000
000001d0: 0000 0000 0000 0000 0000 0000 0000 0000
000001e0: 0000 0000 0000 0000 0000 0000 0000 0000
000001f0: 0000 0000 0000 0000 0000 0000 0000 0000

action_model._discrete_distribution.branches.0.weight f4 [1, 128]
0.00024333464 -0.0076718717 0.0020060355 -0.00863975 0.009810364 0.0031118758 -0.0012797075 0.0018887796
-0.008530735 0.0081419 -0.00072535936 -0.02212309 0.011161731 0.010878316 0.0017932978 -0.00015311156
-0.0028565214 0.01847322 0.005146125 0.017034888 -0.0005131738 -0.008058271 0.0024465716 0.01670851
0.013877912 -0.0015739705 0.009113785 -0.0019822633 -0.004991114 -0.0027599807 0.012709582 -0.0012680193
0.007944727 0.02003635 -0.0054383953 -0.0054161227 0.0019078471 -0.0114058545 0.0031123317 -0.0142033575
0.007504806 -0.021401841 -0.01835558 0.010716966 -0.0018743308 -0.0037025064 -0.014119108 0.0023512433
0.0040232628 -0.007058099 -0.0047216145 0.005807077 -0.00636707 0.0013705549 0.008071399 -0.0021753376
0.019254139 -0.0009610598 0.0015760827 -0.0066283653 0.00862434 0.00024072644 -0.012874006 0.007855827
0.008650494 -0.015159807 -0.014253174 0.0011738501 0.012767171 -0.0036706303 -0.007856681 -0.0013561173
0.008447341 -0.010504291 0.0017991847 0.015391129 -0.0077013806 0.0006200051 0.008545142 0.011234715
0.011393194 -0.0025023243 0.012548645 -0.01018285 0.0031644914 0.010601166 -0.0065051126 -0.008683782
0.009762987 0.0076515838 -0.0018968147 -0.0070292205 0.0010981743 -0.016583845 -0.019048069 0.0033710364
-0.011782506 0.0009848227 -0.014733828 0.0047924393 -0.0012331541 0.008364885 -0.0018358881 0.0033356124
-0.01421652 0.002169332 0.0089283055 0.0008202456 0.0008505735 -0.0071653924 0.0026527818 -0.011266023
0.013408101 0.015510253 0.011600434 -0.009717057 0.007686887 -0.005479822 -0.018792646 -0.001232789
0.0055130324 0.005831081 0.012679483 -0.0055944123 0.0032613657 -0.0039275293 -0.013512172 -0.0069874153
00000000: a527 7f39 5364 fbbb b177 033b bd8d 0dbc
00000010: a6bb 203c 9df0 4b3b dcbb a7ba ed90 f73a
00000020: 7fc4 0bbc 9b65 053c 0b26 3eba 7c3b b5bc
00000030: b1df 363c f73a 323c 170d eb3a 928c 20b9
00000040: 7a34 3bbb 2655 973c d3a0 a83b c08c 8b3c
00000050: 8386 06ba d706 04bc a956 203b 49e0 883c
00000060: 2f60 633c b04d ceba fc51 153c dce8 01bb
00000070: 808c a3bb cbe0 34bb da3b 503c ab33 a6ba
00000080: 9a2a 023c 4523 a43c 9134 b2bb bb79 b1bb
00000090: ba10 fa3a 9fdf 3abc 43f8 4b3b 33b5 68bc
000000a0: e0ea f53b ea52 afbc 715e 96bc 3796 2f3c
000000b0: 1bac f5ba c0a5 72bb d553 67bc 5117 1a3b
000000c0: 93d5 833b a047 e7bb c6b7 9abb 4b49 be3b
000000d0: dba2 d0bb 31a4 b33a e73d 043c 1c90 0ebb
000000e0: dbba 9d3c a2ef 7bba 8f94 ce3a c232 d9bb
000000f0: 1b4d 0d3c 836b 7c39 7fed 52bc bab5 003c
00000100: cdba 0d3c d760 78bc 2586 69bc e0db 993a
00000110: 652d 513c f58e 70bb 4fb9 00bc bfbf b1ba
00000120: b766 0a3c 311a 2cbc 9fd2 eb3a 132b 7c3c
00000130: dd5b fcbb d787 223a ec00 0c3c cf11 383c
00000140: 85aa 3a3c 09fe 23bb d598 4d3c f8d5 26bc
00000150: 5b63 4f3b 83b0 2d3c d728 d5bb 6c46 0ebc
00000160: eff4 1f3c 23ba fa3b 8a9e f8ba 6055 e6bb
00000170: 9df0 8f3a d8da 87bc b20a 9cbc 9bec 5c3b
00000180: 690b 41bc 2b15 813a 2766 71bc e509 9d3b
00000190: c9a1 a1ba df0c 093c 2fa2 f0ba 4a9a 5a3b
000001a0: 68ec 68bc 5a2b 0e3b 0748 123c c005 573a
000001b0: 05f9 5e3a abcb eabb 4bda 2d3b 2095 38bc
000001c0: a7ad 5b3c b71e 7e3c bf0f 3e3c 4b34 1fbc
000001d0: 48e2 fb3b 1490 b3bb 09f3 99bc 8995 a1ba
000001e0: aba6 b43b a712 bf3b 9bbd 4f3c 5551 b7bb
000001f0: a3bc 553b 81b2 80bb 2862 5dbc b0f6 e4bb

network_body._body_endoder.seq_layers.0.weight f4 [128, 64]
-0.010563622 -0.0030074597 0.15671438 -0.00094670395 0.029528912 0.100005835 -0.08696836 0.036375288
-0.064371124 -0.123288706 0.074613884 -0.061114356 0.034666233 0.13186628 -0.03542831 0.03506783
-0.15734118 -0.07038759 0.062298547 0.14974591 0.024543537 -0.032986555 0.1133823 0.1322277
0.0760383 0.0359155 -0.046098914 -0.13009566 -0.09584145 -0.20087063 0.07599938 0.059254505
0.0481259 0.062201727 0.048492756 -0.08804501 -0.07762139 -0.09647861 0.06032094 0.3223573
-0.043349043 -0.20718671 -0.09239629 0.100430466 0.086809084 -0.038749214 0.07231885 -0.09819272
0.13665713 0.012069648 0.04794652 -0.10916485 0.16693905 -0.057999365 0.25809613 -0.1416177
0.138773 0.05918468 0.07455503 0.036249913 -0.036311604 -0.038251698 -0.08250868 -0.17802945
0.074107334 -0.24828458 -0.20887092 0.0648436 -0.31939352 0.20214045 -0.20456573 0.03380575
0.028739946 -0.039067652 -0.08019014 -0.075386494 0.09452474 -0.1086175 -0.16259694 -0.05923191
-0.07052219 0.09134927 -0.094461724 -0.05415994 -0.20485204 -0.26175964 0.009507666 -0.03995632
0.02159121 0.028317422 -0.012569543 0.1338843 -0.017004343 0.0994593 0.10666249 -0.087630466
0.18250684 0.20741922 0.12489678 -0.026299916 -0.013641426 0.17159909 -0.16945225 0.023550304
0.030072436 -0.07153341 -0.016655713 -0.024856383 -0.019843226 -0.0059994548 0.08177267 0.014076002
0.14028218 0.067370266 0.09623356 0.13027698 -0.14802814 0.02368123 0.051384695 -0.074393034
0.15402266 -0.07242808 -0.029678138 0.06837366 -0.02681823 0.080461234 0.026469452 0.01550661
-0.022283044 -0.07399224 0.071302615 0.23190741 -0.09509946 0.031399358 0.04317593 -0.010039492
0.2935973 -0.17361106 -0.27943096 0.004205789 0.062415946 0.07134918 0.029138852 0.08955794
-0.06710932 0.11955434 -0.034785546 -0.09544764 0.061779838 0.087898776 0.122823454 0.01842487
0.07722497 0.04228632 -0.08114252 0.14522631 0.061365243 -0.065132454 -0.0765566 -0.069537595
0.13170245 -0.11717686 0.005467713 -0.19368401 -0.1139133 0.018213898 -0.07084509 0.14690861
-0.11694812 0.09106394 -0.06775642 0.08745139 -0.047128256 0.0015047716 -0.026236076 0.010235189
0.20159672 0.073769905 0.10382701 -0.017330687 0.058845293 0.1679291 -0.21699317 0.19671914
0.19618002 -0.19405286 0.106463835 0.25821665 0.09147477 -0.0339739 -0.21654658 0.15958448
-0.11245499 0.09623485 0.02760795 0.18419051 -0.10642009 -0.03341313 -0.074237585 0.06151819
-0.06607109 0.12264377 -0.24299018 -0.08087721 -0.25874722 -0.039801016 0.004889054 -0.12446399
0.09955685 0.27104354 -0.19904593 -0.10959093 -0.034013566 0.12742764 -0.11809042 -0.060246747
-0.17415392 -0.17058235 -0.05824163 0.074951895 0.008648426 -0.14466675 0.1318927 0.016505228
0.13753825 -0.05318489 0.2158585 0.09772458 -0.15188889 -0.0029242376 0.22057597 -0.020350046
-0.043238286 -0.090647295 -0.16242453 0.03350513 0.09593806 -0.05070065 -0.12250713 0.1154472
0.1605385 -0.0443713 0.1869507 0.13457912 -0.1752048 0.0013853296 0.036683705 0.18136393
-0.08803064 0.13439025 0.074099146 -0.101076685 -0.13720559 0.109986104 0.09149751 -0.093360566
00000000: 0b13 2dbc cd18 45bb bc79 203e 3a2c 78ba
00000010: 9ee6 f13c dccf cc3d 781c b2bd 41fe 143d
00000020: 02d5 83bd ca7e fcbd 2acf 983d 0c53 7abd
00000030: 2efe 0d3d f407 073e 471d 11bd 49a3 0f3d
00000040: 0c1e 21be 5e27 90bd c32c 7f3d fe56 193e
00000050: 870f c93c e91c 07bd fb34 e83d b366 073e
00000060: f8b9 9b3d 221c 133d 37d2 3cbd cc37 05be
00000070: 8648 c4bd 08b1 4dbe 90a5 9b3d dab4 723d
00000080: aa1f 453d 3dc7 7e3d 57a0 463d f150 b4bd
00000090: f7f7 9ebd 9496 c5bd 1713 773d 040c a53e
000000a0: c48e 31bd c128 54be 443a bdbd 7dae cd3d
000000b0: f6c8 b13d 7fb7 1ebd e81b 943d 4419 c9bd
000000c0: d9ef 0b3e c6bf 453c 9263 443d d291 dfbd
000000d0: 12f2 2a3e be90 6dbd 2d25 843e 3b04 11be
000000e0: 821a 0e3e a36b 723d 4fb0 983d ca7a 143d
000000f0: 7abb 14bd d0ad 1cbd 50fa a8bd 5a4d 36be
00000100: 96c5 973d 503e 7ebe 42e2 55be b9cc 843d
00000110: 8c87 a3be e8fd 4e3e ae79 51be e677 0a3d
00000120: 0970 eb3c 6705 20bd ba3a a4bd 3c64 9abd
00000130: 3096 c13d da72 debd d07f 26be 299d 72bd
00000140: f06d 90bd 5315 bb3d 2675 c1bd d0d6 5dbd
00000150: bcc4 51be 5c05 86be 0bc6 1b3c 3da9 23bd
00000160: 0de0 b03c f0f9 e73c 7cf0 4dbc f718 093e
00000170: b14c 8bbc 51b1 cb3d dd71 da3d 9a77 b3bd
00000180: 13e3 3a3e b465 543e e2c9 ff3d ec72 d7bc
00000190: 4a80 5fbc acb7 2f3e e484 2dbe 91ec c03c
000001a0: 785a f63c 1c80 92bd 9071 88bc 9d9f cbbc
000001b0: 438e a2bc 1397 c4bb 6e78 a73d 089f 663c
000001c0: 22a6 0f3e 6cf9 893d 1a16 c53d 5467 053e
000001d0: b094 17be 24ff c13c c278 523d 605b 98bd
000001e0: 1eb8 1d3e 2c55 94bd 911f f3bc 7d07 8c3d
000001f0: e8b1 dbbc dcc8 a43d 77d6 d83c 700f 7e3c
00000200: ee8a b6bc 3e89 97bd 1b07 923d 2379 6d3e
00000210: 81c3 c2bd 9d9c 003d 3ed9 303d ae7c 24bc
00000220: 6352 963e 19c7 31be 9311 8fbe b7d0 893b
00000230: dda7 7f3d 851f 923d 9ab4 ee3c 276a b73d
00000240: 9c70 89bd e8d8 f43d 4a7b 0ebd 0d7a c3bd
00000250: db0c 7d3d 4604 b43d dd8a fb3d c1ef 963c
00000260: 2028 9e3d 6c34 2d3d 0d2e a6bd 35b6 143e
00000270: 1f5a 7b3d 2a64 85bd b5c9 9cbd ba69 8ebd
00000280: 02dd 063e 6cfa efbd 802a b33b 1a55 46be
00000290: 604b e9bd 5035 953c 3b17 91bd 366f 163e
000002a0: 7f82 efbd bb7f ba3d e1c3 8abd b719 b33d
000002b0: 8f09 41bd c23b c53a 0aed d6bc 7fb1 273c
000002c0: 5f6f 4e3e ad14 973d 41a3 d43d 16f9 8dbc
000002d0: c307 713d 9bf5 2b3e 7533 5ebe be70 493e
000002e0: 6ae3 483e cbb5 46be b609 da3d f934 843e
000002f0: 2057 bb3d 3728 0bbd 63be 5dbe 1d6a 233e
00000300: cd4e e6bd c716 c53d 112a e23c 709c 3c3e
00000310: c7f2 d9bd 35dc 08bd e009 98bd 7ffa 7b3d
00000320: 4850 87bd a82c fb3d 6bd2 78be f3a2 a5bd
00000330: 847a 84be 6406 23bd 5c34 a03b fae6 febd
00000340: 76e4 cb3d 38c6 8a3e b2d2 4bbe 3671 e0bd
00000350: cf51 0bbd 647c 023e 64d9 f1bd 4bc5 76bd
00000360: 6855 32be 24ad 2ebe c78e 6ebd 6180 993d
00000370: 21b2 0d3c 8523 14be e10e 073e f935 873c
00000380: d4d6 0c3e 66d8 59bd 030a 5d3e d323 c83d
00000390: c388 1bbe 91a4 3fbb abde 613e 24b5 a6bc
000003a0: a11a 31bd 4aa5 b9bd 9e52 26be ad3c 093d
000003b0: 2c7b c43d 7cab 4fbd 05e5 fabd 956f ec3d
000003c0: 3464 243e aebe 35bd 0170 3f3e 1ccf 093e
000003d0: e368 33be f393 b53a a741 163d 77b7 393e
000003e0: 6849 b4bd 999d 093e 4bc1 973d 4b01 cfbd
000003f0: 9f7f 0cbe 6540 e13d 0c63 bb3d d333 bfbd

network_body._body_endoder.seq_layers.0.bias f4 [128]
0.0 0.0 0.0 0.0 0.0 0.0 0.0 0.0
0.0 0.0 0.0 0.0 0.0 0.0 0.0 0.0
0.0 0.0 0.0 0.0 0.0 0.0 0.0 0.0
0.0 0.0 0.0 0.0 0.0 0.0 0.0 0.0
0.0 0.0 0.0 0.0 0.0 0.0 0.0 0.0
0.0 0.0 0.0 0.0 0.0 0.0 0.0 0.0
0.0 0.0 0.0 0.0 0.0 0.0 0.0 0.0
0.0 0.0 0.0 0.0 0.0 0.0 0.0 0.0
0.0 0.0 0.0 0.0 0.0 0.0 0.0 0.0
0.0 0.0 0.0 0.0 0.0 0.0 0.0 0.0
0.0 0.0 0.0 0.0 0.0 0.0 0.0 0.0
0.0 0.0 0.0 0.0 0.0 0.0 0.0 0.0
0.0 0.0 0.0 0.0 0.0 0.0 0.0 0.0
0.0 0.0 0.0 0.0 0.0 0.0 0.0 0.0
0.0 0.0 0.0 0.0 0.0 0.0 0.0 0.0
0.0 0.0 0.0 0.0 0.0 0.0 0.0 0.0
00000000: 0000 0000 0000 0000 0000 0000 0000 0000
00000010: 0000 0000 0000 0000 0000 0000 0000 0000
00000020: 0000 0000 0000 0000 0000 0000 0000 0000
00000030: 0000 0000 0000 0000 0000 0000 0000 0000
00000040: 0000 0000 0000 0000 0000 0000 0000 0000
00000050: 0000 0000 0000 0000 0000 0000 0000 0000
00000060: 0000 0000 0000 0000 0000 0000 0000 0000
00000070: 0000 0000 0000 0000 0000 0000 0000 0000
00000080: 0000 0000 0000 0000 0000 0000 0000 0000
00000090: 0000 0000 0000 0000 0000 0000 0000 0000
000000a0: 0000 0000 0000 0000 0000 0000 0000 0000
000000b0: 0000 0000 0000 0000 0000 0000 0000 0000
000000c0: 0000 0000 0000 0000 0000 0000 0000 0000
000000d0: 0000 0000 0000 0000 0000 0000 0000 0000
000000e0: 0000 0000 0000 0000 0000 0000 0000 0000
000000f0: 0000 0000 0000 0000 0000 0000 0000 0000
00000100: 0000 0000 0000 0000 0000 0000 0000 0000
00000110: 0000 0000 0000 0000 0000 0000 0000 0000
00000120: 0000 0000 0000 0000 0000 0000 0000 0000
00000130: 0000 0000 0000 0000 0000 0000 0000 0000
00000140: 0000 0000 0000 0000 0000 0000 0000 0000
00000150: 0000 0000 0000 0000 0000 0000 0000 0000
00000160: 0000 0000 0000 0000 0000 0000 0000 0000
00000170: 0000 0000 0000 0000 0000 0000 0000 0000
00000180: 0000 0000 0000 0000 0000 0000 0000 0000
00000190: 0000 0000 0000 0000 0000 0000 0000 0000
000001a0: 0000 0000 0000 0000 0000 0000 0000 0000
000001b0: 0000 0000 0000 0000 0000 0000 0000 0000
000001c0: 0000 0000 0000 0000 0000 0000 0000 0000
000001d0: 0000 0000 0000 0000 0000 0000 0000 0000
000001e0: 0000 0000 0000 0000 0000 0000 0000 0000
000001f0: 0000 0000 0000 0000 0000 0000 0000 0000

network_body._body_endoder.seq_layers.2.weight f4 [128, 128]
0.19059831 -0.003394608 -0.07795697 0.12646848 -0.0023586284 -0.0817087 -0.0705685 -0.08044436
-0.0023859572 6.4369466e-05 0.054355226 -0.036886327 -0.009782068 0.12840089 -0.011652051 -0.10806202
-0.12307654 -0.0051767426 0.03797285 -0.06312997 0.20547275 -0.07344734 -0.09096699 0.10904672
-0.005619864 0.04937815 0.038635887 -0.054479077 0.100837484 -0.044048946 -0.03370496 -0.017802682
-0.12438251 0.1153426 -0.18912315 0.036729407 -0.06532037 -0.12610972 0.09227958 -0.07534959
-0.15162475 -0.17907318 0.08061142 0.007940053 -0.058385123 -0.013654467 -0.00857553 0.026235338
0.20585376 -0.02358844 0.16471842 -0.044343557 -0.035099603 -0.14394686 -0.047568355 0.03437631
-0.11686279 0.013459784 0.040254883 0.11091743 -0.031821817 -0.027881075 0.18112841 -0.056547984
-0.021641344 0.04190302 -0.15772767 -0.0006020898 -0.01993361 0.06304035 0.050030332 -0.009690952
0.067168824 -0.0018894752 -0.042618122 -0.11493933 0.01636895 -0.15115264 0.051781803 -0.019526534
0.22249125 -0.013391364 0.040754367 0.011503064 0.019346032 -0.008510198 -0.057342906 0.015926132
-0.025924655 0.04581664 -0.11973745 0.07768822 0.030746471 -0.09452941 -0.0060430337 -0.075502336
0.028182667 0.046548985 -0.004428229 -0.07837073 -0.10049014 -0.22797196 0.08466264 -0.031488065
0.014882289 0.003588645 0.10529425 0.028201215 0.15208912 0.1284156 0.22023268 0.001793891
-0.049453475 0.054314144 0.2116484 -0.05561994 -0.016453823 0.036818344 -0.017675199 0.09188768
-0.040377215 0.036767494 0.015169049 -0.044350892 -0.098351374 -0.11138254 0.06445077 -0.045213815
0.1223434 0.009179413 -0.00273479 0.20022091 -0.21913035 -0.13021272 -0.06454359 0.06584511
-0.1153459 -0.09873778 0.17352238 0.0026300768 -0.09715431 0.061311595 0.0005220868 0.12906235
0.026810298 0.019725334 -0.011687666 -0.04286335 0.091776006 0.009948929 -0.089985415 0.08458545
0.25667012 0.015441428 -0.016550656 0.08671608 -0.037092272 0.08273853 0.04070541 0.088694856
-0.018263796 0.026544906 -0.14749585 0.03484857 0.07373035 0.12039688 0.070398815 -0.16087562
-0.051594466 0.061907966 0.0833202 -0.07600555 -0.036218587 0.052090246 0.07949031 -0.15841414
-0.1316417 -0.062722035 -0.0943271 0.03088932 0.12778871 0.13280684 -0.03156976 -0.08808588
0.033690464 0.008447941 0.051774252 -0.06909941 0.0024948646 -0.15175478 -0.0021847007 0.07501536
0.11738032 0.06666652 0.08647226 0.0066448054 0.027248083 -0.08658387 -0.03902291 -0.008801806
-0.17290896 0.15890115 -0.089855425 -0.043164387 0.051886387 -0.15072891 -0.032673288 0.0053112665
-0.07663715 -0.038627196 0.043070447 -0.04208703 -0.118629165 -0.0010192764 -0.023794234 0.00464056
0.17091094 -0.04517272 -0.09123011 -0.10010026 0.04553261 -0.08073313 -0.002108554 -0.014465132
-0.17407046 -0.024915725 -0.13804649 0.018094866 -0.09635056 -0.058460187 -0.13565579 0.0072482834
0.032115478 0.051346567 0.07202679 -0.1209936 0.07037896 0.018630615 -0.15163435 0.044654105
0.007390286 0.10129178 -0.025614275 0.011278997 0.16455297 0.10177022 -0.068489276 0.10080641
0.113797374 -0.009333586 -0.06622585 0.059639793 0.09419991 0.2059675 0.08271123 0.005342849
00000000: 342c 433e 1278 5ebb e7a7 9fbd f480 013e
00000010: 3893 1abb e456 a7bd 3886 90bd 03c0 a4bd
00000020: b85d 1cbb 18fe 8638 96a3 5e3d 1e16 17bd
00000030: f844 20bc 867b 033e 3ee8 3ebc 9f4f ddbd
00000040: 8e0f fcbd aaa1 a9bb 6b89 1b3d 494a 81bd
00000050: 7367 523e 8f6b 96bd e74c babd e353 df3d
00000060: d626 b8bb be40 4a3d aa40 1e3d 7425 5fbd
00000070: e283 ce3d ab6c 34bd 360e 0abd eed6 91bc
00000080: 42bc febd be38 ec3d 80a9 41be 9371 163d
00000090: b0c6 85bd e822 01be 14fd bc3d e350 9abd
000000a0: 8543 1bbe f65e 37be 9a17 a53d ff16 023c
000000b0: 3d25 6fbd fcb6 5fbc 6180 0cbc 7eeb d63c
000000c0: 54cb 523e 8b3c c1bc f2ab 283e 97a1 35bd
000000d0: 9ac4 0fbd ce66 13be 09d7 42bd 2cce 0c3d
000000e0: c255 efbd 6d86 5c3c 4ee2 243d ad28 e33d
000000f0: 9857 02bd da66 e4bc ba79 393e dc9e 67bd
00000100: 3049 b1bc 80a2 2b3d 5d83 21be 90d5 1dba
00000110: cf4b a3bc 4d1b 813d 9bec 4c3d ccc6 1ebc
00000120: cf8f 893d 44a8 f7ba 5790 2ebd 5065 ebbd
00000130: 2d18 863c c2c7 1abe 2819 543d 1cf6 9fbc
00000140: bfd4 633e 7467 5bbc 0dee 263d 5977 3c3c
00000150: 927b 9e3c 5c6e 0bbc 65e0 6abd 8577 823c
00000160: f15f d4bc 3baa 3b3d e838 f5bd 001b 9f3d
00000170: 06e0 fb3c a398 c1bd a404 c6bb f8a0 9abd
00000180: 56df e63c 26aa 3e3d ad1a 91bb d580 a0bd
00000190: c6cd cdbd 7b71 69be 9b63 ad3d a1f9 00bd
000001a0: d8d4 733c 792f 6b3b 83a4 d73d 3c06 e73c
000001b0: 40bd 1b3e 617f 033e ad84 613e fe20 eb3a
000001c0: ba8f 4abd 8278 5e3d 5cba 583e bcd1 63bd
000001d0: 2bca 86bc d5ce 163d 94cb 90bc 9c2f bc3d
000001e0: 9462 25bd 8399 163d 9a87 783c 48a9 35bd
000001f0: 726c c9bd 871c e4bd c4fe 833d 1f32 39bd
00000200: 2d8f fa3d 4065 163c 2a3a 33bb b606 4d3e
00000210: b563 60be 7c56 05be 6e2f 84bd cdd9 863d
00000220: 793a ecbd 0837 cabd daaf 313e 5e5d 2c3b
00000230: d7f8 c6bd de21 7b3d a7dc 083a ec28 043e
00000240: 45a1 db3c 0697 a13c a07d 3fbc 7b91 2fbd
00000250: 0ff5 bb3d d500 233c 464a b8bd 233b ad3d
00000260: 446a 833e 0bfe 7c3c 3e95 87bc 3398 b13d
00000270: 11ee 17bd d272 a93d b7ba 263d a6a5 b53d
00000280: f59d 95bc b474 d93c 2709 17be 60bd 0e3d
00000290: f0ff 963d a492 f63d 412d 903d 94bc 24be
000002a0: b854 53bd 3593 7d3d c8a3 aa3d cca8 9bbd
000002b0: f159 14bd 955c 553d d1cb a23d 5137 22be
000002c0: 15cd 06be 6974 80bd 912e c1bd 990b fd3c
000002d0: 0bdb 023e 84fe 073e 4b4f 01bd 5f66 b4bd
000002e0: 03ff 093d 3c69 0a3c 3d11 543d fe83 8dbd
000002f0: e280 233b 9b65 1bbe 322d 0fbb a7a1 993d
00000300: 1865 f03d 7588 883d 5e18 b13d abbc d93b
00000310: 5f37 df3c e252 b1bd 7dd6 1fbd 7335 10bc
00000320: 0c0f 31be fcb6 223e 1f06 b8bd 24cd 30bd
00000330: d286 543d ae58 1abe 6dd4 05bd 220a ae3b
00000340: f0f3 9cbd 8d37 1ebd a36a 303d 7363 2cbd
00000350: d9f3 f2bd 3e99 85ba 20ec c2bc d70f 983b
00000360: 4703 2f3e 0807 39bd dad6 babd 5d01 cdbd
00000370: 6780 3a3d 6957 a5bd aa2f 0abb 29ff 6cbc
00000380: 873f 32be 101c ccbc 0f5c 0dbe af3b 943c
00000390: 7153 c5bd f373 6fbd 5ae9 0abe 0283 ed3b
000003a0: 858b 033d c750 523d c882 933d 7ecb f7bd
000003b0: d822 903d 3b9f 983c 0946 1bbe 39e7 363d
000003c0: 362a f23b 1172 cf3d 07d5 d1bc 8bcb 383c
000003d0: 9380 283e e86c d03d 1b44 8cbd 9773 ce3d
000003e0: 990e e93d e6eb 18bc 6ba1 87bd db48 743d
000003f0: e2eb c03d 25e9 523e 8164 a93d 1113 af3b

network_body._body_endoder.seq_layers.2.bias f4 [128]
0.0 0.0 0.0 0.0 0.0 0.0 0.0 0.0
0.0 0.0 0.0 0.0 0.0 0.0 0.0 0.0
0.0 0.0 0.0 0.0 0.0 0.0 0.0 0.0
0.0 0.0 0.0 0.0 0.0 0.0 0.0 0.0
0.0 0.0 0.0 0.0 0.0 0.0 0.0 0.0
0.0 0.0 0.0 0.0 0.0 0.0 0.0 0.0
0.0 0.0 0.0 0.0 0.0 0.0 0.0 0.0
0.0 0.0 0.0 0.0 0.0 0.0 0.0 0.0
0.0 0.0 0.0 0.0 0.0 0.0 0.0 0.0
0.0 0.0 0.0 0.0 0.0 0.0 0.0 0.0
0.0 0.0 0.0 0.0 0.0 0.0 0.0 0.0
0.0 0.0 0.0 0.0 0.0 0.0 0.0 0.0
0.0 0.0 0.0 0.0 0.0 0.0 0.0 0.0
0.0 0.0 0.0 0.0 0.0 0.0 0.0 0.0
0.0 0.0 0.0 0.0 0.0 0.0 0.0 0.0
0.0 0.0 0.0 0.0 0.0 0.0 0.0 0.0
00000000: 0000 0000 0000 0000 0000 0000 0000 0000
00000010: 0000 0000 0000 0000 0000 0000 0000 0000
00000020: 0000 0000 0000 0000 0000 0000 0000 0000
00000030: 0000 0000 0000 0000 0000 0000 0000 0000
00000040: 0000 0000 0000 0000 0000 0000 0000 0000
00000050: 0000 0000 0000 0000 0000 0000 0000 0000
00000060: 0000 0000 0000 0000 0000 0000 0000 0000
00000070: 0000 0000 0000 0000 0000 0000 0000 0000
00000080: 0000 0000 0000 0000 0000 0000 0000 0000
00000090: 0000 0000 0000 0000 0000 0000 0000 0000
000000a0: 0000 0000 0000 0000 0000 0000 0000 0000
000000b0: 0000 0000 0000 0000 0000 0000 0000 0000
000000c0: 0000 0000 0000 0000 0000 0000 0000 0000
000000d0: 0000 0000 0000 0000 0000 0000 0000 0000
000000e0: 0000 0000 0000 0000 0000 0000 0000 0000
000000f0: 0000 0000 0000 0000 0000 0000 0000 0000
00000100: 0000 0000 0000 0000 0000 0000 0000 0000
00000110: 0000 0000 0000 0000 0000 0000 0000 0000
00000120: 0000 0000 0000 0000 0000 0000 0000 0000
00000130: 0000 0000 0000 0000 0000 0000 0000 0000
00000140: 0000 0000 0000 0000 0000 0000 0000 0000
00000150: 0000 0000 0000 0000 0000 0000 0000 0000
00000160: 0000 0000 0000 0000 0000 0000 0000 0000
00000170: 0000 0000 0000 0000 0000 0000 0000 0000
00000180: 0000 0000 0000 0000 0000 0000 0000 0000
00000190: 0000 0000 0000 0000 0000 0000 0000 0000
000001a0: 0000 0000 0000 0000 0000 0000 0000 0000
000001b0: 0000 0000 0000 0000 0000 0000 0000 0000
000001c0: 0000 0000 0000 0000 0000 0000 0000 0000
000001d0: 0000 0000 0000 0000 0000 0000 0000 0000
000001e0: 0000 0000 0000 0000 0000 0000 0000 0000
000001f0: 0000 0000 0000 0000 0000 0000 0000 0000

value_heads.value_heads.extrinsic.weight f4 [1, 128]
-0.09986366 -0.18048601 0.16884036 -0.19749495 -0.046580292 0.0073311203 0.10258928 -0.060783416
-0.082447186 -0.16851178 -0.0056665307 -0.05504234 -0.19517149 0.02977478 -0.076614894 -0.03992425
0.07482682 -0.046092123 -0.06343536 0.17428172 -0.1901025 -0.15250014 -0.04332103 -0.1098357
0.0075459476 0.12521131 -0.18281904 -0.1412679 -0.19803067 -0.081859596 0.09140983 -0.031136462
0.10841761 -0.020741124 -0.15230948 0.120633736 0.1806275 0.15762955 -0.15388592 0.20754471
0.16179632 -0.13216215 -0.030176565 0.051976927 -0.066741146 -0.084042996 -0.20227776 -0.12601656
0.11576189 -0.09775036 -0.08769919 0.008767629 -0.05807513 -0.018572489 -0.17806248 -0.0074985907
-0.06385964 -0.18231335 0.016876355 0.18955831 0.022160882 -0.18892351 0.20988318 0.20759852
-0.1596249 -0.10246031 0.12460053 0.031043278 0.11955965 0.21439895 0.024857998 0.078207575
-0.055742856 -0.10741691 0.063761756 -0.016292084 -0.003969676 0.2068749 -0.15996058 -0.20655176
-0.1241639 -0.036925808 0.15058693 0.021866743 0.060655884 0.15300313 -0.17516957 0.14567208
-0.05447666 0.12415005 0.06235504 -0.0070891054 -0.06735349 0.16281207 0.031601015 -0.12667368
-0.18099765 -0.072794 -0.15615457 0.12687725 -0.15128918 0.08528062 0.15766919 -0.020814048
0.21316676 -0.09438931 0.06855549 -0.19568425 0.1397772 -0.061838437 0.08311597 0.0033913443
0.06647437 -0.041934486 -0.06407736 0.03782224 0.048517093 0.121691756 0.15397774 0.20540191
0.20849723 -0.20011571 0.07058195 0.107216984 -0.14264596 -0.032978613 -0.1799783 -0.05329453
00000000: 5285 ccbd 53d1 38be 7de4 2c3e 1e3c 4abe
00000010: faca 3ebd e539 f03b 541a d23d 08f8 78bd
00000020: 12da a8bd 5a8e 2cbe 4eae b9bb 1474 61bd
00000030: 09db 47be 3dea f33c 45e8 9cbd 9c87 23bd
00000040: ce3e 993d 18cb 3cbd 66ea 81bd e876 323e
00000050: 3baa 42be ff28 1cbe 6471 31bd 8af1 e0bd
00000060: ff43 f73b 6537 003e ea34 3bbe 88a8 10be
00000070: 8dc8 4abe 01a6 a7bd 1435 bb3d e511 ffbc
00000080: 0d0a de3d 4ae9 a9bc 04f7 1bbe d20e f73d
00000090: 6af6 383e a469 213e 4594 1dbe 9a86 543e
000000a0: efad 253e 8455 07be d834 f7bc c2e5 543d
000000b0: 95af 88bd bc1e acbd e721 4fbe 7c0a 01be
000000c0: 9214 ed3d 5731 c8bd a29b b3bd 1aa6 0f3c
000000d0: 30e0 6dbd 5525 98bc 0356 36be bdb6 f5bb
000000e0: d8c8 82bd 5ab0 3abe 4840 8a3c 931b 423e
000000f0: bd8a b53c 2a75 41be 9eeb 563e b594 543e
00000100: b674 23be b6d6 d1bd 902e ff3d 794e fe3c
00000110: b1db f43d 668b 5b3e 00a3 cb3c 4b2b a03d
00000120: 9f52 64bd 66fd dbbd 8695 823d fa76 85bc
00000130: 0e14 82bb 04d7 533e b5cc 23be 4e82 53be
00000140: a549 febd 843f 17bd 7633 1a3e e221 b33c
00000150: 4e72 783d daac 1c3e a75f 33be 102b 153e
00000160: eb22 5fbd 6242 fe3d 0068 7f3d ba4b e8bb
00000170: a0f0 89bd 35b8 263e 1170 013d bfb6 01be
00000180: 7357 39be 0515 95bd fce6 1fbe 1cec 013e
00000190: 8deb 1abe 9ba7 ae3d 0874 213e 3982 aabc
000001a0: 6348 5a3e 2f4f c1bd d266 8c3d 7461 48be
000001b0: c121 0f3e 4d4a 7dbd b538 aa3d 5141 5e3b
000001c0: b723 883d 7fc3 2bbd fe3a 83bd 7eeb 1a3d
000001d0: dcb9 463d 8739 f93d 57ac 1d3e e154 523e
000001e0: 4c80 553e 22eb 4cbe 458d 903d 9494 db3d
000001f0: c811 12be 9514 07bd 3b4c 38be 5d4b 5abd
