Endless Runner/Assets/training/results/Run 12/cfg.onnx (onnx, 597435 bytes, 8 tensors)

action_model._discrete_distribution.branches.0.bias f4 [3]
0	0x00000000	0.0
1	0x00000000	0.0
2	0x00000000	0.0

action_model._discrete_distribution.branches.0.weight f4 [3, 256]
0	0x379fa3dc	1.903058e-05
1	0xbc39fbae	-0.011351509
2	0x3abf5d8f	0.0014600026
3	0x3af45195	0.0018640036
4	0xbaf0d83b	-0.0018374989
5	0xbab994cb	-0.0014158724
6	0x3a8fb5bf	0.0010964199
7	0x3b2acfad	0.0026063726
8	0xbbe5644b	-0.0070004812
9	0x3b552322	0.0032522161
10	0xbc0771cd	-0.008266878
11	0x3b2d6b83	0.0026461787
12	0x3bd9d36a	0.006647517
13	0xb9fd75db	-0.0004834373
14	0xba0c154a	-0.00053437485
15	0x3ba28800	0.00496006
16	0x3c10a19c	0.008827593
17	0x3b9d68cb	0.004803752
18	0xbba99bbf	-0.005176037
19	0xba7f8662	-0.00097475026
20	0xbc159cdf	-0.009131639
21	0x3c4271ec	0.011867981
22	0xbb286ef4	-0.00257009
23	0x3c16039f	0.009156137
24	0xb8c62847	-9.448878e-05
25	0x39b49cd4	0.0003444912
26	0xbb93cbc3	-0.0045103743
27	0xbc04d8f0	-0.008108363
28	0x3c474ccb	0.012164305
29	0xb991f75c	-0.00027840852
30	0x3bf18da8	0.007371623
31	0xbb4be5e3	-0.0031112365
32	0x3a8948ae	0.0010473931
33	0x3adbf2fa	0.0016780787
34	0xba676562	-0.0008827058
35	0x3b88ff38	0.004180815
36	0x380b6848	3.3237302e-05
37	0xbbe5926a	-0.0070059793
38	0x3a40bbc7	0.00073522
39	0xbb990f57	-0.004671018
40	0x3b884477	0.0041585523
41	0xba943874	-0.0011308328
42	0xbb92727f	-0.0044692154
43	0xbc69c24f	-0.014267518
44	0xbae7d512	-0.0017687401
45	0x3b999bd0	0.0046877638
46	0xbacb6e6f	-0.0015520583
47	0x3c0505d3	0.008119064
48	0xbb427a2b	-0.0029674869
49	0x3b968583	0.0045935526
50	0xbb8c60d4	-0.0042840037
51	0xbc22e918	-0.009943269
52	0x3c2fe277	0.010735146
53	0xbb81a37e	-0.0039562574
54	0xbb7c13d2	-0.0038463962
55	0xbc31d2d3	-0.010853487
56	0xbbf008f5	-0.0073252865
57	0x3b4367ba	0.0029816465
58	0xbb5fdc8a	-0.003415855
59	0x3b2815db	0.0025647792
60	0x3bee849a	0.007278991
61	0xbb30d972	-0.0026985076
62	0xba248636	-0.00062761025
63	0x3c6afa65	0.014341925
64	0xbbb9ac9b	-0.005666328
65	0x39acaa0f	0.000329331
66	0x3c015d66	0.007895803
67	0xba83a8f6	-0.0010044861
68	0xbaa3e524	-0.0012504202
69	0x3be3b3c5	0.0069489204
70	0xbb06df9b	-0.0020580057
71	0x3aa965dc	0.0012924033
72	0x3a3e2767	0.0007253796
73	0xbc5e56cf	-0.0135705015
74	0xbaa7fa3b	-0.0012815663
75	0xbab4986b	-0.0013778334
76	0xbb9df10c	-0.004819995
77	0xbb2a7357	-0.002600869
78	0x3b5b7555	0.0033486683
79	0x3931b643	0.00016947933
80	0xbbf375c3	-0.00742981
81	0xbbdd16df	-0.006747111
82	0x3bcfc68a	0.0063408064
83	0xbbecfc63	-0.0072322353
84	0x3ba4fa6f	0.005034737
85	0xba8efc52	-0.0010908938
86	0x3b8f7550	0.0043779984
87	0x3c374f0f	0.011188283
88	0x3b0af75b	0.0021204564
89	0x3b18100c	0.0023202924
90	0xbb96620e	-0.0045893257
91	0xbb7b45c5	-0.0038341146
92	0x3b93f8ca	0.004515742
93	0xbc20dd1f	-0.009818344
94	0x3c014d45	0.007891958
95	0x3a0042eb	0.0004892784
96	0x3b939bd5	0.0045046606
97	0x3c19e58b	0.009393106
98	0x3c430fc3	0.011905613
99	0xbbad458b	-0.005287831
100	0x3b05d5bf	0.0020421592
101	0xbb623518	-0.003451651
102	0xbc1da09a	-0.00962081
103	0x3c0d5ee7	0.0086285835
104	0x3c737668	0.014859773
105	0x3c21c661	0.009873957
106	0x3bb15b0f	0.0054124664
107	0xbad6cdcd	-0.0016388238
108	0x3b1917ff	0.002336025
109	0x3bb8e4e3	0.00564252
110	0x3b9df403	0.004820348
111	0xba904e51	-0.0011009668
112	0xbc334099	-0.010940694
113	0x3b8fd87f	0.004389822
114	0xbbf2736b	-0.007399013
115	0xbb28f920	-0.0025783256
116	0xbb1ddfb4	-0.0024089636
117	0xbbad7693	-0.005293676
118	0x3c651c85	0.01398385
119	0xbb98190d	-0.004641658
120	0x3bcc082b	0.0062265596
121	0x3b26b4e2	0.0025437404
122	0x3abc4d3d	0.001436628
123	0x3ba2a758	0.0049637966
124	0x39a6720a	0.00031746953
125	0xbb28187e	-0.0025649364
126	0xbc0a17ac	-0.008428495
127	0x3bf3bc4f	0.0074382196
128	0x3c39cd1b	0.011340405
129	0x3c274095	0.010208269
130	0xbb1d5cf9	-0.0024011715
131	0x3b5f1ab2	0.0034043011
132	0x3b459d5b	0.0030153606
133	0x3bef9e57	0.0073125768
134	0xbb5cd2d3	-0.0033694997
135	0xbb462dd3	-0.0030239716
136	0x3c5cb350	0.013470486
137	0xba4c06d9	-0.0007783003
138	0x3bdda3a3	0.006763892
139	0x3b90cd86	0.0044190316
140	0x3c6e2913	0.01453616
141	0xbc193ff7	-0.009353629
142	0xbb690305	-0.0035554778
143	0x3b4b0967	0.0030980946
144	0x3aae2b1c	0.0013287994
145	0x3b9ff6b1	0.004881703
146	0xbbd43008	-0.0064754523
147	0x3940af90	0.00018375949
148	0x3a2f43b1	0.0006685807
149	0xb82efc90	-4.172005e-05
150	0xbb901e4b	-0.0043981425
151	0xbb8f47bb	-0.0043725646
152	0x393d48f3	0.0001805162
153	0xbb99970f	-0.004687197
154	0xb79c706c	-1.8649e-05
155	0xbb973c39	-0.0046153334
156	0xbc28ee9f	-0.010310798
157	0x3ad317b7	0.001610509
158	0xbafcb6f3	-0.0019280597
159	0xbc098127	-0.008392609
160	0xbb31830e	-0.0027086171
161	0xbb8b3dc3	-0.004249306
162	0xba5c49b2	-0.00084033154
163	0x3bad1687	0.0052822265
164	0x3b6270bf	0.0034552065
165	0xbb2b14b0	-0.002610486
166	0xbaceed92	-0.0015787354
167	0xbb2c1ed3	-0.002626349
168	0xbb7c55fb	-0.0038503397
169	0x3ac6c1d9	0.0015163972
170	0xbc16c40f	-0.009202017
171	0x3a94759f	0.0011326558
172	0x3bf0ff10	0.0073546246
173	0x3b54e398	0.003248429
174	0xbc03cc20	-0.008044273
175	0xbbe6e3a0	-0.007046178
176	0x3b4d2087	0.0031299905
177	0xbbb603bf	-0.005554646
178	0xbb4dafb3	-0.0031385242
179	0xbb29c81f	-0.0025906635
180	0x3bd37f82	0.006454409
181	0xbb911415	-0.004427443
182	0x3c33eed3	0.010982233
183	0x3a270ca1	0.0006372426
184	0x3bec5fab	0.007213553
185	0x3c17a011	0.009254471
186	0xbc4e1910	-0.012579218
187	0x3c137f71	0.009002552
188	0xbc1eaa49	-0.009684154
189	0x3a215a93	0.0006155159
190	0x3a2ce17e	0.000659488
191	0xbb1461ae	-0.002264123
192	0x3a4307c7	0.00074398186
193	0xb935fffd	-0.00017356868
194	0xbc0c9cd0	-0.008582309
195	0x3a33b50f	0.0006855288
196	0x3c1fb51a	0.009747768
197	0xbb5f6d67	-0.0034092308
198	0x3b014304	0.0019723782
199	0xbba42580	-0.005009353
200	0x3bfc959f	0.007708266
201	0xbbc44612	-0.0059897983
202	0x3a0cf322	0.0005376806
203	0xbc0221c5	-0.007942622
204	0x3ba79a59	0.005114835
205	0x3c0d99f1	0.0086426595
206	0xbac9d797	-0.0015399334
207	0x3b4c7044	0.0031194845
208	0x3be02588	0.0068404116
209	0xbb0265e5	-0.001989716
210	0xbba1c766	-0.0049371
211	0xbbfa8d9f	-0.007646277
212	0xbbc28e81	-0.005937398
213	0x3c66c59d	0.014085201
214	0xbb1a1733	-0.0023512363
215	0x3b3475eb	0.0027536105
216	0xbc6634f8	-0.014050715
217	0x3bdfebcb	0.0068335286
218	0x3b04d77f	0.0020270047
219	0x3bd652f7	0.006540652
220	0x39beb697	0.00036375664
221	0x3c16b9b0	0.009199545
222	0x3c0a7c2c	0.008452456
223	0xbae61fb2	-0.0017557053
224	0x3b6950bb	0.0035601098
225	0x3b110445	0.002212779
226	0xbbf15bc0	-0.007365674
227	0xbb28d78b	-0.002576324
228	0xbc364a13	-0.011126059
229	0xbaffe805	-0.0019524103
230	0x3a602f7b	0.0008551997
231	0xbc28ba63	-0.010298344
232	0x3b75d76f	0.0037512442
233	0x3bac4132	0.0052567953
234	0xbb4ea7ff	-0.003153324
235	0xbbdff7ca	-0.0068349587
236	0xbb9b7e50	-0.004745282
237	0xbb913f0b	-0.004432564
238	0xbbfc92f5	-0.0077079483
239	0x3c3f625f	0.011681168
240	0x3af773f3	0.001887916
241	0xbbe454dd	-0.0069681243
242	0x3b8b31d1	0.004247882
243	0xbb1ed8cc	-0.0024238108
244	0x3bf0fa48	0.0073540546
245	0xbbc0f576	-0.005888636
246	0xbbaa664b	-0.0052001826
247	0x3a4c9d3a	0.0007805411
248	0xbb154c24	-0.002278098
249	0x3b1de873	0.002409485
250	0x3bf7dfba	0.007564512
251	0x3b69bc88	0.0035665352
252	0xbb3f61e1	-0.0029202627
253	0xbb96fd5f	-0.004607841
254	0x3bf7a648	0.007557664
255	0xbc10f15b	-0.008846606

network_body._body_endoder.seq_layers.0.bias f4 [256]
0	0x00000000	0.0
1	0x00000000	0.0
2	0x00000000	0.0
3	0x00000000	0.0
4	0x00000000	0.0
5	0x00000000	0.0
6	0x00000000	0.0
7	0x00000000	0.0
8	0x00000000	0.0
9	0x00000000	0.0
10	0x00000000	0.0
11	0x00000000	0.0
12	0x00000000	0.0
13	0x00000000	0.0
14	0x00000000	0.0
15	0x00000000	0.0
16	0x00000000	0.0
17	0x00000000	0.0
18	0x00000000	0.0
19	0x00000000	0.0
20	0x00000000	0.0
21	0x00000000	0.0
22	0x00000000	0.0
23	0x00000000	0.0
24	0x00000000	0.0
25	0x00000000	0.0
26	0x00000000	0.0
27	0x00000000	0.0
28	0x00000000	0.0
29	0x00000000	0.0
30	0x00000000	0.0
31	0x00000000	0.0
32	0x00000000	0.0
33	0x00000000	0.0
34	0x00000000	0.0
35	0x00000000	0.0
36	0x00000000	0.0
37	0x00000000	0.0
38	0x00000000	0.0
39	0x00000000	0.0
40	0x00000000	0.0
41	0x00000000	0.0
42	0x00000000	0.0
43	0x00000000	0.0
44	0x00000000	0.0
45	0x00000000	0.0
46	0x00000000	0.0
47	0x00000000	0.0
48	0x00000000	0.0
49	0x00000000	0.0
50	0x00000000	0.0
51	0x00000000	0.0
52	0x00000000	0.0
53	0x00000000	0.0
54	0x00000000	0.0
55	0x00000000	0.0
56	0x00000000	0.0
57	0x00000000	0.0
58	0x00000000	0.0
59	0x00000000	0.0
60	0x00000000	0.0
61	0x00000000	0.0
62	0x00000000	0.0
63	0x00000000	0.0
64	0x00000000	0.0
65	0x00000000	0.0
66	0x00000000	0.0
67	0x00000000	0.0
68	0x00000000	0.0
69	0x00000000	0.0
70	0x00000000	0.0
71	0x00000000	0.0
72	0x00000000	0.0
73	0x00000000	0.0
74	0x00000000	0.0
75	0x00000000	0.0
76	0x00000000	0.0
77	0x00000000	0.0
78	0x00000000	0.0
79	0x00000000	0.0
80	0x00000000	0.0
81	0x00000000	0.0
82	0x00000000	0.0
83	0x00000000	0.0
84	0x00000000	0.0
85	0x00000000	0.0
86	0x00000000	0.0
87	0x00000000	0.0
88	0x00000000	0.0
89	0x00000000	0.0
90	0x00000000	0.0
91	0x00000000	0.0
92	0x00000000	0.0
93	0x00000000	0.0
94	0x00000000	0.0
95	0x00000000	0.0
96	0x00000000	0.0
97	0x00000000	0.0
98	0x00000000	0.0
99	0x00000000	0.0
100	0x00000000	0.0
101	0x00000000	0.0
102	0x00000000	0.0
103	0x00000000	0.0
104	0x00000000	0.0
105	0x00000000	0.0
106	0x00000000	0.0
107	0x00000000	0.0
108	0x00000000	0.0
109	0x00000000	0.0
110	0x00000000	0.0
111	0x00000000	0.0
112	0x00000000	0.0
113	0x00000000	0.0
114	0x00000000	0.0
115	0x00000000	0.0
116	0x00000000	0.0
117	0x00000000	0.0
118	0x00000000	0.0
119	0x00000000	0.0
120	0x00000000	0.0
121	0x00000000	0.0
122	0x00000000	0.0
123	0x00000000	0.0
124	0x00000000	0.0
125	0x00000000	0.0
126	0x00000000	0.0
127	0x00000000	0.0
128	0x00000000	0.0
129	0x00000000	0.0
130	0x00000000	0.0
131	0x00000000	0.0
132	0x00000000	0.0
133	0x00000000	0.0
134	0x00000000	0.0
135	0x00000000	0.0
136	0x00000000	0.0
137	0x00000000	0.0
138	0x00000000	0.0
139	0x00000000	0.0
140	0x00000000	0.0
141	0x00000000	0.0
142	0x00000000	0.0
143	0x00000000	0.0
144	0x00000000	0.0
145	0x00000000	0.0
146	0x00000000	0.0
147	0x00000000	0.0
148	0x00000000	0.0
149	0x00000000	0.0
150	0x00000000	0.0
151	0x00000000	0.0
152	0x00000000	0.0
153	0x00000000	0.0
154	0x00000000	0.0
155	0x00000000	0.0
156	0x00000000	0.0
157	0x00000000	0.0
158	0x00000000	0.0
159	0x00000000	0.0
160	0x00000000	0.0
161	0x00000000	0.0
162	0x00000000	0.0
163	0x00000000	0.0
164	0x00000000	0.0
165	0x00000000	0.0
166	0x00000000	0.0
167	0x00000000	0.0
168	0x00000000	0.0
169	0x00000000	0.0
170	0x00000000	0.0
171	0x00000000	0.0
172	0x00000000	0.0
173	0x00000000	0.0
174	0x00000000	0.0
175	0x00000000	0.0
176	0x00000000	0.0
177	0x00000000	0.0
178	0x00000000	0.0
179	0x00000000	0.0
180	0x00000000	0.0
181	0x00000000	0.0
182	0x00000000	0.0
183	0x00000000	0.0
184	0x00000000	0.0
185	0x00000000	0.0
186	0x00000000	0.0
187	0x00000000	0.0
188	0x00000000	0.0
189	0x00000000	0.0
190	0x00000000	0.0
191	0x00000000	0.0
192	0x00000000	0.0
193	0x00000000	0.0
194	0x00000000	0.0
195	0x00000000	0.0
196	0x00000000	0.0
197	0x00000000	0.0
198	0x00000000	0.0
199	0x00000000	0.0
200	0x00000000	0.0
201	0x00000000	0.0
202	0x00000000	0.0
203	0x00000000	0.0
204	0x00000000	0.0
205	0x00000000	0.0
206	0x00000000	0.0
207	0x00000000	0.0
208	0x00000000	0.0
209	0x00000000	0.0
210	0x00000000	0.0
211	0x00000000	0.0
212	0x00000000	0.0
213	0x00000000	0.0
214	0x00000000	0.0
215	0x00000000	0.0
216	0x00000000	0.0
217	0x00000000	0.0
218	0x00000000	0.0
219	0x00000000	0.0
220	0x00000000	0.0
221	0x00000000	0.0
222	0x00000000	0.0
223	0x00000000	0.0
224	0x00000000	0.0
225	0x00000000	0.0
226	0x00000000	0.0
227	0x00000000	0.0
228	0x00000000	0.0
229	0x00000000	0.0
230	0x00000000	0.0
231	0x00000000	0.0
232	0x00000000	0.0
233	0x00000000	0.0
234	0x00000000	0.0
235	0x00000000	0.0
236	0x00000000	0.0
237	0x00000000	0.0
238	0x00000000	0.0
239	0x00000000	0.0
240	0x00000000	0.0
241	0x00000000	0.0
242	0x00000000	0.0
243	0x00000000	0.0
244	0x00000000	0.0
245	0x00000000	0.0
246	0x00000000	0.0
247	0x00000000	0.0
248	0x00000000	0.0
249	0x00000000	0.0
250	0x00000000	0.0
251	0x00000000	0.0
252	0x00000000	0.0
253	0x00000000	0.0
254	0x00000000	0.0
255	0x00000000	0.0

network_body._body_endoder.seq_layers.0.weight f4 [256, 63]
0	0xbdaa4e83	-0.08315756
1	0xbd150a91	-0.03638703
2	0xbdb4675a	-0.08808775
3	0xbe5ebc25	-0.21751459
4	0x3d175952	0.036950417
5	0x3e0bba54	0.13645297
6	0xbe149109	-0.14508452
7	0xbe328ed9	-0.17437305
8	0x3db0e543	0.08637478
9	0x3c24b407	0.0100526875
10	0x3e8a6295	0.27028337
11	0x3d79467d	0.06085824
12	0xbe0a5f1a	-0.13512841
13	0x3cdbc1b1	0.026825758
14	0xbe3ffd4f	-0.18748973
15	0x3e1f6035	0.15564044
16	0x3d9d338e	0.07675849
17	0xbe2ae542	-0.16689017
18	0x3e45cd54	0.19316608
19	0x3ddb3ef1	0.107053645
20	0xbdf560f8	-0.11981386
21	0x3e6ff0df	0.23431729
22	0xbe484808	-0.19558728
23	0x3d75c9d3	0.060006928
24	0xbdd1928a	-0.10233028
25	0xbc9d9c81	-0.019239666
26	0xbc096f95	-0.00838842
27	0x3e407b24	0.18796974
28	0xbd9c22aa	-0.07623799
29	0x3d973a4a	0.07384165
30	0x3e2c3057	0.16815315
31	0x3e05684b	0.13028066
32	0x3c3e8f89	0.011630901
33	0xbccc7030	-0.024955839
34	0x3c373acc	0.011183452
35	0x3def891f	0.11696076
36	0x3c5beaea	0.013422707
37	0xbddaa96b	-0.10676845
38	0x3d1e71b9	0.038682673
39	0x3e81c64b	0.25346598
40	0x3cb5a00a	0.02217104
41	0x3dbbda55	0.09172503
42	0xbd340dc7	-0.04395845
43	0xbd8b30a7	-0.06796389
44	0xbb2a3d54	-0.0025976496
45	0xbeb0ae4a	-0.34507972
46	0xbbd9a9eb	-0.0066425703
47	0xbdc1e1d5	-0.09466902
48	0x3e9484eb	0.29007658
49	0xbd0c2c19	-0.034221742
50	0x3da6a503	0.08136942
51	0x3dd0bf36	0.101927206
52	0xbd6ec0ac	-0.058289215
53	0xbd7bf404	-0.06151201
54	0xb9a56dcf	-0.00031553066
55	0x3d174a73	0.036936235
56	0xbd891fcb	-0.06695517
57	0xbdaa1b80	-0.083060265
58	0x3d848249	0.064701624
59	0x3da34f5b	0.0797412
60	0x3ddbc452	0.107308045
61	0x3df50140	0.11963129
62	0x3d968caf	0.07351052
63	0x3e0d1822	0.13778737
64	0xbd907c3c	-0.07054946
65	0x3d993aae	0.074818954
66	0xbe7a925f	-0.24469899
67	0xbdb9d7a1	-0.09074331
68	0x3e4953e0	0.19660902
69	0x3c6d14c0	0.014470279
70	0xbd21660b	-0.039403956
71	0xbca11abf	-0.019666074
72	0x3d5197cc	0.051170155
73	0xbcfffeea	-0.031249482
74	0x3dfc6709	0.1232434
75	0xbc8c8937	-0.017155273
76	0xbdbba4de	-0.09162305
77	0xbe128724	-0.14309365
78	0xbda7c2b3	-0.08191433
79	0x3de7b733	0.11314239
80	0x3e149d22	0.14513066
81	0x3cdee33e	0.027207967
82	0x3d932b90	0.07186043
83	0x3caf8de6	0.021429967
84	0x3dc8a2b9	0.09796662
85	0x3d9cae85	0.076504745
86	0xbc295289	-0.010334619
87	0xbe092721	-0.13393833
88	0x3e2e53df	0.17024182
89	0xbe052462	-0.1300216
90	0x3dd4f532	0.1039833
91	0x3e8e8482	0.2783547
92	0x3daf8c08	0.08571631
93	0xbc4f2b14	-0.012644548
94	0xbc8ac321	-0.016938748
95	0x3df4e743	0.11958172
96	0x3d389af3	0.045069646
97	0xbe3f5f14	-0.18688613
98	0x3e431a46	0.19052991
99	0xbda92efa	-0.08260913
100	0xbe2fa9b9	-0.17154588
101	0x3d34b83e	0.04412102
102	0xbe00aada	-0.12565175
103	0xbd52c386	-0.051455997
104	0xbe11dced	-0.14244433
105	0x3de755d8	0.1129567
106	0xbe2ecd3c	-0.17070478
107	0xbd50b840	-0.050956964
108	0x3c044521	0.008073122
109	0x3daf8c93	0.08571734
110	0xbe3f3859	-0.18673839
111	0x3ccbf22a	0.024895746
112	0x3b9db1eb	0.0048124692
113	0xbe3aa941	-0.18228628
114	0xbd6fcc4c	-0.058544442
115	0x3e45aee0	0.19304991
116	0x3e0d31a8	0.13788474
117	0x3d5a2717	0.053259935
118	0x3e8a0b3d	0.269617
119	0x3dd2e6cf	0.102979295
120	0x3d9cd0f1	0.0765704
121	0xbe4683fd	-0.19386287
122	0xbd860f78	-0.06545919
123	0xbda6604f	-0.08123838
124	0x3d88970e	0.066694364
125	0x3cce955f	0.02521771
126	0xbe18ce56	-0.14922461
127	0x3d6ccc7f	0.05781221
128	0x3b96cf22	0.004602329
129	0x3d0877c1	0.03331733
130	0xbd526615	-0.051366884
131	0xbd81b9b2	-0.06334247
132	0x3e91dcf2	0.2848888
133	0xbdce46b6	-0.10072081
134	0x3d2ae82d	0.041725326
135	0xbbd9a1bf	-0.006641596
136	0x3e44df89	0.19225897
137	0xbca4fefd	-0.02014112
138	0xbd1a8e17	-0.037733164
139	0xbdabe60b	-0.083934866
140	0xbd69ec0e	-0.057109885
141	0xbdb259d4	-0.087085396
142	0xbe8ba7a4	-0.27276337
143	0xbcba1037	-0.02271281
144	0x3d9631b8	0.07333702
145	0x3d51bc54	0.051204994
146	0xbe53aa7a	-0.206705
147	0xbe2e0060	-0.1699233
148	0xbe9d6ba2	-0.3074618
149	0xbc4e569c	-0.0125938915
150	0xbdb2943a	-0.08719678
151	0xbde9d230	-0.11417043
152	0xba5d43a2	-0.0008440559
153	0x3e0cd029	0.13751282
154	0x3c962e8f	0.018332748
155	0xbd971ee9	-0.073789425
156	0xbc5dc1e7	-0.013534999
157	0xbbbdd32a	-0.005792995
158	0x3d2d457e	0.0423026
159	0xbbcc3d5d	-0.006232901
160	0xbe39f2e6	-0.18159065
161	0xbd4f23d4	-0.050571278
162	0xbe713736	-0.23556218
163	0xbd94681e	-0.07246421
164	0x3c4c7348	0.012478657
165	0xbce4d9e1	-0.027935924
166	0xbe4c52e4	-0.19953495
167	0xbd9c090b	-0.07618912
168	0xbe1147f2	-0.14187601
169	0xbcd6d7f0	-0.026226014
170	0x3bb76acb	0.0055974475
171	0xbe80b369	-0.2513688
172	0xbdf0caa2	-0.11757399
173	0x3de49a16	0.11162202
174	0xbe0b2f00	-0.13592148
175	0xbdbdf682	-0.09275533
176	0x3dea06e0	0.114270926
177	0xbd9ce58c	-0.0766097
178	0xbe9540f1	-0.2915111
179	0x3decdeb1	0.115659125
180	0xbd1a3abb	-0.037653666
181	0x3dc500fb	0.09619328
182	0x3e6a82d4	0.2290147
183	0xbcf88bc2	-0.03034008
184	0x3de768af	0.11299264
185	0xbe1dfa1f	-0.15427445
186	0xbdf1eb08	-0.11812407
187	0xbe32d0b3	-0.17462425
188	0xbe21233a	-0.15736094
189	0xbb29821c	-0.0025864905
190	0x3e1df30e	0.1542475
191	0xbd877ca5	-0.06615571
192	0x3d5b436d	0.0535311
193	0x3da3eb8b	0.08003911
194	0xbd0c1bc1	-0.034206156
195	0x3e10d680	0.14144325
196	0x3e324779	0.17410077
197	0x3d95a564	0.073069364
198	0x3e702773	0.23452549
199	0xbe1a11ec	-0.15045899
200	0x3d85ff04	0.06542781
201	0xbe8b45d6	-0.27201718
202	0x3d830378	0.06397146
203	0x3c636135	0.013878156
204	0x3e359026	0.1773077
205	0xbeaf3d9b	-0.3422669
206	0x3de4e8bd	0.11177204
207	0x3d2a7bea	0.04162208
208	0x3d02f7db	0.031974655
209	0x3d467c22	0.048458226
210	0xbde531aa	-0.11191113
211	0x3e2114cd	0.15730591
212	0xbd2fe7b8	-0.042945594
213	0xbe0385a2	-0.12843946
214	0xbd87a213	-0.0662271
215	0x3e84b7c6	0.25921458
216	0xbe1bbd38	-0.152089
217	0xbd9910df	-0.07473921
218	0xbdb34651	-0.08753646
219	0x3ea9c8f6	0.33161134
220	0xbe0564fa	-0.13026801
221	0xbc5e6c33	-0.013575601
222	0xbe094e2d	-0.13408728
223	0xbe681f46	-0.2266818
224	0x3de495d3	0.11161389
225	0xbe8d9d9c	-0.2765931
226	0xbdbcf469	-0.09226305
227	0x3c850ef6	0.016242485
228	0x3cdf7531	0.02727756
229	0xbe0062d2	-0.12537697
230	0xbe0d32fb	-0.13788979
231	0xbd32feb6	-0.043699943
232	0xbe27737c	-0.16352648
233	0x3e65c9a8	0.22440207
234	0xbe24a6b9	-0.16079225
235	0xbe4a955a	-0.19783536
236	0x3d109d06	0.035306
237	0x3d556ec5	0.05210759
238	0x3ccfd751	0.025371226
239	0xbc83916c	-0.016060553
240	0x3e0d970f	0.13827156
241	0x3bf23e92	0.007392713
242	0x3c11c448	0.008896895
243	0x3d0c2ad4	0.03422053
244	0xbc71ef37	-0.014766506
245	0xbdd0bff9	-0.10192866
246	0xbdb17ff5	-0.08666984
247	0x3df47e0a	0.119381025
248	0xbcf178ce	-0.02947655
249	0x3d7bd4d3	0.061482262
250	0xb9cb3e67	-0.0003876567
251	0xbe0f44de	-0.13991114
252	0xbd90044f	-0.07032072
253	0xbd14152a	-0.036152996
254	0x3e0a576b	0.1350991
255	0x3dfc74ed	0.12326989

network_body._body_endoder.seq_layers.2.bias f4 [256]
0	0x00000000	0.0
1	0x00000000	0.0
2	0x00000000	0.0
3	0x00000000	0.0
4	0x00000000	0.0
5	0x00000000	0.0
6	0x00000000	0.0
7	0x00000000	0.0
8	0x00000000	0.0
9	0x00000000	0.0
10	0x00000000	0.0
11	0x00000000	0.0
12	0x00000000	0.0
13	0x00000000	0.0
14	0x00000000	0.0
15	0x00000000	0.0
16	0x00000000	0.0
17	0x00000000	0.0
18	0x00000000	0.0
19	0x00000000	0.0
20	0x00000000	0.0
21	0x00000000	0.0
22	0x00000000	0.0
23	0x00000000	0.0
24	0x00000000	0.0
25	0x00000000	0.0
26	0x00000000	0.0
27	0x00000000	0.0
28	0x00000000	0.0
29	0x00000000	0.0
30	0x00000000	0.0
31	0x00000000	0.0
32	0x00000000	0.0
33	0x00000000	0.0
34	0x00000000	0.0
35	0x00000000	0.0
36	0x00000000	0.0
37	0x00000000	0.0
38	0x00000000	0.0
39	0x00000000	0.0
40	0x00000000	0.0
41	0x00000000	0.0
42	0x00000000	0.0
43	0x00000000	0.0
44	0x00000000	0.0
45	0x00000000	0.0
46	0x00000000	0.0
47	0x00000000	0.0
48	0x00000000	0.0
49	0x00000000	0.0
50	0x00000000	0.0
51	0x00000000	0.0
52	0x00000000	0.0
53	0x00000000	0.0
54	0x00000000	0.0
55	0x00000000	0.0
56	0x00000000	0.0
57	0x00000000	0.0
58	0x00000000	0.0
59	0x00000000	0.0
60	0x00000000	0.0
61	0x00000000	0.0
62	0x00000000	0.0
63	0x00000000	0.0
64	0x00000000	0.0
65	0x00000000	0.0
66	0x00000000	0.0
67	0x00000000	0.0
68	0x00000000	0.0
69	0x00000000	0.0
70	0x00000000	0.0
71	0x00000000	0.0
72	0x00000000	0.0
73	0x00000000	0.0
74	0x00000000	0.0
75	0x00000000	0.0
76	0x00000000	0.0
77	0x00000000	0.0
78	0x00000000	0.0
79	0x00000000	0.0
80	0x00000000	0.0
81	0x00000000	0.0
82	0x00000000	0.0
83	0x00000000	0.0
84	0x00000000	0.0
85	0x00000000	0.0
86	0x00000000	0.0
87	0x00000000	0.0
88	0x00000000	0.0
89	0x00000000	0.0
90	0x00000000	0.0
91	0x00000000	0.0
92	0x00000000	0.0
93	0x00000000	0.0
94	0x00000000	0.0
95	0x00000000	0.0
96	0x00000000	0.0
97	0x00000000	0.0
98	0x00000000	0.0
99	0x00000000	0.0
100	0x00000000	0.0
101	0x00000000	0.0
102	0x00000000	0.0
103	0x00000000	0.0
104	0x00000000	0.0
105	0x00000000	0.0
106	0x00000000	0.0
107	0x00000000	0.0
108	0x00000000	0.0
109	0x00000000	0.0
110	0x00000000	0.0
111	0x00000000	0.0
112	0x00000000	0.0
113	0x00000000	0.0
114	0x00000000	0.0
115	0x00000000	0.0
116	0x00000000	0.0
117	0x00000000	0.0
118	0x00000000	0.0
119	0x00000000	0.0
120	0x00000000	0.0
121	0x00000000	0.0
122	0x00000000	0.0
123	0x00000000	0.0
124	0x00000000	0.0
125	0x00000000	0.0
126	0x00000000	0.0
127	0x00000000	0.0
128	0x00000000	0.0
129	0x00000000	0.0
130	0x00000000	0.0
131	0x00000000	0.0
132	0x00000000	0.0
133	0x00000000	0.0
134	0x00000000	0.0
135	0x00000000	0.0
136	0x00000000	0.0
137	0x00000000	0.0
138	0x00000000	0.0
139	0x00000000	0.0
140	0x00000000	0.0
141	0x00000000	0.0
142	0x00000000	0.0
143	0x00000000	0.0
144	0x00000000	0.0
145	0x00000000	0.0
146	0x00000000	0.0
147	0x00000000	0.0
148	0x00000000	0.0
149	0x00000000	0.0
150	0x00000000	0.0
151	0x00000000	0.0
152	0x00000000	0.0
153	0x00000000	0.0
154	0x00000000	0.0
155	0x00000000	0.0
156	0x00000000	0.0
157	0x00000000	0.0
158	0x00000000	0.0
159	0x00000000	0.0
160	0x00000000	0.0
161	0x00000000	0.0
162	0x00000000	0.0
163	0x00000000	0.0
164	0x00000000	0.0
165	0x00000000	0.0
166	0x00000000	0.0
167	0x00000000	0.0
168	0x00000000	0.0
169	0x00000000	0.0
170	0x00000000	0.0
171	0x00000000	0.0
172	0x00000000	0.0
173	0x00000000	0.0
174	0x00000000	0.0
175	0x00000000	0.0
176	0x00000000	0.0
177	0x00000000	0.0
178	0x00000000	0.0
179	0x00000000	0.0
180	0x00000000	0.0
181	0x00000000	0.0
182	0x00000000	0.0
183	0x00000000	0.0
184	0x00000000	0.0
185	0x00000000	0.0
186	0x00000000	0.0
187	0x00000000	0.0
188	0x00000000	0.0
189	0x00000000	0.0
190	0x00000000	0.0
191	0x00000000	0.0
192	0x00000000	0.0
193	0x00000000	0.0
194	0x00000000	0.0
195	0x00000000	0.0
196	0x00000000	0.0
197	0x00000000	0.0
198	0x00000000	0.0
199	0x00000000	0.0
200	0x00000000	0.0
201	0x00000000	0.0
202	0x00000000	0.0
203	0x00000000	0.0
204	0x00000000	0.0
205	0x00000000	0.0
206	0x00000000	0.0
207	0x00000000	0.0
208	0x00000000	0.0
209	0x00000000	0.0
210	0x00000000	0.0
211	0x00000000	0.0
212	0x00000000	0.0
213	0x00000000	0.0
214	0x00000000	0.0
215	0x00000000	0.0
216	0x00000000	0.0
217	0x00000000	0.0
218	0x00000000	0.0
219	0x00000000	0.0
220	0x00000000	0.0
221	0x00000000	0.0
222	0x00000000	0.0
223	0x00000000	0.0
224	0x00000000	0.0
225	0x00000000	0.0
226	0x00000000	0.0
227	0x00000000	0.0
228	0x00000000	0.0
229	0x00000000	0.0
230	0x00000000	0.0
231	0x00000000	0.0
232	0x00000000	0.0
233	0x00000000	0.0
234	0x00000000	0.0
235	0x00000000	0.0
236	0x00000000	0.0
237	0x00000000	0.0
238	0x00000000	0.0
239	0x00000000	0.0
240	0x00000000	0.0
241	0x00000000	0.0
242	0x00000000	0.0
243	0x00000000	0.0
244	0x00000000	0.0
245	0x00000000	0.0
246	0x00000000	0.0
247	0x00000000	0.0
248	0x00000000	0.0
249	0x00000000	0.0
250	0x00000000	0.0
251	0x00000000	0.0
252	0x00000000	0.0
253	0x00000000	0.0
254	0x00000000	0.0
255	0x00000000	0.0

network_body._body_endoder.seq_layers.2.weight f4 [256, 256]
0	0x3d835584	0.06412795
1	0xbcf612fc	-0.03003835
2	0x3da405cd	0.08008919
3	0x3c95f16d	0.018303597
4	0x3c92135c	0.017831497
5	0xbd6569da	-0.05600915
6	0xbb181aed	-0.0023209408
7	0x3d914fa4	0.07095268
8	0xbcbda621	-0.023150505
9	0x3d6f3b41	0.05840612
10	0x3ceadf47	0.02867092
11	0x3da438b4	0.08018628
12	0xbd2894a9	-0.0411574
13	0x3e177202	0.14789584
14	0xbd73c40d	-0.05951314
15	0xbc08575b	-0.008321608
16	0xbc5e3746	-0.013562983
17	0x3c195e67	0.009360886
18	0xbd9d4478	-0.07679075
19	0x3c649b5b	0.013953055
20	0x3d098aaf	0.033579525
21	0x3d989582	0.07450391
22	0xbe4cb069	-0.1998917
23	0x3c8d55cc	0.017252825
24	0xbd8370bf	-0.06417989
25	0x3d04a777	0.03238627
26	0xbd3f7cd1	-0.046749894
27	0x3acb0a75	0.0015490787
28	0x3bcdd976	0.006282027
29	0xbc16d0d7	-0.009205065
30	0xbdad1866	-0.08451919
31	0x3c212760	0.009836048
32	0xbcd400ad	-0.025879228
33	0x3cb50ee1	0.022101821
34	0xbd474c20	-0.048656583
35	0xbd4cea97	-0.05002841
36	0xbe151de4	-0.14562184
37	0x3b653695	0.003497516
38	0xbd0663b9	-0.032809947
39	0xba3151cc	-0.0006764203
40	0x3b88bd69	0.00417297
41	0x3ca3d600	0.019999504
42	0x3c5c2428	0.013436355
43	0xbe182bee	-0.14860508
44	0x3d1e26f7	0.03861138
45	0xbd92c728	-0.07166892
46	0x3d92acd3	0.0716187
47	0xb992693a	-0.0002792569
48	0xbdb29be2	-0.087211385
49	0xbe389570	-0.18025756
50	0x3b7ddbb4	0.003873569
51	0xbd80fa9e	-0.062978014
52	0xbdb44115	-0.08801476
53	0xbcfa348c	-0.030542634
54	0x3d63414e	0.0554822
55	0xbd30b564	-0.043141738
56	0x3d7fb129	0.062424812
57	0x3caf9cb9	0.021437036
58	0x3cd02977	0.025410397
59	0xbcf0cc50	-0.029394299
60	0x3dac76a0	0.084210634
61	0xbd4d22a7	-0.050081875
62	0x3d0e5e49	0.034757886
63	0x3c604a70	0.013689622
64	0xbda1d43e	-0.0790181
65	0xbe1aebae	-0.15128967
66	0x3dc5d1bb	0.096591435
67	0x3d929b4e	0.07158528
68	0xbd7bf1f1	-0.06151003
69	0xbd7f168b	-0.062277358
70	0xbdf61cc2	-0.12017204
71	0xbcc83596	-0.024439614
72	0x3d343bcb	0.044002336
73	0xbba6b65d	-0.0050876574
74	0xb9b0b4b6	-0.00033703976
75	0x3dbdf802	0.09275819
76	0x3d7fcf20	0.06245339
77	0x3c2b16f6	0.010442486
78	0xbdc76bdf	-0.09737372
79	0xbd442847	-0.047889974
80	0xbcc57a93	-0.0241063
81	0x3e0319ac	0.12802762
82	0xbc516954	-0.01278146
83	0x3be70d1d	0.007051124
84	0x3e229dc7	0.158805
85	0x3d800319	0.06250591
86	0xbc8f255f	-0.017473875
87	0xba5ebb0e	-0.0008496501
88	0x3cd6d78a	0.026225824
89	0x3cdd9d3a	0.02705251
90	0x3d61e96e	0.055154257
91	0x3d65982c	0.056053326
92	0x3c02f7b4	0.007993627
93	0x3d561ef0	0.052275598
94	0xbcb471d7	-0.02202694
95	0x3b86e81a	0.004117024
96	0x3c1b915f	0.009495108
97	0xbd28a05e	-0.041168563
98	0xbd5ae07c	-0.05343674
99	0xbe2fc50b	-0.1716501
100	0xbdb2ce23	-0.08730724
101	0x3cb07b1c	0.021543078
102	0x3d4992b4	0.049212173
103	0x3d30430c	0.04303269
104	0xbd061548	-0.03273514
105	0xbd83a458	-0.064278305
106	0xbc50ba9a	-0.012739802
107	0xbd550f55	-0.052016575
108	0xbd7a969d	-0.061178792
109	0x3daa0ead	0.083035804
110	0x3c979aa6	0.01850636
111	0xbd887bb5	-0.0666422
112	0x3db3566c	0.08756718
113	0xbd101c20	-0.035183072
114	0xbce62c0c	-0.028097175
115	0xbd51af6c	-0.051192686
116	0x3d6b4a54	0.05744393
117	0xbc636f01	-0.013881446
118	0x3df9b8fc	0.12193486
119	0x3ce89353	0.028390562
120	0x3d936aaa	0.07198079
121	0x3c344f1f	0.011005192
122	0x3ac8233b	0.0015269289
123	0xbdaa2127	-0.083071046
124	0xbc814e2f	-0.015784351
125	0xbd22bc3c	-0.039730296
126	0xbd79fbff	-0.061031338
127	0x3d059bf4	0.03261943
128	0xbd9f8f7d	-0.0779104
129	0x3df2f001	0.11862183
130	0xbbaecbbe	-0.0053343466
131	0x3cf7f854	0.03026978
132	0xbda7c6aa	-0.08192189
133	0x3d26659b	0.040624242
134	0xbd98d6ea	-0.074628666
135	0xbcb2bd99	-0.021818923
136	0x3d99bc0d	0.07506571
137	0x3cf52c55	0.029928366
138	0x3e0fc93e	0.14041612
139	0xbbc7e136	-0.0060998453
140	0x3e2a77dc	0.16647285
141	0x3d95b5b5	0.073100485
142	0xbd878aad	-0.06618247
143	0xbd4a770a	-0.04942993
144	0xbdd9729d	-0.10617564
145	0xbc1ee9ab	-0.0096992655
146	0x3e063220	0.13105059
147	0xbd211c2a	-0.0393335
148	0x3dccbcaf	0.09996926
149	0xbdba5f64	-0.091002256
150	0x3d8f97c4	0.07011369
151	0xbd6adbbf	-0.057338472
152	0xbd95cb6d	-0.07314191
153	0xbd8ffe85	-0.070309676
154	0x3dac049a	0.08399315
155	0x3ce82363	0.028337186
156	0x3b9f7e38	0.0048673414
157	0xbb43799d	-0.0029827126
158	0xbd4457f1	-0.04793543
159	0x3db4976d	0.08817945
160	0xbe01c5b9	-0.12673081
161	0x3dc5f4ba	0.096658185
162	0x3b8e1051	0.004335441
163	0x3c3f82ae	0.011688871
164	0xbd8cf4ec	-0.06882653
165	0xbdae6cdf	-0.08516859
166	0x3d082542	0.033238657
167	0xbd25004c	-0.040283486
168	0x3db7c0de	0.08972333
169	0x3943850e	0.00018646216
170	0x3dc5ff08	0.09667784
171	0x3c0aecb7	0.008479289
172	0xbd424a92	-0.047434397
173	0xbe1bb2cf	-0.15204929
174	0x3d46da74	0.048548177
175	0xbc012c47	-0.007884092
176	0xbd545cbb	-0.051846247
177	0xbdf3dbaa	-0.11907132
178	0xbe4261b0	-0.18982577
179	0x3c074464	0.008256052
180	0xbc89c6e8	-0.016818479
181	0x3e0003b5	0.12501414
182	0x3d64e6d8	0.055884212
183	0xbcfe072c	-0.03100928
184	0xbcae4976	-0.021275263
185	0x3d9cc559	0.076548286
186	0x3d0df8d7	0.03466114
187	0xbdc6b5e7	-0.09702664
188	0x3dc9a671	0.09846199
189	0xbcadfd36	-0.021238904
190	0xbc38f46a	-0.011288742
191	0xbd61b690	-0.055105746
192	0xbd20c55d	-0.03925072
193	0xbd873841	-0.066025265
194	0xbcf7cdea	-0.030249555
195	0xbcf09e1c	-0.029372267
196	0x3df4cb2e	0.11952816
197	0x3c7775a9	0.015103736
198	0x3d6822cf	0.05667382
199	0x3d868f4f	0.06570303
200	0x3cf85eab	0.030318579
201	0x3d26f9df	0.04076564
202	0x3e4e75a2	0.20162061
203	0x3d87732c	0.06613764
204	0x3d8f0a29	0.0698436
205	0xbd8a2e07	-0.0674706
206	0x3dc5a4ac	0.09650549
207	0xbdd1c8a0	-0.10243344
208	0x3c8817db	0.016612938
209	0xbd2f11c3	-0.04274155
210	0x3cf6e9b8	0.030140743
211	0x3d746dab	0.0596749
212	0x3d23ed66	0.040021323
213	0xbd8444da	-0.06458445
214	0x3d3b51ad	0.04573219
215	0xbd6bfd44	-0.05761458
216	0x3c09688c	0.008386742
217	0x3d76d45a	0.060261108
218	0x3cb799d4	0.022412218
219	0xbd29899a	-0.041390993
220	0x3db9c971	0.09071625
221	0x3da07c0e	0.078361616
222	0xbc8c64cb	-0.017137906
223	0xbd8562e7	-0.06513005
224	0x3c8b07c4	0.016971476
225	0xbd90db8d	-0.07073126
226	0xbdea64b7	-0.11444991
227	0x3d24243e	0.040073626
228	0xbcb5e812	-0.022205386
229	0x3d7b7097	0.06138667
230	0xbdb09af3	-0.08623304
231	0x3d3e908f	0.04652458
232	0x3daa9f19	0.08331127
233	0x3d4270da	0.047470905
234	0xbb22e19e	-0.0024853717
235	0xbd729efb	-0.059233647
236	0xbd626692	-0.0552736
237	0xbda6c6f3	-0.08143415
238	0xbd8e7fd8	-0.06957978
239	0xbd595084	-0.0530553
240	0x3d5cb1bd	0.053880442
241	0xbd007920	-0.031365514
242	0xbd1e2316	-0.03860768
243	0x3df2b7ee	0.11851488
244	0xbd7295d3	-0.059224915
245	0xbd44e2e7	-0.048067953
246	0xbd69d6bf	-0.057089563
247	0xbd3f14c1	-0.04665065
248	0x3d149efb	0.036284428
249	0x3d33b634	0.043874934
250	0x3d92eb57	0.07173794
251	0x3d23612c	0.039887592
252	0xbd436130	-0.047700107
253	0xbce38f20	-0.027778208
254	0x3cd56a9d	0.026051814
255	0xbb9b0af2	-0.0047315294

network_body._body_endoder.seq_layers.4.bias f4 [256]
0	0x00000000	0.0
1	0x00000000	0.0
2	0x00000000	0.0
3	0x00000000	0.0
4	0x00000000	0.0
5	0x00000000	0.0
6	0x00000000	0.0
7	0x00000000	0.0
8	0x00000000	0.0
9	0x00000000	0.0
10	0x00000000	0.0
11	0x00000000	0.0
12	0x00000000	0.0
13	0x00000000	0.0
14	0x00000000	0.0
15	0x00000000	0.0
16	0x00000000	0.0
17	0x00000000	0.0
18	0x00000000	0.0
19	0x00000000	0.0
20	0x00000000	0.0
21	0x00000000	0.0
22	0x00000000	0.0
23	0x00000000	0.0
24	0x00000000	0.0
25	0x00000000	0.0
26	0x00000000	0.0
27	0x00000000	0.0
28	0x00000000	0.0
29	0x00000000	0.0
30	0x00000000	0.0
31	0x00000000	0.0
32	0x00000000	0.0
33	0x00000000	0.0
34	0x00000000	0.0
35	0x00000000	0.0
36	0x00000000	0.0
37	0x00000000	0.0
38	0x00000000	0.0
39	0x00000000	0.0
40	0x00000000	0.0
41	0x00000000	0.0
42	0x00000000	0.0
43	0x00000000	0.0
44	0x00000000	0.0
45	0x00000000	0.0
46	0x00000000	0.0
47	0x00000000	0.0
48	0x00000000	0.0
49	0x00000000	0.0
50	0x00000000	0.0
51	0x00000000	0.0
52	0x00000000	0.0
53	0x00000000	0.0
54	0x00000000	0.0
55	0x00000000	0.0
56	0x00000000	0.0
57	0x00000000	0.0
58	0x00000000	0.0
59	0x00000000	0.0
60	0x00000000	0.0
61	0x00000000	0.0
62	0x00000000	0.0
63	0x00000000	0.0
64	0x00000000	0.0
65	0x00000000	0.0
66	0x00000000	0.0
67	0x00000000	0.0
68	0x00000000	0.0
69	0x00000000	0.0
70	0x00000000	0.0
71	0x00000000	0.0
72	0x00000000	0.0
73	0x00000000	0.0
74	0x00000000	0.0
75	0x00000000	0.0
76	0x00000000	0.0
77	0x00000000	0.0
78	0x00000000	0.0
79	0x00000000	0.0
80	0x00000000	0.0
81	0x00000000	0.0
82	0x00000000	0.0
83	0x00000000	0.0
84	0x00000000	0.0
85	0x00000000	0.0
86	0x00000000	0.0
87	0x00000000	0.0
88	0x00000000	0.0
89	0x00000000	0.0
90	0x00000000	0.0
91	0x00000000	0.0
92	0x00000000	0.0
93	0x00000000	0.0
94	0x00000000	0.0
95	0x00000000	0.0
96	0x00000000	0.0
97	0x00000000	0.0
98	0x00000000	0.0
99	0x00000000	0.0
100	0x00000000	0.0
101	0x00000000	0.0
102	0x00000000	0.0
103	0x00000000	0.0
104	0x00000000	0.0
105	0x00000000	0.0
106	0x00000000	0.0
107	0x00000000	0.0
108	0x00000000	0.0
109	0x00000000	0.0
110	0x00000000	0.0
111	0x00000000	0.0
112	0x00000000	0.0
113	0x00000000	0.0
114	0x00000000	0.0
115	0x00000000	0.0
116	0x00000000	0.0
117	0x00000000	0.0
118	0x00000000	0.0
119	0x00000000	0.0
120	0x00000000	0.0
121	0x00000000	0.0
122	0x00000000	0.0
123	0x00000000	0.0
124	0x00000000	0.0
125	0x00000000	0.0
126	0x00000000	0.0
127	0x00000000	0.0
128	0x00000000	0.0
129	0x00000000	0.0
130	0x00000000	0.0
131	0x00000000	0.0
132	0x00000000	0.0
133	0x00000000	0.0
134	0x00000000	0.0
135	0x00000000	0.0
136	0x00000000	0.0
137	0x00000000	0.0
138	0x00000000	0.0
139	0x00000000	0.0
140	0x00000000	0.0
141	0x00000000	0.0
142	0x00000000	0.0
143	0x00000000	0.0
144	0x00000000	0.0
145	0x00000000	0.0
146	0x00000000	0.0
147	0x00000000	0.0
148	0x00000000	0.0
149	0x00000000	0.0
150	0x00000000	0.0
151	0x00000000	0.0
152	0x00000000	0.0
153	0x00000000	0.0
154	0x00000000	0.0
155	0x00000000	0.0
156	0x00000000	0.0
157	0x00000000	0.0
158	0x00000000	0.0
159	0x00000000	0.0
160	0x00000000	0.0
161	0x00000000	0.0
162	0x00000000	0.0
163	0x00000000	0.0
164	0x00000000	0.0
165	0x00000000	0.0
166	0x00000000	0.0
167	0x00000000	0.0
168	0x00000000	0.0
169	0x00000000	0.0
170	0x00000000	0.0
171	0x00000000	0.0
172	0x00000000	0.0
173	0x00000000	0.0
174	0x00000000	0.0
175	0x00000000	0.0
176	0x00000000	0.0
177	0x00000000	0.0
178	0x00000000	0.0
179	0x00000000	0.0
180	0x00000000	0.0
181	0x00000000	0.0
182	0x00000000	0.0
183	0x00000000	0.0
184	0x00000000	0.0
185	0x00000000	0.0
186	0x00000000	0.0
187	0x00000000	0.0
188	0x00000000	0.0
189	0x00000000	0.0
190	0x00000000	0.0
191	0x00000000	0.0
192	0x00000000	0.0
193	0x00000000	0.0
194	0x00000000	0.0
195	0x00000000	0.0
196	0x00000000	0.0
197	0x00000000	0.0
198	0x00000000	0.0
199	0x00000000	0.0
200	0x00000000	0.0
201	0x00000000	0.0
202	0x00000000	0.0
203	0x00000000	0.0
204	0x00000000	0.0
205	0x00000000	0.0
206	0x00000000	0.0
207	0x00000000	0.0
208	0x00000000	0.0
209	0x00000000	0.0
210	0x00000000	0.0
211	0x00000000	0.0
212	0x00000000	0.0
213	0x00000000	0.0
214	0x00000000	0.0
215	0x00000000	0.0
216	0x00000000	0.0
217	0x00000000	0.0
218	0x00000000	0.0
219	0x00000000	0.0
220	0x00000000	0.0
221	0x00000000	0.0
222	0x00000000	0.0
223	0x00000000	0.0
224	0x00000000	0.0
225	0x00000000	0.0
226	0x00000000	0.0
227	0x00000000	0.0
228	0x00000000	0.0
229	0x00000000	0.0
230	0x00000000	0.0
231	0x00000000	0.0
232	0x00000000	0.0
233	0x00000000	0.0
234	0x00000000	0.0
235	0x00000000	0.0
236	0x00000000	0.0
237	0x00000000	0.0
238	0x00000000	0.0
239	0x00000000	0.0
240	0x00000000	0.0
241	0x00000000	0.0
242	0x00000000	0.0
243	0x00000000	0.0
244	0x00000000	0.0
245	0x00000000	0.0
246	0x00000000	0.0
247	0x00000000	0.0
248	0x00000000	0.0
249	0x00000000	0.0
250	0x00000000	0.0
251	0x00000000	0.0
252	0x00000000	0.0
253	0x00000000	0.0
254	0x00000000	0.0
255	0x00000000	0.0

network_body._body_endoder.seq_layers.4.weight f4 [256, 256]
0	0xbd0b9467	-0.034077074
1	0x3d3b6e1c	0.045759305
2	0xbd16ab86	-0.03678467
3	0xbceb551c	-0.028727107
4	0xbd6a8fb0	-0.057265937
5	0x3d317024	0.043319836
6	0xbd3bf68e	-0.04588943
7	0x3d05b77c	0.032645687
8	0x3ce60452	0.028078232
9	0xbcbf4f08	-0.023353115
10	0x3d0959fa	0.033533074
11	0xbce074b5	-0.0273994
12	0x3d4bf865	0.049797434
13	0x3d332c19	0.043743227
14	0x3d58425c	0.05279766
15	0x3a159436	0.0005705984
16	0xbcf59be7	-0.029981567
17	0xbdbcacfd	-0.092126824
18	0x3ca457a7	0.020061327
19	0xbda5d55f	-0.08097338
20	0x3d52544b	0.05134992
21	0xbdadd0cd	-0.08487091
22	0x3e07b383	0.13252072
23	0x3c962e34	0.018332578
24	0xbc9cf2c0	-0.019158721
25	0xbbf2fa4a	-0.0074150907
26	0x3b3a9b68	0.0028473977
27	0xbd309f9d	-0.04312097
28	0x3ce1224c	0.027482174
29	0x3d0a9f21	0.033843163
30	0xbd674936	-0.056466304
31	0x3dd83d67	0.105585866
32	0x3cddcebc	0.027076118
33	0x3c6c9fb3	0.014442372
34	0xbce30147	-0.02771057
35	0x3dacdb36	0.08440249
36	0xbdbdb137	-0.09262317
37	0xbd4e2c31	-0.050335113
38	0x3e1e7b3a	0.15476695
39	0xbd215d51	-0.039395634
40	0xbc838357	-0.016053839
41	0x3dd22294	0.102605015
42	0xbda96163	-0.08270528
43	0x3d1060c1	0.03524852
44	0xbda74ed7	-0.081693344
45	0xbc07d10f	-0.00828959
46	0x3c3a637f	0.011376261
47	0x3dc30c02	0.09523775
48	0xbc33d244	-0.010975424
49	0x3d038a26	0.03211417
50	0xb8ad567f	-8.265394e-05
51	0x3be433e0	0.006964192
52	0xbd93aea2	-0.07211043
53	0x3d806156	0.06268565
54	0x3d8e45d8	0.069469154
55	0x3cc13369	0.023584085
56	0xbdccbbed	-0.099967815
57	0x3bab78f4	0.0052329246
58	0xbde2b176	-0.11069004
59	0x3d346a7e	0.04404687
60	0x3df411bb	0.11917444
61	0x3d649860	0.05580938
62	0xbe31bdad	-0.17357512
63	0xbd2de48d	-0.04245429
64	0xbd3c57bc	-0.045982108
65	0x3b23ec0f	0.0025012528
66	0x3d7e0ca6	0.06202378
67	0xbca69893	-0.020336425
68	0xbd915888	-0.07096964
69	0x3c30a4ad	0.010781449
70	0xbd762779	-0.060096238
71	0xbdb8d80d	-0.090255834
72	0xbacf0f13	-0.0015797339
73	0xbc6b197f	-0.01434934
74	0x3ce1b2eb	0.027551135
75	0xbc03cc40	-0.008044302
76	0x3c75ce8d	0.015002859
77	0x3d0869cc	0.03330402
78	0xbcb8d9df	-0.022564827
79	0x3d6cfc18	0.057857603
80	0x3dc1fec2	0.09472419
81	0x3bdfc671	0.006829076
82	0xb9a73dad	-0.00031898674
83	0x3d3d03f6	0.046146356
84	0xbd106053	-0.035248112
85	0x3d6ea81d	0.058265794
86	0x3cba1b8a	0.02271821
87	0x3be9f313	0.0071395724
88	0x3d500a4b	0.050791066
89	0x3d502980	0.050820827
90	0x3d5534d3	0.05205233
91	0x3d45cdfa	0.048292138
92	0xbb33ee9d	-0.0027455457
93	0xbb9b8cfc	-0.0047470313
94	0x3d68f98f	0.056878623
95	0xbdbba20b	-0.091617666
96	0xbc2dcae5	-0.010607456
97	0x3d940e8a	0.072293356
98	0x3d7d746f	0.061878618
99	0xbc3084d0	-0.0107738525
100	0xbcb1434a	-0.021638531
101	0xbd3a3e07	-0.04546931
102	0x3c446562	0.011987062
103	0x3d447a74	0.047968343
104	0x3d7340cc	0.059387967
105	0x3d6db219	0.058031175
106	0xbd775ee1	-0.060393218
107	0x3c087031	0.00832753
108	0xbdec4805	-0.11537174
109	0x3a6b4e06	0.0008976165
110	0xbce8345b	-0.028345278
111	0xbd4ab6e3	-0.04949082
112	0x3cc9d44e	0.024637368
113	0x3d023d24	0.03179659
114	0x3d304df5	0.043043096
115	0xbbd8bd9e	-0.006614401
116	0x3baaf56a	0.005217244
117	0xbc4e36c8	-0.012586303
118	0xbcfcbea3	-0.030852621
119	0xbc9c9e49	-0.019118445
120	0xbd42626b	-0.04745714
121	0xbdbda33c	-0.0925965
122	0xbd74e959	-0.05979285
123	0xbdb824c3	-0.08991387
124	0x3c554f2e	0.013019366
125	0x3c4b7ba2	0.012419613
126	0x3d99e206	0.07513814
127	0x3c9ed72d	0.019389713
128	0xbdb8bd45	-0.09020475
129	0xbcd4be36	-0.025969606
130	0xbc8b1784	-0.016978987
131	0x3cbb8fbd	0.022895688
132	0x3e0e7d41	0.13914968
133	0x3d6c56cf	0.057699975
134	0x3cd1a736	0.025592428
135	0x3db2220d	0.08697901
136	0x3e0cdb67	0.1375557
137	0x3b7597ad	0.003747444
138	0x3d8fb1c4	0.07016328
139	0xbcf3b231	-0.029748054
140	0x394fdda1	0.00019823622
141	0x3c6db288	0.014507897
142	0xbbe81daf	-0.0070836167
143	0x3d23dc65	0.040005106
144	0xbcb2a39f	-0.021806536
145	0x3dcd105f	0.10012888
146	0x3d37fa3e	0.044916384
147	0xbd867abb	-0.06566378
148	0xbd478655	-0.048712093
149	0xbcdebad8	-0.027188703
150	0xbdca5851	-0.09880126
151	0x3cf3c8dd	0.029758865
152	0x3c7ac73f	0.015306293
153	0xbcfa6e57	-0.030570192
154	0x3de3485c	0.11097786
155	0x3ccd6f02	0.025077347
156	0x3db587c6	0.08863787
157	0xbd9eec34	-0.07759896
158	0x3d1885e5	0.037237067
159	0xbd097645	-0.033560056
160	0xbd5e2d45	-0.05424239
161	0xbdccb511	-0.09995473
162	0xbda2660b	-0.079296194
163	0xbd401c3c	-0.046901926
164	0x3c1d83b7	0.009613923
165	0x3d907acb	0.07054671
166	0xbd645844	-0.05574824
167	0xbd80866c	-0.06275639
168	0xbe1fb9b6	-0.15598187
169	0xbb606899	-0.0034242033
170	0x3cf83626	0.030299257
171	0x3da5e336	0.08099978
172	0x3b2d882b	0.0026478868
173	0x3cfe8cc7	0.031072987
174	0x3dc35aba	0.09538789
175	0x3d37cf70	0.044875562
176	0xbd1853d4	-0.03718932
177	0xbd79b743	-0.060965788
178	0xbce91ab8	-0.028455123
179	0x3dcd7da0	0.10033727
180	0x3d219ca8	0.03945604
181	0x3c004c55	0.007830699
182	0xbdaae797	-0.083449535
183	0x3b389c8d	0.0028169483
184	0xbce39b2c	-0.027783953
185	0x3dd0e5ac	0.102000564
186	0xbd21f06a	-0.039535917
187	0xbd665af8	-0.0562391
188	0xbcdb1bf0	-0.02674672
189	0x3d22b0e8	0.039719492
190	0x3e138836	0.14407429
191	0xbc778e54	-0.015109617
192	0x3d8d75eb	0.06907257
193	0x3d1acba7	0.037791874
194	0x3ce9e509	0.028551595
195	0xbded113a	-0.11575551
196	0x3c063445	0.008191173
197	0xbc798c35	-0.015231182
198	0x3d51d0ec	0.051224634
199	0xbd7fa8b7	-0.06241676
200	0xbd7ac3a0	-0.06122172
201	0x3d1a6be6	0.037700556
202	0x3c2b5c6e	0.010459049
203	0x3d2e19e5	0.042505164
204	0xbd1bdf1c	-0.03805457
205	0xbdb86d92	-0.09005274
206	0x3cb58774	0.022159316
207	0x3d5695c4	0.05238892
208	0x3d7d5575	0.061849076
209	0x3c919395	0.017770568
210	0x3ca8bd8d	0.020598197
211	0x3e0ca84c	0.13736075
212	0x3d0ce261	0.03439558
213	0xbbcf1a05	-0.0063202404
214	0xbd0e8ac9	-0.034800325
215	0xbd3ffdd8	-0.046872944
216	0xbcd14d91	-0.025549682
217	0x3b5b6601	0.0033477547
218	0xbc6bbb1c	-0.014387872
219	0x3ca76cba	0.020437587
220	0xbd320462	-0.04346121
221	0xbd8c242c	-0.06842837
222	0x3dc67c07	0.09691625
223	0x3de6bdb7	0.11266654
224	0xbc5d73a6	-0.013516342
225	0xbdb04114	-0.08606163
226	0xbb5a2789	-0.0033287725
227	0xbde972d8	-0.11398858
228	0xbc336f44	-0.010951821
229	0x3e112aba	0.14176455
230	0x3d663ae5	0.05620851
231	0x3c5b2958	0.013376556
232	0xbd5c6488	-0.05380681
233	0xbd5735c1	-0.052541498
234	0xbd6151fd	-0.05500983
235	0xbe1fb414	-0.15596038
236	0x3d8c9597	0.068644695
237	0xbca54b2b	-0.020177444
238	0xbcc39496	-0.023874562
239	0x3d5b90e3	0.05360497
240	0xbcefc36e	-0.029267993
241	0x3d0258bf	0.031822916
242	0x3da8d2a3	0.08243301
243	0x3e348b76	0.17631325
244	0xbd2c0274	-0.041994527
245	0xbb97d6b8	-0.0046337508
246	0x3d206184	0.0391555
247	0xbd62b16a	-0.055344976
248	0x3ce942c4	0.02847422
249	0xbd22f669	-0.039785776
250	0x3d79d063	0.06098975
251	0xbd8c02fa	-0.06836505
252	0xbd8b01d1	-0.06787456
253	0xbcc5e35d	-0.024156267
254	0x3c822eb4	0.01589141
255	0xbd34ea9f	-0.044169065
