Endless Runner/Assets/training/results/Run 2/cfg/cfg-370854.onnx (onnx, 597435 bytes, 8 tensors)

action_model._discrete_distribution.branches.0.bias f4 [3]
00000000: bd61 ab3b 9ce0 71b7 4c77 9cbb
0.005230157 -1.4417015e-05 -0.0047749635

action_model._discrete_distribution.branches.0.weight f4 [3, 256]
00000000: 696e 213c 92f0 d439 b31b 5cbc 5975 3a3b
00000010: e912 0d3c f040 433b 2422 763c a7fb db3b
00000020: 252e a1bb 735a 733a 82b8 5fbc baf7 053b
00000030: 4d3f 4c3b dc7b f9ba cb89 023b 6e77 07bb
00000040: 1cdb 0b3c a509 843c 5d42 65bc 9476 fc3b
00000050: 0446 7a3c cce1 29bc 95b3 d1bb 04d8 dd3b
00000060: 98bb b7bb c1c4 843a 0a30 83bb 5c5d deba
00000070: 60ae 92bb 47cb 8d3b 9f9e 4cbc 3b4a 7cbc
00000080: b4e4 133c c730 38bc d6e2 113c adcd 80bb
00000090: 85ea 06bc 0117 433c bc7f 4d3b 216b 8fbb
000000a0: b1cc 243b 7f6e fe3a 6f72 bb3b 17a7 103c
000000b0: a44f b7bb e4d1 1a3c 70f8 783c 2a1a 123c
000000c0: 7fdc 883b 58fd 81b8 6cce 89bc d1d5 22bc
000000d0: b10f 783b e5d6 b33b f1d8 3bbb 9ab5 3c3a
000000e0: b832 d43a 2170 58bc 740f 2f3c 17e6 883c
000000f0: c556 f03b 69a3 e5ba d595 3abc ce85 793c
00000100: ecb7 0c3c 7b03 0f3c 255f 50bc 7c2a 8fbc
00000110: c520 38bc 9911 e6ba c0de 6bbc 2372 abba
00000120: 3c6d 413b af3f d3bb 5fbf 763b ee94 4ebc
00000130: 6777 30bc 51b3 88bb 3132 86bb a3f4 5c3b
00000140: b8ef 49bc 7fdb 733b 544d 66bb d505 06bc
00000150: 862b 5d3b e8e6 fc3b 0efd c33a 69b3 fe3a
00000160: 3132 29ba c5f2 ff3b 7418 15b9 f5e3 903b
00000170: c66d cabb dce3 01bc a263 183c 04a0 773c
00000180: 6a61 d3bb 59f7 163c d905 813b 4fe9 c63b
00000190: 90bc f638 c62c 893b 7324 243b 9b22 f63b
000001a0: ec42 ffbb f024 983a 1360 a0bb cd84 50bb
000001b0: 6ac1 723b d3a2 863a d048 b53b f611 0fbb
000001c0: 6b21 0e3c def6 91bb ac9c 2cbc 0fd8 32bc
000001d0: 1708 65bb 6876 033b e73a c03b e226 90ba
000001e0: f36f 3abb 6be0 de3b 355d 42bb 9f51 20bb
000001f0: bd16 aabb 2b34 51bc 505e 343c df36 043c
00000200: 345c 78bc 4496 3237 4e9a fcbb 9a10 a0ba
00000210: 748d 35bc 0ca1 e9ba 087a b63a 801d 163c
00000220: c7fe e13b 90dd 09bc 545a 2a3c 764b 9abb
00000230: 7f3a 55bb fc62 36bb 4280 933a 99e4 e03b
00000240: 2f21 3cbb abfe e13b 098a 6dbb 024b 6bbc
00000250: 93a6 ebbb 67da f23a 694d 553c 7807 0ebc
00000260: 15ad 97bb f310 6ebb 7fba 74bc 91a5 903c
00000270: 03cc 08b9 07d8 09bc 48fa 2a3b c68b 48bc
00000280: 45a8 2f3c b5ef dabb 95e1 973b 3e53 f6bb
00000290: 69c8 5d3b a853 02bc 87cd 54bc b313 cf3c
000002a0: 6034 22ba 90a4 613b e1cc 12bc d5ac 74bc
000002b0: 0297 123b 9d9b efbb 5faa bfb8 8896 2c3c
000002c0: dded 4aba ffe0 1d3c 5918 89bb 7c2f 15ba
000002d0: fc2d 043c 3f6b bc3b d5b6 82ba 61c3 19bb
000002e0: defe 90bb bf24 aabb 3f3d b03b 8dd4 4bbc
000002f0: e270 bebb 8079 60bc 0a44 20bc 65ea 6abc
00000300: 340d 14bc be0d 0abc 6027 fd3b 2416 9cba
00000310: b7fd 24bc 9eb8 9e3b 2b10 1cbc 15f1 f2bb
00000320: cd38 643b 1009 783b 7613 cdbc 3e0c 4bbc
00000330: 9603 a5ba f186 c93b 5ad0 3a3c c76f 2e3b
00000340: 338d 31bc 2cc1 abbb 8d3a e5ba e0f7 293c
00000350: f474 363c d317 053c 1862 f9bc 6e9e cd3b
00000360: 8d1e 86ba c81e bebb b9be 8a3c c19c c23a
00000370: ece7 21bc 5195 8dbc bc30 a33a 2480 a6bb
00000380: 3ef5 f639 c4ea b6b7 8c30 aabb d0d8 f83b
00000390: 99af 29bc b4e3 b03b 2528 893c 607b 05bc
000003a0: d6b4 54bb a61a 823c f932 6c3b e6f0 66bc
000003b0: 8271 54bc 7105 623b 8aff 4f3a 6801 97bc
000003c0: 03de b0bb 1464 bf3b 200f 17bc f007 973a
000003d0: 7c32 dcba 00c8 86bc 1d46 11bc ea47 a83b
000003e0: ab6f c23a 30e1 fc3b 5794 c03a f55a 6fbc
000003f0: 37d9 1bbb 116f 743c 00ca 35bb 9911 5d3c
0.009852984 0.0004061503 -0.013434338 0.0028451292 0.008610466 0.0029793344 0.015022788 0.006713349
-0.004918831 0.00092831923 -0.01365483 0.0020441846 0.003116566 -0.0019034105 0.0019918557 -0.002067055
0.008536126 0.01611788 -0.013992873 0.0077045653 0.015275482 -0.010368776 -0.0063995817 0.006770136
-0.0056070797 0.0010129438 -0.0040035294 -0.0016965079 -0.0044763535 0.004327211 -0.01248899 -0.015398557
0.009026695 -0.011242098 0.00890418 -0.0039307685 -0.008234625 0.01190734 0.0031356653 -0.0043767844
0.002514642 0.0019411593 0.0057204287 0.0088289 -0.0055942107 0.009449456 0.015195951 0.008917371
0.004176676 -6.198388e-05 -0.016822062 -0.009938673 0.003785115 0.005488264 -0.0028663243 0.00071986916
0.0016189432 -0.013210327 0.010684837 0.016711278 0.0073345625 -0.0017520013 -0.011388262 0.015229655
0.008588772 0.008728857 -0.012717997 -0.017476313 -0.011238282 -0.0017552852 -0.014396369 -0.001308028
0.0029514572 -0.0064468007 0.0037650687 -0.01260875 -0.010770655 -0.004171767 -0.0040953388 0.003371515
-0.01232522 0.0037209687 -0.0035141306 -0.008180101 0.0033747866 0.007717956 0.0014952736 0.001943213
-0.00064543175 0.007810923 -0.00014218857 0.004421706 -0.006177637 -0.007927861 0.009301098 0.015113834
-0.0064508216 0.009214246 0.0039374647 0.006070293 0.000117653166 0.0041862456 0.002504614 0.0075114495
-0.00778996 0.0011607688 -0.0048942654 -0.0031817437 0.0037041553 0.0010271914 0.0055323616 -0.0021830774
0.00867496 -0.0044544777 -0.0105354 -0.01091577 -0.003494745 0.002005959 0.0058663967 -0.0010997916
-0.0028448075 0.006801655 -0.0029657607 -0.0024462712 -0.005190699 -0.0127687855 0.011008814 0.008069723
-0.015158702 1.0644613e-05 -0.0077088242 -0.0012211979 -0.011081088 -0.0017824485 0.0013921866 0.009162307
0.006896827 -0.008414641 0.0103975125 -0.0047087027 -0.0032536087 -0.0027829995 0.0011253434 0.0068631885
-0.0028706302 0.006896814 -0.0036245605 -0.014361145 -0.007191488 0.0018528224 0.013018944 -0.008668773
-0.0046287873 -0.003632602 -0.014937042 0.017657073 -0.00013045971 -0.008413321 0.002608912 -0.012240356
0.010721271 -0.0066814073 0.004635046 -0.0075172475 0.0033841378 -0.0079545155 -0.012988455 0.025277948
-0.0006187614 0.0034430362 -0.00895998 -0.0149337845 0.002236784 -0.0073122517 -9.139324e-05 0.010533936
-0.0007741133 0.009636163 -0.0041838107 -0.00056909746 0.008067604 0.0057500894 -0.0009972701 -0.0023462402
-0.004424914 -0.0051923688 0.005378395 -0.012440813 -0.0058117965 -0.013700843 -0.009781847 -0.014338111
-0.009036351 -0.008426128 0.007725641 -0.0011908454 -0.010070256 0.0048437854 -0.009525339 -0.007413993
0.0034823895 0.0037847199 -0.025033694 -0.0123930555 -0.001258957 0.0061501195 0.011402214 0.0026616917
-0.010836887 -0.0052415337 -0.0017488763 0.010374039 0.011136282 0.008123356 -0.030442283 0.00627499
-0.0010232494 -0.0058020093 0.016936647 0.0014847742 -0.009881955 -0.017283114 0.0012450437 -0.0050811935
0.00047103496 -2.1805412e-05 -0.0051937755 0.0075942054 -0.010356807 0.005398238 0.016742775 -0.008147091
-0.003245642 0.015881848 0.0036041124 -0.014095521 -0.0129665155 0.0034488107 0.00079345016 -0.018433288
-0.0053975596 0.0058407877 -0.009219915 0.0011522751 -0.0016799713 -0.01645279 -0.008866814 0.005135526
0.0014834305 0.007717274 0.0014692646 -0.014609088 -0.0023780593 0.014919058 -0.002773881 0.013492965

network_body._body_endoder.seq_layers.0.bias f4 [256]
00000000: 8ca4 b73b b042 3d3a b733 673b 4ca1 3f3b
00000010: c69d 02bb f808 99ba ac14 1f3a c41e 6f3b
00000020: b9eb 8c39 9117 2c3b 7f92 763b 72fa e43b
00000030: 592a b4bb c4f3 01bc bfb7 1c3b 0098 2233
00000040: 4b23 33ba 3938 b0ba 2a72 54bc c057 743b
00000050: a975 af3b c2dd a0ba 2c0c ef3a b49c 17bc
00000060: a175 833b 8ec6 ed3b 7152 4e3b 5d82 913b
00000070: 6f22 d13b d038 bdbb cc0d dbb8 415b 9dbb
00000080: 355c afbb c1c7 1a3a e0b7 153c f4e2 983b
00000090: 5052 d53b df6b 27bb 29c5 54bb db07 b63a
000000a0: 2528 18ba b3b8 e6b9 0d84 cc3b 1ebc 833b
000000b0: 38c0 23bb 737a 2abb feea c73b 49de d2ba
000000c0: e662 46bb ba4b 193b 53f2 20bb ea61 a2ba
000000d0: e189 183c d458 89bb fffe e13a ad51 c23a
000000e0: 824c 2bbb 0348 c13a d32d b9bb 6966 b1ba
000000f0: 0e21 303b 492e 3bbb e4bc 8eb9 d0d8 f83a
00000100: 23cb 6f3b f8db cd3a c193 323c 7d4a 43bb
00000110: 69fb 7c3a 6310 b9ba 25f9 82bb cd49 ddba
00000120: efd7 a4ba 0d2c 63bb 0af3 5f3b 0662 223c
00000130: 8222 55ba 723e 9fbb 1bd9 dcbb 1d60 90ba
00000140: bbde 933b ceb6 b4bb c41d 1bbc a4e6 623b
00000150: afe3 7d3b 006b 993b 51fb ebbb 68ee 54bb
00000160: af89 683b 65dc aa3b 8d79 a63b 3d42 02bb
00000170: 3895 823b 78b7 ee3b 3f0e d3ba f000 5aba
00000180: 3911 24bb 263f 163b bed9 6a38 316a 7e3b
00000190: cbd2 cc3b 066f be39 6431 bf3b e002 e03b
000001a0: da25 ce3b ea0f 09bc 69e7 1bba d772 c1bb
000001b0: 3992 29bc 1f6a b1ba de03 bfb9 864e 943b
000001c0: 3a83 be3a f43d a2bb 01ea 3f3a 7067 df3b
000001d0: 7e29 b837 88fe 073c 101d a63b 0a0f 9aba
000001e0: 196d 84bb 26cd a7ba d33d 84bb 44c2 a53b
000001f0: 8b3a b6ba fc3d 143c 4593 fb3a d07e a23a
00000200: 517f 1a3a 6693 573b 4bb9 0cbb 1fc5 0a3b
00000210: 1a87 92bb 3642 31ba 2e90 72ba 9725 20bb
00000220: 785e 6ab9 f35a 3cbb 0c9f 713a a862 073b
00000230: 7157 14bc fe75 40bb ffb0 f53a a541 8e3b
00000240: 706e 4a3b 6961 93ba 591a 653b 03eb fcbb
00000250: 1b24 2f3c 077a baba d809 0d3c 23ef a63b
00000260: 13a7 a1bb a144 b1ba b814 84bb 3fee 483c
00000270: 5a19 62bb 8827 4abb 312e 98bb 2407 80bb
00000280: df33 493c e521 55bb 591b 17ba 5e06 38bb
00000290: c2a8 87bb 553b 3b3c 9a17 6bba 5bbe 6a3b
000002a0: 94e8 0a39 d2d1 043c 47f5 983b 8854 23bc
000002b0: 9592 a93b 787c ec3b d483 4ebc 8145 35bb
000002c0: 1613 c93b fecc 3abb bf24 e93b b58b 823b
000002d0: a63c 16bb a797 57bb e83f 04bb 790b af39
000002e0: bc6a 1d37 a348 bc3b 8aaa a73b e32d 3fbb
000002f0: c309 253b 2c28 aeba d525 4b3b 7b44 433b
00000300: a0b0 0c3c 5760 0dbb 8094 473b 57fe 16ba
00000310: c948 233b 7acd 2e3b 6599 ae3b 0758 b9b9
00000320: b253 4d39 004f 1abb 1377 a3ba 37cc 43bb
00000330: f93f a03a 4b03 253a 1ab0 613b 07bc 063c
00000340: 7315 72bb e600 9b3a 2253 213b aa87 253b
00000350: b7c0 e9ba 493a f6ba 144d 25b9 bcf9 37bb
00000360: c30f aebb 5aa5 1f3a 5a95 783b 6856 f63b
00000370: e0ac 463b 6e74 463c ee5b fc3a bff2 893b
00000380: bd76 033a 8c1c d23b 9a00 95bb d119 ca3b
00000390: 9788 343b 43f9 6e3b 2b1c 95ba b388 fabb
000003a0: d450 b83a c8aa 52bc 754e ac3b 590e a43b
000003b0: 77ff bcbb c1d2 913b 4836 41ba 5fc2 1b3c
000003c0: f1cc 0dba 3e4f 853b 314e ac3b a239 6c3a
000003d0: 5030 af3b c418 38bc 05fd 4b3b 09e4 923a
000003e0: cba3 a63b ed4a b0ba 9452 913b d310 04bb
000003f0: 5767 823b 1738 ca3b e31a 593b e9ee 8cbb
0.0056043323 0.0007219715 0.0035278627 0.0029240428 -0.0019930466 -0.0011675647 0.0006068449 0.0036486844
0.00026878508 0.0026259164 0.003762394 0.006987863 -0.0054982123 -0.007931653 0.0023913232 3.7856807e-08
-0.0006833567 -0.001344449 -0.012966672 0.0037283748 0.0053546024 -0.001227312 0.001823788 -0.0092536695
0.004011825 0.0072563356 0.0031482244 0.0044405893 0.0063822786 -0.005774595 -0.000104453036 -0.004802138
-0.005351568 0.00059043994 0.0091380775 0.004665727 0.0065100566 -0.0025546474 -0.003246615 0.0013887839
-0.0005804322 -0.0004400663 0.0062413276 0.004020228 -0.0024986397 -0.0026012927 0.0061010113 -0.0016087975
-0.003027135 0.0023391084 -0.00245585 -0.00123888 0.009310217 -0.0041914973 0.0017242132 0.0014825367
-0.0026138132 0.0014746193 -0.0056512146 -0.0013534549 0.002687517 -0.0028561524 -0.00027225085 0.0018985514
0.0036589585 0.0015705815 0.010899485 -0.0029799037 0.00096505 -0.0014119264 -0.0039969855 -0.0016882956
-0.001257656 -0.0034663707 0.0034171962 0.009911066 -0.0008130447 -0.004859739 -0.006739748 -0.0011014972
0.0045126355 -0.005514956 -0.009467546 0.0034622336 0.0038740446 0.004681945 -0.00720159 -0.0032490734
0.0035482456 0.0052142614 0.005080408 -0.0019875907 0.0039850734 0.007285055 -0.0016102268 -0.000831618
-0.002503468 0.0022925823 5.5992736e-05 0.003882062 0.0062507144 0.00036322343 0.0058347452 0.00683628
0.0062911334 -0.008365611 -0.00059472636 -0.0059035826 -0.010349804 -0.0013535655 -0.0003643324 0.0045259623
0.0014534958 -0.004951233 0.0007320941 0.0068177506 2.195383e-05 0.008300431 0.0050693825 -0.001175375
-0.0040413258 -0.0012802228 -0.0040356903 0.0050585587 -0.0013902945 0.009047981 0.001919367 0.0012397412
0.00058936054 0.0032894253 -0.0021472748 0.0021174622 -0.004471672 -0.00067618804 -0.0009253052 -0.0024436468
-0.00022351171 -0.0028740733 0.000921712 0.002065817 -0.009054051 -0.0029367204 0.0018744766 0.0043413215
0.003088858 -0.001124424 0.0034958331 -0.0077184453 0.010689761 -0.0014227041 0.008608304 0.0050944253
-0.004933247 -0.0013524481 -0.00403079 0.012263834 -0.0034499974 -0.0030846316 -0.0046441783 -0.003907101
0.012280433 -0.0032521423 -0.0005764268 -0.0028079967 -0.0041399905 0.01142772 -0.00089680555 0.0035819027
0.00013247348 0.008106666 0.004667911 -0.009968884 0.0051749446 0.0072169863 -0.012604672 -0.0027659836
0.0061363084 -0.0028503533 0.007114976 0.0039839395 -0.0022924333 -0.0032896788 -0.0020179693 0.0003338715
9.38278e-06 0.0057459637 0.0051167654 -0.0029171638 0.002518282 -0.0013287119 0.0030997891 0.0029795456
0.008587033 -0.0021572316 0.0030453503 -0.00057599455 0.002491521 0.0026672767 0.0053283446 -0.00035351535
0.00019581502 -0.0023545623 -0.00124714 -0.002987636 0.0012226097 0.0006294741 0.003443724 0.00822354
-0.0036939054 0.0011825829 0.0024616201 0.0025257864 -0.0017833923 -0.0018785681 -0.0001576434 -0.0028072437
-0.0053119375 0.0006090008 0.0037930817 0.0075176246 0.0030315444 0.01211272 0.0019253471 0.004209846
0.0005014947 0.0064120945 -0.004547191 0.0061676283 0.0027547234 0.003646449 -0.0011376193 -0.0076456903
0.0014062175 -0.0128581 0.0052583762 0.005006593 -0.0057677585 0.0044501727 -0.0007370454 0.009506791
-0.0005409262 0.0040682843 0.0052583446 0.00090112735 0.0053463355 -0.011236373 0.0031126153 0.0011206876
0.0050854436 -0.0013450064 0.004434893 -0.002015163 0.003979604 0.006171237 0.0033127598 -0.0043009412

network_body._body_endoder.seq_layers.0.weight f4 [256, 63]
00000000: c677 5e3e 3048 18be 30d9 d63d 6ec4 e7bb
00000010: 69fe 5c3e 7128 f8bc df83 a4bd 2f26 cdbd
00000020: 2aa6 e9bd 7aab f83d 056d 11be 382f 863c
00000030: 0427 183d e366 983d 32be d8bc 5993 09be
00000040: 09ce 89be 61fb 85be 7434 043e 0aa6 033d
00000050: 3a3a f2bb 71a5 85bb 4ded 9f3d 3e52 d53d
00000060: b799 08bc 8e02 0ebd a080 cfbd d9a1 9a3d
00000070: bea2 6abd 3e0c 39bb 97c0 013d ee87 1a3e
00000080: 6700 833d 80dc 803d 6edc 3d3e e9dc 84bc
00000090: 4451 d7bd 1e0f d8bd 0c12 d63c 20e4 b73d
000000a0: f21f ad3e b365 483e a121 eebd e3f6 383d
000000b0: 53f5 663d 72ab 7b3d 289d 7abd fb24 e1bd
000000c0: faac 413b aad3 e83b a14d 86be df84 d73d
000000d0: 6612 b2bd 7b02 973d 7cc4 583e ea8e 103e
000000e0: cc57 bebd de9f 0b3e 659f 833e 7bd0 41bd
000000f0: c8d2 583b afe8 af3d 567f e03d d8ad a63c
00000100: e23d 58bc a555 283e 9344 91be fe9e ffbd
00000110: 552b 6fbd 519a 1ebe a7bf 0cbe 6949 35be
00000120: 0b10 94bd 6a8d 413e f679 8bbd 791c da3d
00000130: 039c 84be ce55 273e d45f d83d ce51 683e
00000140: 2899 06be f188 8fbb 2a73 503e b624 673e
00000150: 9f2a 103e 97aa 85bd d9b2 6d3e da8e 03be
00000160: 77b4 163c 20d7 0d3e 5b47 50bd b4bb c5bd
00000170: db18 05bd 9372 87bb 1ba1 39be c0d8 08be
00000180: e101 f83d c674 fabd 103c c6bd ca97 38bd
00000190: 4dc9 a6bc 2359 54bb 98c0 0bbe 53d5 c1bd
000001a0: 6fd4 6c3c d5ce da3c d842 093e 76da 073e
000001b0: c77b 213d 8e51 113b 7690 46be e9f9 7fbd
000001c0: 4ba9 11bc 6c3f 36be ec7b a3bd 16c5 703e
000001d0: 4d1e 2e3e 8897 e6bd c84e 9fbc 0a8a e4bd
000001e0: 544b 523c a5c9 2f3d 05e7 463c fb78 bcbc
000001f0: 2c72 353e 5a5f 11bd 54f1 03be 7a49 993d
00000200: 8e36 4e3e 5beb af3d fe8a 91be c301 203e
00000210: 4779 90bd 658e 093d 2e8b ec3d fd82 af3d
00000220: c94d 563e 2c13 283e 0ac9 62be 1f47 0a3d
00000230: e851 3c3e 8169 253e ab67 5ebc 10e8 053e
00000240: b70d e6bd 5490 d13d 1d3b 4a3d 091a 1e3e
00000250: c744 203e 493f 543d 8b4f af3c dfcc bebd
00000260: 25d5 503b 8665 543e 6d17 66bc 759f 883c
00000270: e437 63be c4f2 9bbe 5966 243e f21c 823e
00000280: a9da efbd bb37 1bbd 9102 833d a4df 8f3e
00000290: c763 133c cc40 1cbe 49d2 0d3c 516d db3d
000002a0: 0fb4 073e 4b84 1f3e a3c1 0f3d 615a b1bd
000002b0: 5363 443e 1065 15be da63 ff3d 8e37 053d
000002c0: f91c bebd 05fe 01bd 8248 81bd 0daf 4cbd
000002d0: 1770 01be 670b cb3d 3f90 d1bc 38a1 023e
000002e0: cb66 2d3e 6be9 f4bd e416 80bd b368 6dbe
000002f0: 2836 73be 8fcf fe3d 9801 03be a714 83bd
00000300: e906 1b3e 0412 183e 9cc7 70be 3bfc ab3e
00000310: 11ea 1a3e 4346 203e cdfd d23c f083 e23d
00000320: 3810 31be 5208 26be 5319 51be 57fb 23be
00000330: f7a3 823d 9b1f 4e3e a542 883a d69a 0a3e
00000340: d6d3 c9bb 82dc c13c 18dc f4bd f880 55bd
00000350: bcba 713e ba03 80bc 18a8 303e 9893 37bd
00000360: 8172 2b3e e353 b33d 81e4 b8bd ad32 bcbd
00000370: 0cf6 f33d d1eb 203e 3399 14be 119a 77bd
00000380: 865a ce3d 4adb d6be 5d22 d7bd 558f 8cbd
00000390: 7294 05be 6698 b43d f076 003e 3afc 803d
000003a0: 73a7 eb3c f440 e53c 6b80 1dbd ccd4 babd
000003b0: ddc3 4e3d 2e1e 00be 1fdc 4fbe d44d e9bd
000003c0: 43f9 823c 17d2 263e c3f6 0c3e 672d 8e3d
000003d0: d161 fbbb 57b7 ecbc 840e 5b3e 7270 d5bd
000003e0: cc8f 413d de09 ab3d 1a9c d63d 262f e63c
000003f0: e915 14be 4b18 513d dfcb 5ebd 96ba 52be
0.21725377 -0.14871287 0.10490644 -0.007072977 0.21581425 -0.030292721 -0.08032965 -0.100170486
-0.114086464 0.121420816 -0.14201744 0.016379938 0.037146583 0.07441499 -0.02645788 -0.13435115
-0.26915005 -0.2616835 0.12910634 0.03214077 -0.007392195 -0.00407856 0.078089334 0.10416077
-0.00833743 -0.034670405 -0.10131955 0.07550401 -0.05728411 -0.0028236057 0.03167781 0.15090916
0.06396561 0.06292057 0.18541119 -0.01621862 -0.10513547 -0.105497584 0.026131652 0.08979058
0.33813435 0.19570045 -0.11627508 0.045157325 0.056386303 0.0614428 -0.061185032 -0.109933816
0.0029552565 0.0071053104 -0.262311 0.1052339 -0.086949155 0.0737352 0.21168703 0.14117017
-0.0929409 0.13635203 0.25707546 -0.047317963 0.003308462 0.08589303 0.109617874 0.020346567
-0.013198348 0.16438921 -0.2837263 -0.12481497 -0.058390934 -0.15488555 -0.13744985 -0.17703785
-0.072296225 0.18901601 -0.068103716 0.10649962 -0.25900277 0.16341326 0.10565153 0.22687456
-0.13144362 -0.0043803384 0.20356432 0.22572598 0.14078759 -0.06526678 0.23212756 -0.12847462
0.0091983 0.13851595 -0.0508493 -0.09654942 -0.032494407 -0.0041335314 -0.18127863 -0.13363934
0.121097334 -0.12229304 -0.09679425 -0.045066632 -0.02035966 -0.0032401762 -0.13647687 -0.094645165
0.014454945 0.026709953 0.13404405 0.1326693 0.039424684 0.0022173855 -0.19391045 -0.062494192
-0.00889046 -0.17797631 -0.079826206 0.23512682 0.17003746 -0.11259371 -0.019446746 -0.11159141
0.012835342 0.042916913 0.01214004 -0.023006907 0.17719334 -0.035491325 -0.12885028 0.07484718
0.20137998 0.08589812 -0.28426355 0.15625672 -0.07054382 0.033583064 0.11549984 0.08569906
0.2092811 0.16413563 -0.22147003 0.033759233 0.1839062 0.16153528 -0.013574521 0.13076806
-0.11233085 0.102326065 0.04937278 0.15439619 0.15651236 0.051818166 0.021400234 -0.0931642
0.0031865325 0.20741853 -0.014043671 0.016677598 -0.2218929 -0.30458653 0.16054668 0.2541271
-0.11711628 -0.037894946 0.06396974 0.28100312 0.008995957 -0.15259093 0.008656093 0.1071421
0.1325228 0.1557781 0.035096776 -0.086598165 0.19178514 -0.14589334 0.12470217 0.032523684
-0.0928287 -0.031736393 -0.06312658 -0.04997163 -0.12640415 0.09914284 -0.025581477 0.12756813
0.16933744 -0.119585834 -0.06254366 -0.23184471 -0.23751128 0.124419324 -0.12793577 -0.064004235
0.15139355 0.14850622 -0.23513645 0.33590874 0.15128352 0.15651803 0.025755787 0.11060321
-0.17291343 -0.16214111 -0.20419817 -0.16013847 0.0637893 0.20129244 0.0010395838 0.13535628
-0.006159286 0.023664717 -0.11956042 -0.052124947 0.2360639 -0.015626777 0.17251623 -0.04481849
0.16742899 0.087562345 -0.09027959 -0.09189353 0.11912164 0.15714957 -0.14511566 -0.060449664
0.1007586 -0.4196418 -0.10504601 -0.06863276 -0.13044909 0.0881813 0.12545371 0.062981084
0.02876637 0.027985074 -0.038452547 -0.09122619 0.05047976 -0.12511513 -0.20298813 -0.11391798
0.015987998 0.1629108 0.13766007 0.069422536 -0.0076715727 -0.028896017 0.21392256 -0.10421838
0.047256276 0.083514914 0.10478993 0.028098654 -0.14461483 0.05104856 -0.054393645 -0.2057899

network_body._body_endoder.seq_layers.2.bias f4 [256]
00000000: 446e c1bb 6354 2bbb 3fcb e53a 5fa2 98bb
00000010: 90a1 093b ca9d 743b affe 92bb 269c 5bba
00000020: 8062 013c 774c 29ba 66f9 003c ca7c 14ba
00000030: cb1d 873b 7a39 32bb ee5a adbb 629c a1bb
00000040: 8334 ae3b fea8 833b 33be 8abb 0fbb 053a
00000050: bacf 50ba f134 633b 7e37 b73b cb40 07bb
00000060: fccd 173c c4ce 843b e102 7bbb 7c49 e6b9
00000070: 5423 acbb b6f2 d4ba 7b72 c6ba f8a9 403b
00000080: 384f d4ba 0c8e 403b fecf a3ba b233 763b
00000090: a17f e13a 9a22 e739 b838 653b d593 5c3b
000000a0: 3451 53ba 09cd 293b a583 c53b 3ded ff3b
000000b0: 593a 913b cf87 833b c68d 0fba 9460 cf39
000000c0: c18d cc39 ae43 9d3b a769 8b3b b7e0 a1bb
000000d0: 73b8 70bb c99b 373b 16dd 20bb 2ac0 3abb
000000e0: 1f44 83bb 33fd ba3b abd7 a53b 58a4 edba
000000f0: c186 5abb 4894 973b 8ec5 933b 1224 963b
00000100: 79ec 2b3b 291c 0c3a 959c b9bb 707e a1b9
00000110: 6e94 15bb 3bc2 faba 0a06 9e3b 17e1 21bb
00000120: 5fb2 84bb 5054 ac3b 77a6 83bb 0703 e73b
00000130: 6fcc 843b 38d6 59b8 675a e53b 6900 c43b
00000140: 31d9 243b 48c9 553a 8f27 9fbb 3d72 80bb
00000150: ea57 80ba f882 10b9 19a5 61bb 55a7 d13a
00000160: 761a 3f3b eae3 003b 3dc3 993a e5a6 1a3b
00000170: ecdc 6bbb 8ef1 6a39 7145 71bb 5c93 753a
00000180: 8555 443a 3750 a0bb 51a1 603b bc71 06ba
00000190: 1e20 653b 796b a2ba 544a eaba f740 163b
000001a0: 9155 a63b 5d8d 5bba 7ff1 3f3b b8f3 70bb
000001b0: 01df f43a 5c0a 78bb 62f7 1e3b 86a4 23ba
000001c0: 42b6 d4ba 79ca 39bb c709 05bb 8bf1 7e3b
000001d0: 0edb bdbb d048 b33b 61d2 9dbb 9d48 31ba
000001e0: 05f1 2a3c 9397 13bb f852 b73a 5a7f e2b9
000001f0: 2e2c 7a3b 7c77 fd3a 4439 423b b903 6cbb
00000200: 9035 e339 9263 933b 48fa be3b ee83 813b
00000210: 9ea0 89bb a08b 1fbb a085 f23b ffe7 a43b
00000220: 5609 7bbb 21f6 f3ba 0cc0 6f3b a4f3 0fbc
00000230: 3ad9 98bb 9578 3cbb a39e 3f3a 22a5 c1ba
00000240: 4e61 5bbb 58f1 0e38 cc7f bdbb 8ba6 483a
00000250: fee2 faba bd93 1d3b 06df 693a 5f57 6bbb
00000260: 3538 053c 081a 9db9 5990 07ba 98a8 7a3b
00000270: 837f 02bb 6a2b 4e3b e6e3 fcba 7ca1 363b
00000280: c53d 40bb ee6e a93a 8885 75bb b6fc 14bc
00000290: 5339 9dbb 4195 57bb 1f13 3e3b 9802 30bb
000002a0: 6dbf 373b c71d 89bb 91bd 363b 0de5 34bb
000002b0: 5e63 933b e77e c23b 346a 5cba dd61 81bb
000002c0: 0bb9 8cba 1ed5 b63a 9adb b4b9 586e 68bb
000002d0: 30ff f8b8 275a 1b3b 4abb 493b c748 6ebb
000002e0: 681b cc39 eca7 63bb 131f 84bb 0611 cf3b
000002f0: e39c dbb8 ad34 a5bb 71e3 4cba 84a6 dcb9
00000300: 3940 7e3b 6ef7 34bb 36c2 00bb 828c 183a
00000310: d43d e3bb 8b42 923b a3bf 67bb 31e9 93bb
00000320: d12f 73bb c6f7 b53a ca61 823a e102 253b
00000330: 345e 21ba e48d bc3b 137a cabb 4bc2 8c3b
00000340: c72d a63b cc9d d439 420e 113a 795b 723b
00000350: c238 2d39 e6cc 5b3b bdde adba 927e 6a3b
00000360: 0a92 ecba 76c7 1d3b a84b 0ab9 98a2 e9bb
00000370: 3d3f 013b a032 793a 75c8 4d3c 7a15 2f3b
00000380: 4b49 3b3b 1d94 243b 34a8 34bb 03f9 9a3b
00000390: c2e2 b53a d15a c43a 8269 39bb 615e 983b
000003a0: d116 903b 51bd a6bb 006b 273b 06f5 42ba
000003b0: 1cba 253b d048 6239 ab7e d63a 9947 a139
000003c0: 7047 a0bb 4a6c 6abb b6fe 7a3b ae45 5fba
000003d0: 9a0d 0b3b 1775 9cbb 1e43 5ebb 59b2 a53b
000003e0: 8e9c 8e3b eeea 72bb 5353 033b a4a5 54bb
000003f0: 3aab 3b3b ef75 dbbb 3923 4b3a eda2 85bb
-0.0059030373 -0.0026142828 0.0017531886 -0.004658028 0.002100084 0.0037325495 -0.004485927 -0.0008377455
0.007897019 -0.00064582325 0.007871961 -0.0005664347 0.0041234246 -0.0027194903 -0.0052903807 -0.0049319724
0.0053163185 0.004017948 -0.0042340993 0.0005101421 -0.0007965524 0.0034669007 0.005591332 -0.0020637985
0.009265419 0.0040529687 -0.0038301277 -0.0004392377 -0.005253235 -0.001624665 -0.0015140319 0.0029398184
-0.0016197925 0.0029381542 -0.00124979 0.0037567434 0.0017204174 0.00044085534 0.0034976434 0.003365745
-0.00080611114 0.0025909564 0.006027656 0.0078102634 0.0044320044 0.0040139924 -0.0005476143 0.00039554073
0.00039015527 0.004799328 0.004254538 -0.004940118 -0.0036731034 0.002801644 -0.002454584 -0.0028495886
-0.0040059234 0.005706453 0.00506111 -0.0018130643 -0.003334448 0.004625831 0.0045096343 0.0045819366
0.0026233478 0.00053447724 -0.005664418 -0.00030802516 -0.0022824067 -0.0019131372 0.0048224973 -0.0024700814
-0.004049584 0.0052590743 -0.004017647 0.0070499214 0.0040526907 -5.193634e-05 0.006999302 0.005981494
0.002515387 0.00081552984 -0.0048570107 -0.0039198683 -0.0009791825 -0.000137817 -0.0034430681 0.0015995303
0.002916006 0.0019667097 0.0011731159 0.0023598012 -0.0035989834 0.00022405965 -0.0036815072 0.00093679666
0.000748955 -0.004892375 0.003427584 -0.0005128642 0.003496177 -0.0012391648 -0.0017874935 0.0022926906
0.0050761183 -0.0008375252 0.002928823 -0.0036766361 0.0018682183 -0.0037847972 0.0024256338 -0.00062424724
-0.0016228633 -0.0028349443 -0.0020300017 0.0038901295 -0.0057939356 0.0054713264 -0.004816339 -0.00067628344
0.01043344 -0.0022520765 0.0013986519 -0.00043200963 0.0038173306 0.0019337977 0.0029636184 -0.003601296
0.0004333672 0.0044979537 0.0058281757 0.003952495 -0.0042000553 -0.0024344698 0.0074011832 0.005032539
-0.0038305125 -0.0018612781 0.0036582975 -0.008786116 -0.0046645673 -0.0028758396 0.00073097105 -0.0014773945
-0.0033474746 3.4080207e-05 -0.005783057 0.00076542114 -0.0019141135 0.0024044358 0.0008921478 -0.0035910232
0.008131077 -0.00029964768 -0.0005171351 0.0038247462 -0.0019912429 0.0031458982 -0.0019293993 0.0027867248
-0.0029333693 0.0012926736 -0.0037463624 -0.009093454 -0.0047980933 -0.0032895359 0.0029003096 -0.0026857015
0.0028037683 -0.004184458 0.0027883986 -0.0027602345 0.0044979295 0.005935538 -0.00084081595 -0.003948434
-0.00107363 0.0013949012 -0.0003449589 -0.003546616 -0.00011873094 0.0023704858 0.00307818 -0.0036359297
0.0003893033 -0.003473754 -0.0040320246 0.006319168 -0.00010471956 -0.00504168 -0.0007815874 -0.00042085734
0.0038795604 -0.00276133 -0.0019647009 0.0005819277 -0.0069348607 0.004463499 -0.0035362027 -0.0045138826
-0.0037107358 0.0013883046 0.0009947356 0.0025178718 -0.00061557 0.0057542194 -0.006179103 0.0042956225
0.005071375 0.0004055336 0.00055334356 0.0036980791 0.0001651971 0.0033538877 -0.0013265234 0.0035781008
-0.0018048894 0.0024075187 -0.0001318889 -0.0071299784 0.001972153 0.000950614 0.01256 0.0026715682
0.0028577622 0.0025112696 -0.0027566077 0.0047293915 0.0013876783 0.0014980679 -0.0028291647 0.0046499227
0.004397251 -0.0050884862 0.0025545955 -0.0007437024 0.0025287932 0.00021580164 0.0016364654 0.00030761657
-0.0048913285 -0.0035770112 0.0038298792 -0.0008517158 0.0021217824 -0.0047747004 -0.0033914517 0.005056661
0.004352159 -0.0037066299 0.0020038679 -0.0032447362 0.0028635995 -0.0066974084 0.0007749084 -0.00407826

network_body._body_endoder.seq_layers.2.weight f4 [256, 256]
00000000: 7a32 243d bd23 503a b4d3 403d faf1 e63b
00000010: 5e6b f83d 0d71 25bd dbe2 16bd 6f84 373d
00000020: 3289 ff3c 2923 753d 7147 c7bd 9d2b 70bc
00000030: 1378 803d 27c0 283d 03d4 91bc ef65 5e3d
00000040: 69ef afbd dacd d53c c411 d7bd dc3b 00bd
00000050: 5be3 5cbd 5565 e23d 0f7d 08bc c786 99bd
00000060: 9eab c23c b764 9d3d 7f2f cbbd b167 ab3d
00000070: 849c 6fbc e665 ffbc b8a1 15be e50d 71bd
00000080: 4d30 623d 85d2 6d3d 1c6f 54bd e5aa d5bc
00000090: 157d e8bd 23a3 493d 79a9 45bc 9424 5b3d
000000a0: 02cf 28bb 8ec5 173e 7654 7abd 0761 70bc
000000b0: c95c 4f3d 91d3 1e3e 12a7 ddbc e174 f03c
000000c0: 6b6b ceba 77ea 913c 936f afbc fb1b 063d
000000d0: 4b73 8c3d 27c8 92bd e8a0 143d 7604 f8bc
000000e0: 1f0c 103c 0a99 b53d 9204 8bbd 0aa7 78bd
000000f0: c208 f93c 691a c63d ce22 3fbc 1f12 5bbd
00000100: cb06 6d3c 734a 503c 1ac6 a83c c4f6 85bd
00000110: f822 a3bd 9db3 d4bd 5d48 1cbc c20f 2fbd
00000120: 3021 8abd 8482 733d 0b32 8bbd 05af 003d
00000130: a3aa cf3b 60ae 513d 02c7 273c 4d0a dfbd
00000140: 94a3 eb3d 7f3b 623b 8eb7 c43d 7dd7 2abd
00000150: 46b5 b73d 1d01 d339 a42b 5ebc 59bc c1bb
00000160: ea61 37bd 6c08 433d 564e 6abd 8220 2d3e
00000170: de78 37bd 92a4 b0bc 5e24 d83c b117 c43b
00000180: 8513 98bb 5a96 dcbc 0c51 5ebc ecd2 89bd
00000190: 7ef8 93bd ce7d 84bd 2b70 14bd 5160 a4bc
000001a0: a3fc e53d f6ed 7e3d 2f93 4abd 384f e23d
000001b0: 3a2e 65bd abb7 6bbc bbf2 183e 39b1 f4bd
000001c0: ae4f 98bd 315e 7a3d e8ea b23c 40cd 9dbd
000001d0: 4746 02bd fe72 263d 7d43 0d3d 5e7b 00be
000001e0: 659c 873d 0862 29bc 8d81 ba3c daf3 bf3d
000001f0: 3a76 b1bc 778f f73c e27b 89bd 6180 ad3d
00000200: 2c16 c0bd cb5a a0b8 b41c 37bd 7504 df3d
00000210: eb2e 3ebd 9620 5e3b 9555 073d bada bc3d
00000220: 148f c73c 76d3 113d 017c 783d 1000 0dbd
00000230: 895b 853d 6ef0 14bc 1d64 c4bc 87bb 44bd
00000240: d955 013d 1421 ca3d 9d92 b9bc 2fd1 a5bb
00000250: c943 09bd e082 1bbd 7caf 1fbd 59a8 493d
00000260: 99b5 823d e5cc fe3d 69b5 bc3d 24b6 1b3d
00000270: 689c 913d ea89 ae3d b17c 293d 8c54 87bd
00000280: 9151 643c b453 3a3d 59dd 07bd b49d 9e3d
00000290: 5922 943c 6d1d 063e af3f 30bd 7cc4 98bd
000002a0: 3f7e 173d 5479 45bd 838c 04bc ba9b 6f3e
000002b0: e9db bcbb fb8a 89bd 028d ae3d 6b06 7f3d
000002c0: 1141 e83c 0b53 993c eec4 2cbd 5987 653d
000002d0: bee0 c33c 80d2 1abd 4637 b13b 92da e8bd
000002e0: 6b57 49bd ed29 47bb 01a3 27bc 29d2 bbbd
000002f0: e826 f03c e4ad 763a 57a6 b73a ff2e 163d
00000300: 8ef0 a63d 9ef5 8f3c e50e e9bd b24d 83bc
00000310: cbda 9e3d 51c7 0bbd 071f 1abd 087d 9a3c
00000320: 4906 333c bc91 85bc 4208 ff3d 4ce7 203d
00000330: ba11 54bc dd89 533c d9a7 4b3a b17d 693d
00000340: 6de4 da3c 7180 813d ff02 85bc ecfe c93d
00000350: 61f0 30bd 5c1a 583c c8a0 d8bd 167c 503d
00000360: d8c8 1fbd 59da 6dbd 2588 8dbd 29d8 e9bc
00000370: 18b8 463d 8f15 933c 829b b6bc d765 44bd
00000380: 85c3 ff3d 2d9e e83c 7e31 bfbd e585 cc3c
00000390: 66f2 aa3d d0c3 453c 9897 e2bc fd3d 26bd
000003a0: a407 393c cd14 bbbc 2847 94bd b488 10bd
000003b0: c86b 973b 5586 333c b5d5 9a3d 8330 d9bd
000003c0: 00e5 e83c d36a 1dbd fb90 0d3d 1914 ef3d
000003d0: 3564 973d 7e0a 6839 0ea7 063d 906c 793d
000003e0: a70b debc 53f5 c93c be0f c23c d482 60bd
000003f0: 7ffb ea3c 60a3 633d a729 f7bc f441 a9bc
0.0400872 0.0007939896 0.047076896 0.007047889 0.12129854 -0.040391017 -0.03683744 0.044804033
0.03119335 0.059847984 -0.09730423 -0.014658836 0.06272902 0.041198876 -0.01780129 0.05429643
-0.08590586 0.026099134 -0.105014354 -0.031307086 -0.05392776 0.11054484 -0.008330598 -0.0749641
0.023763474 0.076852255 -0.099211685 0.08369387 -0.014624719 -0.031176519 -0.14612472 -0.05885114
0.055221844 0.058062095 -0.051863775 -0.026082465 -0.113519825 0.049227845 -0.012064331 0.05350168
-0.0025758152 0.14821455 -0.061115704 -0.014671571 0.050625596 0.15510394 -0.027057204 0.029352607
-0.0015748566 0.017811997 -0.021415507 0.032741528 0.06857928 -0.07167082 0.036286265 -0.030275565
0.008791952 0.088670805 -0.06787981 -0.060706176 0.030399684 0.09673006 -0.011666013 -0.05348408
0.014466952 0.012713063 0.020602275 -0.065412074 -0.07965654 -0.10385821 -0.009538737 -0.042739637
-0.06744611 0.05945064 -0.06796654 0.03141691 0.00633748 0.051191688 0.010240318 -0.108906366
0.115058094 0.0034520326 0.09605323 -0.041709412 0.08970122 0.00040245886 -0.013560209 -0.0059123454
-0.044771113 0.047615454 -0.057203613 0.16906932 -0.044793002 -0.021562848 0.026384529 0.0059842695
-0.004640999 -0.026927162 -0.013569128 -0.06729683 -0.072251305 -0.06469308 -0.036239784 -0.020065458
0.11229827 0.062238656 -0.04945677 0.11050266 -0.05595229 -0.014387052 0.14936344 -0.11947865
-0.07437073 0.061124984 0.021840528 -0.07705164 -0.031805303 0.04063701 0.03448819 -0.12547061
0.06621627 -0.010338314 0.022766853 0.09372683 -0.02166282 0.030219777 -0.06713082 0.08471752
-0.09379229 -7.646306e-05 -0.044705108 0.10889522 -0.046431463 0.0033893934 0.0330406 0.09221406
0.024360217 0.035602055 0.060665134 -0.034423888 0.065115996 -0.009090526 -0.023973519 -0.048030403
0.03157601 0.098695904 -0.022652918 -0.005060337 -0.03351191 -0.03796661 -0.038985714 0.049232814
0.06382293 0.12441424 0.09214289 0.0380155 0.0710991 0.08522399 0.04137868 -0.06607923
0.013935463 0.04548998 -0.033170078 0.07744923 0.018082784 0.13097163 -0.043029483 -0.074593514
0.036985632 -0.04821141 -0.008090141 0.23399249 -0.00576352 -0.067159615 0.08522989 0.06226198
0.028351339 0.018716356 -0.042179994 0.05603728 0.023910876 -0.037798405 0.0054082004 -0.11369814
-0.049155634 -0.003038998 -0.010231734 -0.09170944 0.029315427 0.0009410067 0.0014011365 0.036665913
0.08151351 0.017573174 -0.11379794 -0.016028259 0.07756575 -0.03412563 -0.037627246 0.018858448
0.0109267915 -0.016304843 0.12452747 0.039283082 -0.0129436795 0.012911287 0.00077688467 0.057004634
0.02672025 0.063233264 -0.01623678 0.098630756 -0.043197993 0.013189878 -0.105775416 0.050899588
-0.0390099 -0.05806956 -0.06910733 -0.028545456 0.04851541 0.017954616 -0.022290949 -0.047948685
0.12488464 0.028395737 -0.09335612 0.02496619 0.08347015 0.012070611 -0.027660176 -0.04058646
0.011293326 -0.022837067 -0.072401345 -0.03528662 0.004621003 0.01095732 0.07560293 -0.10604956
0.028429508 -0.038431954 0.034562092 0.11673755 0.0739216 0.00022129153 0.03287416 0.06089455
-0.027105166 0.024653113 0.023689147 -0.054812267 0.028684376 0.05557573 -0.030171229 -0.020661332

network_body._body_endoder.seq_layers.4.bias f4 [256]
00000000: 496c 943b 7e6c be3b 7f89 35bb 4534 c63b
00000010: cae2 8e3b 1859 a23a 904b a23b 4bc0 483b
00000020: d2d9 b6b8 b41f 42bb 098e c8bb 612c 233b
00000030: aa12 baba dc23 83bb d10d eb3b 75c3 52ba
00000040: 4b09 423b 2401 963b 130c 1cbb a39b 7f3b
00000050: ccb1 993b 8f41 78bb 4f71 78bb c067 613b
00000060: e26f c5b8 15f0 153b 632f 233b deed 593b
00000070: 40ce 39bb 7ac7 343a 138a 1dbb 32e2 a0bb
00000080: 0d7a fd3a e471 f8ba c4a5 473b e963 f53a
00000090: 7f6d 66bb c3bd a53b d924 a13b e876 71bb
000000a0: 4365 943b 3651 623b bad4 a33b c433 8a3b
000000b0: fc47 4c3b 77a1 c43b 9968 9d3b 9946 fdb9
000000c0: ceff 6638 de11 36ba 338a 47bb 77fb 913a
000000d0: b859 cebb 012d 2a3b 06fe a6bb 8eac f53b
000000e0: 1342 77bb cda5 1dbb 1ea9 aa3b cd5e bc3b
000000f0: e670 8e3b ec69 67bb 4494 e6ba 44e7 c33b
00000100: 879e e4ba 5817 4a3b c87b 6bbb 6566 77bb
00000110: 7a78 78bb f313 223a bce4 44bb fe44 b0ba
00000120: a571 e7b8 5b65 a5bb faf9 f23a 106b 50bb
00000130: ef86 75bb a951 81bb 991f 03bb 4192 0d3b
00000140: 3f28 99bb 1fbe 163b 9780 83b9 8650 483a
00000150: b5f1 1b3b 26b6 a03b 07d1 32ba c340 d3ba
00000160: 0539 2a3b 1fa0 a63b 2afa 9e3a e87f 123b
00000170: 9458 28bb a0c3 a4bb 5039 603b 6cc4 443b
00000180: 349c d6bb 5e5f 4e3b 69ba 843b eb72 6f3b
00000190: a50a 873b 20bb 7f3b d88f bab9 9505 9bba
000001a0: de19 55bb 4e3d 0b3b 1643 3c3b 4d13 97bb
000001b0: 7598 263b 4a64 8cbb 94a2 7b3b 2c46 873b
000001c0: 3b0e 3c3b 56f4 bbbb 5d86 5cba 2c08 65bb
000001d0: b796 17bb 3c7a 833b d787 723b 2fb1 c1bb
000001e0: 0dac 4cbb d460 d73a ea7c 813b e83c b33b
000001f0: 14ee 4dbb e09f a5ba 6958 7a3b f21a 9b3b
00000200: edab 9ebb 1995 aeba 4ecb a6bb 2bec 61bb
00000210: aaf4 90bb ca86 c73b b866 113b a527 a93b
00000220: 3a1b 5f3b cb00 fdba 63ef ae3b b65c d03b
00000230: 857e 513a d950 4abb 4774 4cba d830 833b
00000240: 22c0 5ebb a183 6d3b 23d3 ea3a d7d6 9abb
00000250: 0d56 70bb 635f b53b b4a9 b53b 599e 93bb
00000260: 7b37 abba 3185 053b bb57 87bb 344b 7a3b
00000270: c4dc a93b f892 8eba d077 82ba aff1 433a
00000280: e2aa ab3b 21af 8239 2cd8 7a3b dc0b b3bb
00000290: 1884 df3b 2a24 b3ba 221d 70bb 8527 b23b
000002a0: 239e 083b 106c 863b 9006 c2bb f72f 96bb
000002b0: 5f1e 893b 9d35 5fbb 6cb6 d03a e188 693a
000002c0: 92e8 413b fe4d a53b 2e30 51bb befe a73b
000002d0: b60d 093b 0970 9c3b 1d95 583b 2e6d 9cba
000002e0: b95a e03a 80e1 ceba 19c7 653b 6d38 8bbb
000002f0: cb40 7d3a 2e35 a0bb c8af 33bb c6cc e0bb
00000300: ff25 41bb 8bf7 86bb 4364 f63a 453a d53b
00000310: efd8 afbb bd3e 8f39 72c0 3ebb 0af3 d83a
00000320: 3cc6 363a f456 923b 75fa 9fbb 1937 49bb
00000330: bc44 df3a be8d 9d3b 0f83 ae3b 824a 803b
00000340: cbe6 85bb 6a3f caba 41b8 e23a f8c9 5d3b
00000350: 7ed6 813b ccd4 9d3b 08ee 95bb c995 713b
00000360: f1a0 f0ba 7201 ccba 1a11 b23b 70c2 913b
00000370: 530f 58bb 7d74 70bb 4acd da3a 454f e53a
00000380: fba2 f7b9 8bd6 a63b c385 5ebb 9a30 9e3b
00000390: dabb 94bb b00d db3a 39a2 bc3b 334c 23bb
000003a0: c852 55bb ae99 9a3b 5723 cf3a fcb5 a0bb
000003b0: e254 68bb 87a0 993b 27ff 5abb 12b5 6fbb
000003c0: 0a94 df3a 6304 ebb8 0cbc 2dbb 766b 8ebb
000003d0: 5407 d83a 8a3c 6bbb 6d48 08bb 85de 80bb
000003e0: 2b2f be3a a3cd 0b3b 1c6d 26ba dcc5 afba
000003f0: bec0 60ba d9d3 803b 4550 79bb d6d3 7e3b
0.00452951 0.005811273 -0.0027700362 0.0060487115 0.0043605315 0.0012386171 0.0049528554 0.0030632194
-8.7190085e-05 -0.0029620947 -0.0061204475 0.0024898278 -0.0014196236 -0.0040020775 0.007173278 -0.00080399896
0.002960759 0.0045777727 -0.0023810908 0.0039002679 0.0046903845 -0.0037880873 -0.0037909334 0.0034394115
-9.414532e-05 0.0022878696 0.002490007 0.0033253352 -0.0028351694 0.00068961794 -0.0024038597 -0.004909777
0.0019338742 -0.001895484 0.0030463794 0.0018721792 -0.003516048 0.0050580218 0.0049177227 -0.0036844555
0.004528673 0.0034533269 0.004999724 0.0042175967 0.0031170836 0.0060006934 0.004803729 -0.0004830852
5.507451e-05 -0.00069454114 -0.0030447363 0.0011137564 -0.0062973164 0.0025966766 -0.0050962 0.0074973768
-0.0037728592 -0.0024055124 0.0052081486 0.005748606 0.0043469546 -0.0035310937 -0.0017591794 0.0059784967
-0.0017442264 0.0030836668 -0.0035931934 -0.003775024 -0.0037913607 0.0006182782 -0.0030043563 -0.0013448296
-0.00011036106 -0.005047483 0.0018537634 -0.0031802095 -0.003746446 -0.003946502 -0.0020007847 0.0021602067
-0.004673987 0.0023001505 -0.00025082074 0.00076413935 0.0023795192 0.0049045263 -0.00068213086 -0.0016117323
0.0025973928 0.005085006 0.0012128998 0.002235407 -0.0025687562 -0.005028203 0.0034213848 0.0030024303
-0.0065493826 0.0031489949 0.004050542 0.0036537002 0.004121142 0.0039021447 -0.00035583857 -0.0011827225
-0.0032516639 0.0021246257 0.002872651 -0.004610455 0.0025420461 -0.0042844163 0.0038396465 0.004128238
0.0028695005 -0.005735914 -0.00084123557 -0.0034947498 -0.0023130605 0.004012374 0.0037007236 -0.0059110145
-0.003123048 0.0016432055 0.0039516585 0.005469907 -0.0031422423 -0.0012636147 0.003819967 0.0047334367
-0.0048422725 -0.0013319581 -0.005090154 -0.0034473042 -0.0044236975 0.006089066 0.002218647 0.0051621967
0.0034043328 -0.0019302604 0.0053385957 0.0063587083 0.000799157 -0.0030870943 -0.0007799309 0.0040036254
-0.0033989032 0.0036241787 0.0017915707 -0.004725318 -0.0036672384 0.0055350526 0.005543912 -0.0045049605
-0.0013062799 0.0020373578 -0.0041303313 0.0038191797 0.005183788 -0.001087754 -0.000995392 0.00074746733
0.0052388767 0.00024926013 0.003827582 -0.00546406 0.0068211667 -0.0013667394 -0.0036638458 0.00543684
0.002084621 0.0041022375 -0.0059211925 -0.0045833546 0.0041845287 -0.0034059056 0.0015923507 0.0008908641
0.0029588086 0.005044698 -0.0031919586 0.005126803 0.0020912713 0.004774098 0.0033047863 -0.0011934394
0.0017116881 -0.0015783757 0.0035061298 -0.00424867 0.0009660839 -0.004889152 -0.0027418006 -0.0068603484
-0.002947211 -0.004118865 0.0018798191 0.0065071904 -0.0053664367 0.0002732183 -0.0029106406 0.0016551923
0.0006972288 0.004465932 -0.0048821517 -0.0030703007 0.0017034034 0.0048081568 0.005325682 0.003915132
-0.0040863506 -0.0015430276 0.0017297344 0.0033842307 0.003962337 0.004816627 -0.0045754947 0.003686296
-0.0018358511 -0.0015564396 0.0054341676 0.0044482276 -0.0032968118 -0.0036690526 0.0016693261 0.0017494938
-0.0004723294 0.0050914935 -0.003395424 0.004827571 -0.004538995 0.0016712453 0.005756643 -0.0024917244
-0.0032550562 0.004718027 0.0015803379 -0.0049045067 -0.0035450985 0.004688326 -0.0033416243 -0.0036576432
0.0017057669 -0.0001120649 -0.002650979 -0.0043463064 0.0016481676 -0.0035894238 -0.0020795122 -0.0039327764
0.0014509907 0.0021332286 -0.0006348656 -0.0013410407 -0.00085736427 0.003931504 -0.003804223 0.0038883588

network_body._body_endoder.seq_layers.4.weight f4 [256, 256]
00000000: 132f ce3d eff9 633d 9271 7bbc 0321 54bc
00000010: 4cf3 a53d 7572 043d 63a9 96bc 135e 453d
00000020: e413 043d f950 7d3c fbf6 033d 99d7 69bc
00000030: 7c1e da3c bd90 833d 3299 43bc 0ed0 d0bd
00000040: 1ade b4bb aa49 a2bd a27c f6bc a0c1 24bd
00000050: 1a13 cb3c 76bc 2c3d 9f5a 03be 661e 783d
00000060: 196f bcba 6152 043d 234b efbd 318a b93d
00000070: 840b 003d ae82 b13c 26b4 1fbd 5c75 d5bc
00000080: 3c07 b03d f849 91bb c1af 42bd 90ba d53c
00000090: 5579 303d fad4 34bd 4bff 4bbd ed75 e5bd
000000a0: 69e7 30bd df73 623d e609 173e 22e0 02bc
000000b0: 2360 17bd e1d6 5f3d 7d42 453c 7198 f13c
000000c0: ab3a 9d3c d559 babd 6fe9 453d dffb ebbc
000000d0: bc8e c83d 4aa2 ec3b fdd8 0ebc 1de9 d8bd
000000e0: 110c 8bbd 7515 833d 2c98 d6bd 189d 213d
000000f0: 55a1 0dbd e5b9 4bbd 5aaa 693d 2a47 c23d
00000100: b44b 82bc 5336 2f3c 39c9 93bc f9d4 b83d
00000110: 0909 3bbd e8a7 0cbb 6426 7c3d 0dcf 26bc
00000120: 6816 ddbd 387e 7c3d da91 a8bb f500 213d
00000130: 4429 823d 81b3 45bb 9cbc 0b3d 3c50 be3d
00000140: 730c 78bd 0c57 0539 78e8 4ebb 1c96 203d
00000150: e357 3abb 29db 77bc 39b9 363b bb0c 393d
00000160: 6b04 b33d 80c6 db3d ad8e 1f3e a7af abbd
00000170: 995f 95bd e919 473e 601f fdbd bd7f 0c3e
00000180: 1aaf 10bd 47ba 033d 016a 603d d297 bcbd
00000190: d063 2abd f3b3 e53c ec9d 5f3d d738 e8bb
000001a0: b0e8 96bc df47 a23b ab83 debd 3e7a 86bd
000001b0: d284 dabd 14bb dc3d de7a 9f3a 073d bebc
000001c0: e75a 63bd 9d2b 7e3d 1904 a93b df8d cb3d
000001d0: 9348 a03c 1a20 05be dd57 ae3c a793 983d
000001e0: 0ba6 9e3d b5b5 a8bd ade6 d5bd 15ae 0bbd
000001f0: 4f15 b1bd cfbc 6e3d a06d 8cbd 4c35 d83b
00000200: ac46 bfbc 0046 65bb 619f a83d 903b 7e3d
00000210: a35a b3bc 53ed 9bbc 0a52 b63d 6c79 863d
00000220: 7e67 c03c 90af e5bc 8c9f 0ebd e61b ccba
00000230: 1e97 bfbc a52f 83bd be93 453c 8d02 a43c
00000240: 4329 ad3d 2b70 b63d bbe8 28bd d192 153c
00000250: 50e2 87bd a781 91bc 662b 9f3d 59c1 8abd
00000260: b4fe 40bd 63f9 4fbd bac2 debd 46f4 44bd
00000270: 1587 7f3b 9b75 903d 7c48 033e 60ad 103d
00000280: c2d3 bb3b b86c 82bd 4843 323a d7ca ddbd
00000290: 7ba2 a63c 784a b1bb 9b9f 0a3d 4f70 76bc
000002a0: c460 813c 999d 8d3a 3d37 7d3d ce2e 413c
000002b0: d88e e63d 258d 80bd eaf0 9cbc 303a a13d
000002c0: e6f8 91bd 7b4c 06bb 4328 1a3d a691 cb3c
000002d0: 779e e9bd 42ba f73b 4f66 56bc 0ba3 0a3d
000002e0: 6479 3f3d f5b8 b9bd ca69 e0bd 10a5 033c
000002f0: d0e3 7a3d ae67 debc e401 5f3d 1be5 60bd
00000300: 5720 f1bc b03d bdbc f7be 26bd 21c1 38be
00000310: 8fdc 943c c264 3f3c 2d6a b9bd 8427 b2bc
00000320: bd13 0dbd 8481 c43b aa86 6d3d 0d25 a93d
00000330: 80de 4dbd ca02 01bc a397 6f3d 7ecd 07bc
00000340: 082a 203d 2b50 27bd 2f73 b83c c2a3 81bd
00000350: d3f9 9f3d b14d a3bb f6dd 37bc 9efa 89bd
00000360: 05a5 debd 29c7 833c 5084 1fbd 74b5 b43d
00000370: 4385 013d 3b86 12bd faa8 2c3c 4709 07bd
00000380: cae1 373c b5b4 28bd 21c0 5f3d 848d aebd
00000390: dbae 843c 0867 a0bd 32ee e33b 8de1 5bbd
000003a0: 08ad 773d 467a fd3d 37b1 04bd 555f 09bd
000003b0: 5127 feba 60dd 983a 501f 08b6 fbe3 893c
000003c0: 6cce 40bd 1bc9 c2bc 15bc ee3c 4e81 8c3d
000003d0: 111f 993b 51c5 05bc 7127 a73a 9707 933b
000003e0: aeff 5fbd fa59 98bd 7994 66bd ac94 36bd
000003f0: 1243 dfbd a838 c9bd cb5f 2d3d 4b67 e63a
0.100675724 0.055658277 -0.0153469015 -0.012947324 0.08103046 0.032335717 -0.018391317 0.04818542
0.03224553 0.0154612 0.03221796 -0.014272594 0.026625864 0.06424091 -0.01193838 -0.10195933
-0.0055196406 -0.079242066 -0.030088726 -0.040223718 0.024789382 0.042171918 -0.12827538 0.060575865
-0.0014376371 0.032305125 -0.11684253 0.09059561 0.031260982 0.021668758 -0.038990162 -0.026056938
0.0859513 -0.0044338666 -0.047530893 0.026089936 0.04308446 -0.044148423 -0.049804013 -0.11204133
-0.04318944 0.055286285 0.1474987 -0.007988008 -0.036956917 0.054648284 0.012039778 0.029491635
0.019193014 -0.09099165 0.048318323 -0.028806625 0.097928494 0.007221495 -0.008718726 -0.10591338
-0.06789411 0.06400577 -0.10478243 0.039456457 -0.034577686 -0.04973783 0.057047226 0.0948623
-0.015905239 0.010694104 -0.018040286 0.09024996 -0.045662913 -0.0021462385 0.06156005 -0.010181201
-0.10795289 0.06164381 -0.00514434 0.039307553 0.06355527 -0.0030166807 0.03411542 0.09292647
-0.060558748 0.00012716296 -0.0031571668 0.039205655 -0.0028433732 -0.015127935 0.0027881397 0.045178156
0.08741077 0.1073122 0.1558177 -0.083831124 -0.072936244 0.19443478 -0.123595 0.13720603
-0.03532324 0.03216007 0.054788593 -0.09208645 -0.041599095 0.028039908 0.054593965 -0.007086854
-0.0184215 0.0049524154 -0.108649574 -0.065662846 -0.10669865 0.1077787 0.0012167355 -0.02322246
-0.055506613 0.06205331 0.005157959 0.09939169 0.019565856 -0.13000527 0.02128213 0.074500374
0.07746514 -0.08237783 -0.104443885 -0.034101564 -0.086466424 0.05828553 -0.06856847 0.0065981504
-0.023349129 -0.003498435 0.08233524 0.062068522 -0.021893805 -0.019034063 0.089023665 0.06566128
0.023486849 -0.028037816 -0.034820125 -0.0015572279 -0.023387488 -0.06405572 0.01205915 0.020020748
0.08455136 0.08908113 -0.041237574 0.009129242 -0.066349626 -0.017762018 0.077719495 -0.067751594
-0.047117904 -0.050774943 -0.10876985 -0.04808452 0.0038990427 0.070536815 0.1282062 0.035321593
0.0057320306 -0.06368393 0.0006800187 -0.10829704 0.020341149 -0.0054104887 0.033843618 -0.015041425
0.015793212 0.0010804414 0.061820257 0.011790944 0.11257714 -0.06276921 -0.019157846 0.078724265
-0.07127552 -0.0020492363 0.037636053 0.024849724 -0.11407178 0.0075600455 -0.013085916 0.033846896
0.046746626 -0.09068481 -0.10957678 0.008034959 0.061252415 -0.027149048 0.054445162 -0.054905992
-0.029434366 -0.023100704 -0.040709462 -0.18042423 0.018171577 0.011681737 -0.090534545 -0.021747358
-0.034442652 0.005996885 0.057989754 0.0825902 -0.05026102 -0.0078742 0.05849422 -0.008288739
0.039102584 -0.04084794 0.022515861 -0.063300624 0.07811322 -0.004983627 -0.011222353 -0.067372546
-0.10871319 0.016086178 -0.038944542 0.08823672 0.03162123 -0.035772543 0.010538334 -0.032967832
0.011223266 -0.04118796 0.054626588 -0.08523086 0.016196659 -0.07832152 0.0069558853 -0.0536819
0.06046775 0.123768374 -0.032395568 -0.03353818 -0.0019390379 0.0011662655 -2.0283805e-06 0.016832342
-0.04707186 -0.023777535 0.029142419 0.068606004 0.004672893 -0.00816472 0.0012752843 0.0044869888
-0.054687195 -0.07439037 -0.05629394 -0.04457538 -0.109014645 -0.098252594 0.042327683 0.0017578391
