Endless Runner/Assets/training/results/Run 2/cfg/cfg-129713.onnx (onnx, 597435 bytes, 8 tensors)

action_model._discrete_distribution.branches.0.bias f4 [3]
000000 0f b4 79 3b bf 43 08 bb 03 00 9f ba
       0.0038101708 -0.0020792333 -0.0012130741

action_model._discrete_distribution.branches.0.weight f4 [3, 256]
000000 55 07 17 3c af 6b 0f 3a 96 a5 45 bc d3 e8 70 3b
       0.009218057 0.0005471063 -0.012063405 0.0036759868
000010 67 15 fe 3b d1 e1 3e b9 06 d4 7e 3c 65 e3 1b 3b
       0.007754016 -0.00018203935 0.01555348 0.002378666
000020 9b 53 3f bb ab 67 43 3b b6 8c 51 bc 6b 5c 4e 3b
       -0.002919412 0.002981643 -0.012789896 0.003148819
000030 44 fa 2c 3b d3 c6 60 bb 35 c8 10 ba c6 22 38 b9
       0.0026394287 -0.0034298196 -0.0005522997 -0.00017560562
000040 47 38 0c 3c c8 7b 72 3c 79 f1 2f bc 2f aa de 3b
       0.008558339 0.01480002 -0.010738724 0.00679519
000050 86 49 63 3c 32 d6 12 bc 64 c6 b1 bb 7a c3 bc 3b
       0.01387251 -0.008962201 -0.0054252613 0.0057606073
000060 d3 c7 8d bb 14 13 c0 3a 1c 6b 6b bb 1d 62 9d ba
       -0.0043267994 0.0014654123 -0.0035921996 -0.001200739
000070 16 4d 5b bb d2 4c c0 3b 2a 14 36 bc 70 cf 67 bc
       -0.0033462695 0.0058685327 -0.011113206 -0.014148578
000080 5d 76 f8 3b 94 57 2f bc a3 5e 0a 3c eb ba 11 bb
       0.0075824694 -0.010702033 0.008445415 -0.0022236656
000090 c0 50 df bb 54 b1 1d 3c 4c b8 41 3b 6e df 5d bb
       -0.006815046 0.009624798 0.0029559312 -0.0033855098
0000a0 cb c0 15 3b df 4b 5a 3b ae c1 85 3b ab 0d 40 3c
       0.002285051 0.0033309383 0.0040819263 0.011722009
0000b0 63 e1 b9 bb b6 5b fc 3b 98 2c 5c 3c 7a 4b e3 3b
       -0.00567262 0.0077013625 0.013438366 0.0069364877
0000c0 46 23 e1 3b 7d 17 50 bb 6b 44 81 bc ab d7 11 bc
       0.00687066 -0.0031752281 -0.015779695 -0.008901517
0000d0 61 23 ee 3a 54 47 be 3b be 3c c8 ba e2 4d 83 3a
       0.0018168503 0.005806843 -0.0015276892 0.0010017718
0000e0 68 bb 9d 3b d8 2b 41 bc f4 82 ee 3b 3f 76 7e 3c
       0.0048136003 -0.011790238 0.0072787944 0.015531122
0000f0 20 21 ce 3b 85 71 a0 39 48 20 23 bc f3 3f 57 3c
       0.00629057 0.00030602157 -0.009956427 0.013137805
000100 5d fa 01 3c a2 3c 06 3c 8b 7d 3c bc c8 d5 87 bc
       0.007933226 0.008193167 -0.011504541 -0.016581431
000110 fc c8 22 bc 89 50 18 39 40 49 4d bc 93 46 c6 ba
       -0.009935614 0.00014525851 -0.012529671 -0.0015127234
000120 22 e0 8a 3b 12 10 cc bb 8c 7f a9 3b 5a bc 25 bc
       0.0042381445 -0.0062275017 0.0051726755 -0.010115707
000130 c9 05 21 bc 39 a1 4c bb a5 42 19 bb cd 02 77 3b
       -0.009828039 -0.0031224026 -0.002338567 0.0037690878
000140 a4 42 33 bc 52 b8 a7 3b 7a 54 99 ba 1d eb 12 bc
       -0.010941181 0.0051184082 -0.001169815 -0.008967188
000150 35 42 29 ba b6 0f ee 3b a4 09 0d 39 4e 4f 6b 3b
       -0.0006456704 0.0072650565 0.000134504 0.0035905424
000160 40 bb b6 ba 6f 2c a0 3b e3 58 f9 ba fe 6a a4 3b
       -0.0013941303 0.0048881094 -0.0019023683 0.0050176373
000170 f6 57 ac bb f8 04 df bb ff d4 22 3c 03 8c 65 3c
       -0.005259509 -0.0068060122 0.009938478 0.014010432
000180 d7 54 c4 bb a0 80 05 3c b4 dc 2c 3b 7a 9d e6 3b
       -0.005991559 0.008148342 0.0026376667 0.0070378156
000190 a5 35 31 b9 e3 5b 5c 3b e5 03 3a 3a 0e 80 c0 3b
       -0.0001690002 0.0033624105 0.0007095917 0.0058746403
0001a0 9a 4e ca bb 61 90 85 3a 34 2c 68 bb fd f3 d1 ba
       -0.006173921 0.0010190123 -0.0035426738 -0.0016018149
0001b0 25 37 59 3b 18 47 89 3a 7b 65 cb 3b 0c 10 d7 3a
       0.003314444 0.0010473458 0.006207166 0.0016407981
0001c0 65 e5 fa 3b 03 ae 9f bb 81 88 54 bc ef 31 0c bc
       0.0076567405 -0.0048730387 -0.012971998 -0.008556827
0001d0 0f 4d 4e bb 98 e1 82 3a 82 a9 a5 3b 12 74 47 ba
       -0.0031479036 0.0009985445 0.0050556073 -0.00076085434
0001e0 47 c3 2b bb 21 5c 15 3c 95 5e aa bb b9 56 63 bb
       -0.0026208924 0.0091162035 -0.0051992633 -0.0034689142
0001f0 c3 f0 9e bb 73 1e 26 bc f1 cd 21 3c 38 76 eb 3b
       -0.0048504784 -0.010139096 0.00987576 0.0071857236
000200 4d 3e 6d bc 6e 69 56 ba fd 53 0c bc bf 0e c0 b7
       -0.014480186 -0.00081791624 -0.008564946 -2.289505e-05
000210 7b 52 1b bc 9c 3f 69 ba 77 93 33 3b af 46 d9 3b
       -0.009480114 -0.0008897723 0.0027401128 0.0066307406
000220 bf d5 be 3b 11 20 07 bc ca e8 16 3c c4 fd 81 bb
       0.0058238204 -0.008247391 0.009210775 -0.003967019
000230 d2 58 65 bb 33 32 28 bb 4a d5 07 3b 4e 93 ca 3b
       -0.0034995568 -0.0025664687 0.0020726495 0.006182111
000240 24 a2 a4 bb 09 3f e8 3b 20 bd 80 bb ed dc 59 bc
       -0.0050242115 0.0070875925 -0.0039287955 -0.013297302
000250 6e 4f bf bb 44 74 6c 3a 84 d0 4a 3c f6 a7 09 bc
       -0.005838326 0.00090200105 0.012378816 -0.008401861
000260 58 0e 38 bb 44 bf 80 b8 23 e9 6a bc 2f 47 86 3c
       -0.0028084721 -6.1391416e-05 -0.014337811 0.016391365
000270 c8 74 f4 b9 c6 97 e0 bb 26 bf 87 3b c5 af 10 bc
       -0.00046626315 -0.0068540303 0.0041426597 -0.008830969
000280 21 68 2e 3c 65 49 01 bc 44 f9 ad 3b a6 af bf bb
       0.010644943 -0.007891034 0.005309256 -0.0058497963
000290 7d 7a 5d 3a 57 89 c9 bb fb 37 3f bc 05 29 be 3c
       0.0008448733 -0.0061504054 -0.011671062 0.023212919
0002a0 1c 71 b9 b8 43 db 57 3b e7 f3 07 bc e7 b8 67 bc
       -8.842556e-05 0.0032937087 -0.008297897 -0.014143205
0002b0 89 e8 d7 3a 5f 81 93 bb 70 a3 44 3a 67 8f 12 3c
       0.0016472499 -0.004501506 0.0007501161 0.008945323
0002c0 e4 51 fa b9 47 ea 0b 3c 68 11 44 bb 96 d9 47 39
       -0.0004774473 0.008539743 -0.0029917601 0.00019059176
0002d0 72 da f3 3b de 46 c8 3b 4f bd b3 b9 cb b2 9c ba
       0.007441812 0.0061119637 -0.00034282586 -0.001195514
0002e0 1f 3c 4f bb a2 15 37 bb 42 c4 c3 3b c7 0f 35 bc
       -0.0031621528 -0.0027936478 0.0059743235 -0.011051125
0002f0 ae 44 a8 bb 1c 32 4d bc 34 5b 0c bc 17 be 60 bc
       -0.0051351404 -0.012524154 -0.008566666 -0.013717196
000300 21 b4 02 bc f0 eb de bb e7 8d 0a 3c 75 c2 33 3a
       -0.007977516 -0.0068030283 0.008456684 0.00068572845
000310 99 0d 1e bc 62 4c 67 3b 05 b3 02 bc db e2 f1 bb
       -0.009646797 0.003529333 -0.007977252 -0.0073817796
000320 ea 82 65 3b b8 d0 3c 3b c1 27 bf bc 7c 8f 34 bc
       0.0035020658 0.002881093 -0.023334386 -0.0110205375
000330 d0 e1 f9 3a 82 d6 8b 3b 22 a6 1c 3c db 1c ce b9
       0.001906449 0.0042675147 0.0095610935 -0.0003931288
000340 79 e0 13 bc 7d 35 57 bb e1 57 d6 ba 04 27 31 3c
       -0.009025686 -0.0032838278 -0.0016353094 0.010812525
000350 f4 9c 33 3c 48 8e c8 3b 1a e5 ec bc 91 74 b5 3b
       0.0109627135 0.006120477 -0.028917838 0.0055375774
000360 3e f0 d9 39 f9 48 c2 bb 80 68 7d 3c 1e 2a 1b 39
       0.0004156846 -0.005929109 0.015466809 0.00014797642
000370 7d 25 09 bc e7 40 78 bc 2b c1 3d b9 b2 2e 82 bb
       -0.008370754 -0.015152193 -0.00018096405 -0.0039728517
000380 ca 06 12 3b de a1 a5 39 5a 65 56 bb 10 74 8d 3b
       0.0022281879 0.00031591853 -0.0032714219 0.0043168142
000390 49 ff 11 bc 7f 28 ee 3b 94 04 7e 3c 07 80 d9 bb
       -0.008910962 0.007268011 0.015504021 -0.0066375765
0003a0 ba c3 25 bb 05 e5 74 3c 37 70 66 3b c1 80 41 bc
       -0.0025293664 0.014947181 0.00351621 -0.0118104825
0003b0 94 34 33 bc f7 1f 43 3b f7 b1 29 3b 23 4a 8e bc
       -0.010937829 0.0029773691 0.0025893429 -0.017369336
0003c0 93 1b d8 bb 94 79 a9 3b b5 a4 f0 bb d9 ed ff 3a
       -0.006595084 0.005171964 -0.0073438534 0.001952584
0003d0 5e 4e cc 3a 9f cf 77 bc e2 cc fd bb b0 0c 3d 3b
       0.001558732 -0.015125184 -0.007745371 0.0028846674
0003e0 fc 4d d4 38 d4 f7 03 3c cf d8 d6 ba 92 4d 36 bc
       0.000101234735 0.008054692 -0.0016391518 -0.011126893
0003f0 96 76 18 bb 78 02 69 3c 38 6d b6 bb 98 33 4a 3c
       -0.0023264042 0.01422178 -0.005567219 0.0123414025

network_body._body_endoder.seq_layers.0.bias f4 [256]
000000 ef b1 7e 3b 49 9a 90 3a de 92 54 3b 39 87 11 3b
       0.003886338 0.0011032309 0.0032436172 0.0022205843
000010 2f 9d ad ba 88 5c ec ba e7 f5 6c ba 57 b8 74 3b
       -0.0013245697 -0.0018032948 -0.0009039328 0.003734132
000020 b4 fe b1 3a 8d 7d 0f 3b c6 93 60 3b c1 5e 37 b9
       0.0013579936 0.0021894902 0.0034267767 -0.00017487539
000030 4c 53 5c bb 83 ca ad bb fb a2 2e ba d4 f2 0b bb
       -0.0033618985 -0.0053036823 -0.0006661859 -0.0021354454
000040 a9 2c 57 3b ea 27 12 bb 91 2f e1 bb 1f ab 81 3b
       0.0032833016 -0.0022301623 -0.0068721254 0.003957167
000050 35 60 fb 3a c6 ab 04 bb 3b 9c b1 3a 40 9f 9b bb
       0.0019178452 -0.0020243987 0.0013550589 -0.0047492087
000060 f7 61 a2 3b 2e 0c 84 3b fc 9c 00 3b 6d c6 43 3b
       0.004955526 0.0040297722 0.001962482 0.002987291
000070 2e 00 e1 3b 14 42 5f bb a6 d1 30 ba 53 ea d1 3a
       0.0068664765 -0.0034066485 -0.0006745107 0.0016015269
000080 5b 5c 6e bb 0b e4 2f bb f0 8f a5 3b bc 32 36 bb
       -0.0036370966 -0.0026838805 0.005052559 -0.0027801236
000090 50 d0 88 3b 20 ad 22 bb 19 3d 05 bb c0 a6 55 3a
       0.0041752234 -0.0024822429 -0.0020330606 0.0008150153
0000a0 7c 4c f1 3a c1 90 06 39 5b cd 7c 3b 83 73 41 3b
       0.0018409635 0.00012833161 0.003857455 0.0029518313
0000b0 c6 7b ee ba 9a ce 1d bb f5 f7 8d 3b c8 b5 41 3a
       -0.0018194846 -0.0024079443 0.0043325373 0.0007389453
0000c0 bb 85 da ba 6e 7d f3 3a c8 43 72 3b 88 95 ca ba
       -0.0016671935 0.001857681 0.003696667 -0.0015455941
0000d0 0c 7a 64 3a 74 ab a2 3a 1b c9 af b9 5f cd 93 3b
       0.0008715696 0.0012410716 -0.00033528436 0.004510566
0000e0 6f b8 78 bb 3d 2f 14 b8 d9 f7 70 bb a7 69 5b ba
       -0.0037951728 -3.5329944e-05 -0.0036768822 -0.00083699304
0000f0 61 f4 8d 3a 9b 51 b7 ba 14 83 2b 39 13 c3 92 3a
       0.0010830277 -0.0013986112 0.00016356661 0.0011197053
000100 72 db 1a 3b c1 45 1b 3a 4c 4e 32 3c 8b c9 02 bb
       0.0023629335 0.0005923175 0.010882925 -0.0019956555
000110 c6 76 0f bb 14 e4 3e 3a 13 b4 55 bb 9e 80 53 bb
       -0.0021890863 0.0007281911 -0.0032608553 -0.0032272707
000120 b3 a4 d4 ba ba 56 23 bb 10 f4 41 3b 2d 26 93 3b
       -0.0016223401 -0.002492352 0.0029594935 0.004490635
000130 9a 09 60 ba 30 f1 d7 b9 73 0d c1 bb 82 27 0b 3b
       -0.00085463526 -0.00041187694 -0.005891496 0.0021233265
000140 8b b8 de 3a 9b a6 76 bb 49 6e d8 bb 28 ea 8a 3a
       0.0016992254 -0.0037635926 -0.006604944 0.0010598348
000150 cd 70 c0 ba df 10 3b 3b 4c 9c b6 bb 4e 68 6b bb
       -0.0014682055 0.0028543992 -0.0055728313 -0.0035920325
000160 15 3a 37 3b 09 b1 aa 3a 53 b2 06 3b 4f 18 81 bb
       0.0027958204 0.0013022731 0.0020553067 -0.0039396654
000170 72 dc f9 3a 5f 13 a7 3b 7b 90 02 39 8a 64 2e 3b
       0.001906289 0.0050987448 0.0001245159 0.002661022
000180 d1 6f 1a 39 38 ae 10 3a 14 20 58 b9 bc 1e 6c 3b
       0.0001472824 0.00055191247 -0.00020611315 0.0036029061
000190 57 16 9f 3b 05 6a e4 ba f0 2b 5b 3b a5 93 ab 3b
       0.004854958 -0.0017426616 0.0033442937 0.0052361065
0001a0 24 e1 81 3b e0 c5 7e bb 6d 5d 1b bb 32 17 b5 3a
       0.0039636064 -0.0038875267 -0.002370681 0.0013816117
0001b0 25 b6 8b bb 2b fc 87 3a 06 bf 6f 3a 58 8d 91 3b
       -0.0042636567 0.0010374835 0.0009145591 0.0044418983
0001c0 7e f1 44 3a 55 90 25 bb 8f 5c 4d 3a 4a e3 21 3b
       0.0007512792 -0.002526303 0.00078339217 0.0024702125
0001d0 8d 36 5c 3a cb d5 d6 3b 97 90 17 ba 4c b5 1f ba
       0.00084004627 0.006556248 -0.00057817384 -0.0006092384
0001e0 d4 f0 e1 ba 36 7c 26 bb ca 19 6b bb a0 ac 9b 3a
       -0.001723791 -0.0025403625 -0.0035873526 0.0011877008
0001f0 48 c9 0c bb 46 ef 71 3b 1e 60 8b 3a a7 3e 71 ba
       -0.0021482278 0.00369163 0.0010633504 -0.00092027563
000200 b2 b6 d6 ba 2d be cd 3a 9b 3c 80 bb 68 11 71 3b
       -0.0016381352 0.0015696936 -0.0039134747 0.0036784057
000210 c4 0a 30 ba c7 4d 34 bb d1 9b 6f b9 a9 72 37 bb
       -0.00067154714 -0.002751218 -0.00022850862 -0.0027991927
000220 1e 47 48 38 96 7b 59 3a 84 38 e7 3a ac 3d 18 3b
       4.774995e-05 0.0008296309 0.0017640744 0.0023230119
000230 ae 56 e0 bb 0d 21 b4 3a eb ec be 3a 5b 7c 69 39
       -0.0068462705 0.001374276 0.0014566457 0.00022266938
000240 ad 45 05 3b 65 d4 a3 bb 67 09 aa b9 0a 36 34 bb
       0.002033572 -0.0049996846 -0.00032431932 -0.002749803
000250 5b f5 c4 3b 69 7d a6 ba b1 72 ed 3b 80 fa b2 3b
       0.006010694 -0.001270217 0.0072463383 0.005461991
000260 12 c5 0e bb 51 77 fc ba 2c cd 36 bb 88 02 02 3c
       -0.0021784944 -0.0019261633 -0.0027893288 0.007935174
000270 91 e5 47 bb d8 d3 83 bb cf ff 26 3a 5b ee 69 b9
       -0.0030501822 -0.0040230565 0.0006370516 -0.00022309406
000280 7d ae 8f 3b 36 46 3a bb 66 b8 77 ba f1 89 00 3b
       0.0043848143 -0.0028423197 -0.000944978 0.001961347
000290 41 26 83 38 3c a9 f8 3b 1b 60 94 39 36 9b 22 38
       6.253692e-05 0.0075885337 0.00028300364 3.876836e-05
0002a0 23 2b 4e bb 4f b9 bc 3b 53 e7 ac 3b 6b dc 3d b8
       -0.0031458817 0.005759395 0.0052765994 -4.526639e-05
0002b0 a4 45 73 3b 03 6d fa 3a 8e a5 e4 ba fc a2 c2 3a
       0.0037120366 0.0019105974 -0.0017444359 0.0014849599
0002c0 4e 40 cb 3a 99 82 b9 3a 87 ee cb 3b cb 54 24 3b
       0.0015506835 0.0014153301 0.006223503 0.0025074955
0002d0 2d dd a0 ba 08 0a 69 bb c2 ce 04 bb b5 2d 9f 39
       -0.0012272947 -0.0035558958 -0.0020264839 0.00030360898
0002e0 84 c4 85 3a ee 95 53 3b f7 35 ce 3a 67 00 1b bb
       0.0010205661 0.003228541 0.0015732636 -0.0023651363
0002f0 34 bd 73 3b 5b 4e 2f bb d3 bc 17 3b 33 74 f6 b8
       0.0037191631 -0.0026749584 0.002315332 -0.00011751838
000300 d9 7c 74 3b 2e 97 8f bb 54 4f 30 3b 54 f2 1a bb
       0.003730586 -0.0043820357 0.0026902752 -0.0023642974
000310 f4 cd 5d 3b 92 a7 b5 3a ab 0c 24 bb f5 40 da ba
       0.0033844681 0.0013859144 -0.0025031965 -0.0016651439
000320 16 ed ef 3a 33 11 a3 3a 62 af 56 bb e0 e2 b9 b9
       0.001830491 0.0012441039 -0.0032758345 -0.00035454985
000330 c0 37 fe ba ef e5 ee b8 94 c8 10 3b 52 12 c1 3b
       -0.0019395277 -0.00011391553 0.002209221 0.0058920765
000340 c4 96 ab ba 7f 6e 32 39 cd fe cb 3a 5c dc 8c 3b
       -0.0013091196 0.00017016566 0.0015563607 0.00429873
000350 0b e2 6f b8 db 11 4a bb eb ce 21 39 dc c8 06 bb
       -5.719256e-05 -0.0030833397 0.0001543124 -0.00205665
000360 0e bd 59 bb 37 22 18 3a 9c f8 85 3b 83 6a 79 3b
       -0.0033224258 0.0005803438 0.0040884744 0.003805787
000370 9a 0a b5 3a f6 3a 38 3b 8e a1 db 3a fc 58 5b 3b
       0.0013812364 0.0028111315 0.0016756521 0.0033469787
000380 f4 22 db 3a 89 54 7e 3b e6 4e 5e bb cc 57 e7 3a
       0.0016718791 0.003880771 -0.003392154 0.0017650067
000390 67 0f b5 3a e4 2b 9e 3a 95 84 b4 b9 16 75 a4 ba
       0.0013813794 0.0012067524 -0.00034431057 -0.0012547101
0003a0 77 66 d4 ba b7 75 e0 bb 0d 6c 78 ba bd 23 14 3b
       -0.0016204853 -0.00684997 -0.000947655 0.002260431
0003b0 5f 87 8c bb f1 d9 40 3b 37 82 1b bb 38 ff 37 3b
       -0.0042885984 0.0029426778 -0.0023728737 0.0028075706
0003c0 77 d1 c9 b9 b3 82 6f ba f1 01 c2 3b bd d3 bf 3a
       -0.0003849377 -0.0009136602 0.0059206416 0.0014635246
0003d0 f7 b2 0e 39 3b a7 a7 bb bc 17 20 3b f4 8a 24 3b
       0.00013608845 -0.005116371 0.002442821 0.0025107237
0003e0 79 3f 84 3b 18 6f 12 3b a9 2d b3 3b 28 17 19 bb
       0.004035887 0.002234405 0.0054680896 -0.002335975
0003f0 ed 0e 10 3b 26 cc a4 3b 93 83 56 3a e2 68 78 bb
       0.0021981553 0.005029219 0.0008183058 -0.0037904312

network_body._body_endoder.seq_layers.0.weight f4 [256, 63]
000000 b8 f2 55 3e c9 0b 13 be 7c ae d6 3d 59 0a 57 bc
       0.20893371 -0.14359964 0.10482499 -0.013125026
000010 51 67 61 3e e7 cd f5 bc a4 af b4 bd 25 6a c7 bd
       0.22012068 -0.030005408 -0.08822563 -0.09737042
000020 85 88 ea bd 0a 08 f2 3d a3 23 10 be ff 36 87 3c
       -0.1145182 0.118179396 -0.14076094 0.016505716
000030 4c 88 1c 3d de 98 93 3d 7b 78 e9 bc bb b8 0c be
       0.03821592 0.072068915 -0.028499832 -0.13742344
000040 68 1b 89 be c4 c1 85 be f8 ac 06 3e d5 e4 f5 3c
       -0.26778722 -0.26124394 0.1315192 0.030016342
000050 36 14 1a bc d8 d7 b0 bb b0 d4 9d 3d 04 bd d6 3d
       -0.009404233 -0.0053968243 0.077065825 0.104852706
000060 07 e7 ae bb a8 fc 16 bd 7f ba d3 bd c9 93 91 3d
       -0.005337599 -0.036862046 -0.10338306 0.07108266
000070 75 78 67 bd f4 41 7b ba 73 f9 16 3d 51 0f 18 3e
       -0.05651136 -0.0009584718 0.036858987 0.14849593
000080 33 f4 7c 3d 2d 12 46 3d 64 00 41 3e 33 75 74 bc
       0.061756324 0.048357178 0.18847805 -0.014920521
000090 26 f7 cc bd b6 4c dc bd 66 67 c5 3c 62 8b ac 3d
       -0.10008077 -0.10756819 0.024097156 0.08425023
0000a0 b2 08 ad 3e 75 0d 48 3e a4 68 e5 bd 23 a2 30 3d
       0.33795696 0.19536383 -0.11201599 0.043123376
0000b0 12 ab 5e 3d 38 c0 61 3d 4d 7b 79 bd 84 02 e2 bd
       0.054362364 0.055114955 -0.060908604 -0.11035636
0000c0 2a 9f ea 3b 5f b5 a6 3b bf 55 87 be fc bd c9 3d
       0.007160087 0.005087539 -0.26432607 0.0985069
0000d0 c3 29 af bd 77 c5 97 3d 22 21 5d 3e 07 7e 0e 3e
       -0.08552887 0.0741071 0.2159467 0.13915263
0000e0 fa 77 c2 bd 04 f3 06 3e 1f ea 83 3e d3 96 41 bd
       -0.0949554 0.1317864 0.25764558 -0.047262978
0000f0 a4 e0 f4 3b 5b c6 ab 3d 11 5f dc 3d 1f 33 e8 3c
       0.0074730683 0.08387443 0.1076032 0.028344689
000100 19 2c 9d bc a8 2a 27 3e d1 d0 8e be 9b 79 03 be
       -0.019186066 0.16324866 -0.2789369 -0.12839358
000110 c9 0a 72 bd cd 8e 16 be 62 d5 11 be ef 36 36 be
       -0.059092317 -0.14702912 -0.14241555 -0.17794393
000120 8d ca 89 bd c1 37 3e 3e 58 74 8d bd d7 a6 d5 3d
       -0.067280866 0.18575956 -0.069069564 0.10432213
000130 db ca 83 be 88 3f 28 3e 28 bc db 3d 93 42 66 3e
       -0.25740704 0.16430485 0.10729247 0.22486334
000140 ca 2b 08 be 6a 26 be bb b2 ff 50 3e 42 a7 67 3e
       -0.13297954 -0.005802919 0.2041004 0.22622398
000150 cf 24 0f 3e 98 03 83 bd 29 fa 6b 3e d8 85 04 be
       0.13978885 -0.0639717 0.23044647 -0.12941682
000160 ee 2c 20 3c 25 63 0e 3e f9 27 50 bd 6c 44 c5 bd
       0.009776337 0.13905008 -0.05081937 -0.09632191
000170 16 2e 12 bd 5f d6 0a bc 56 c1 38 be fc 1a 08 be
       -0.035688482 -0.008473962 -0.18042502 -0.13291544
000180 00 d6 07 3e c3 38 02 be a7 a9 cb bd 2c aa 43 bd
       0.13265228 -0.12716965 -0.09944468 -0.04776971
000190 ad 12 a2 bc d6 72 2f bb b3 28 08 be e4 fe c3 bd
       -0.019784296 -0.0026771328 -0.13296776 -0.09570101
0001a0 0d fc 5f 3c 02 fa ba 3c fd fa 09 3e b9 8e 08 3e
       0.013670933 0.022824291 0.1347465 0.13335694
0001b0 7a 60 36 3d d8 e6 5e 3a 74 28 47 be 7d e0 87 bd
       0.0445256 0.00085030263 -0.19449025 -0.066346146
0001c0 e7 5c 06 bc 96 8c 35 be 66 a5 9f bd a7 cf 6f 3e
       -0.008200861 -0.1772941 -0.07795219 0.23419057
0001d0 90 98 2d 3e 6c a4 ee bd 84 a8 99 bc 40 24 e3 bd
       0.16952729 -0.11652455 -0.018757112 -0.110908985
0001e0 0c 0c 51 3c 56 d0 2f 3d 67 96 46 3c 73 28 db bc
       0.01275922 0.042923294 0.01212082 -0.026752686
0001f0 06 27 36 3e 64 93 0e bd 8f 3e 0a be 61 6e a2 3d
       0.17788324 -0.03480853 -0.13500427 0.07931209
000200 c0 3e 4f 3e f1 ba a5 3d bf c4 8e be d0 61 21 3e
       0.20238781 0.08092297 -0.2788448 0.15759969
000210 23 d7 9d bd 82 83 17 3d 07 40 ee 3d 7d 54 ab 3d
       -0.0770705 0.03699065 0.11633306 0.08365724
000220 b6 2d 58 3e 56 0e 29 3e 42 bb 61 be 91 2e 07 3d
       0.21111187 0.16509375 -0.2204409 0.033003394
000230 b2 cd 3b 3e 40 7b 23 3e 30 51 3a bc ed 29 07 3e
       0.18340185 0.15964985 -0.011371896 0.13199587
000240 d4 7b e3 bd f5 98 d0 3d e7 7e 48 3d a3 7b 1f 3e
       -0.11107603 0.10185424 0.04894915 0.15574507
000250 7d b5 1e 3e 70 9e 57 3d 6f e3 bb 3c 3c c6 bf bd
       0.1549892 0.052641332 0.022935597 -0.09363982
000260 ca 37 34 3b eb 98 53 3e 90 cd 63 bc b1 4c 98 3c
       0.0027499073 0.20663802 -0.01390399 0.018591257
000270 99 ce 5f be 35 41 9c be 3e e0 23 3e ef 65 7c 3e
       -0.21856155 -0.305185 0.1600351 0.2464826
000280 7a fa ea bd 28 cb 15 bd dd 40 88 3d 0a a4 8f 3e
       -0.11473556 -0.036570698 0.06652997 0.2805484
000290 9a 22 0c 3c e7 ff 1e be 23 20 17 3c 63 50 dc 3d
       0.0085531715 -0.15527306 0.009223971 0.1075752
0002a0 0f 43 0a 3e 0d 04 1f 3e 0f c9 0d 3d 44 15 ba bd
       0.13502143 0.15528889 0.034615573 -0.09086087
0002b0 17 81 45 3e 46 e3 14 be 2a 46 02 3e 4f 49 03 3d
       0.19287525 -0.14539823 0.12722078 0.032052334
0002c0 a6 13 bf bd a8 f2 16 bd 86 a8 79 bd 72 ab 47 bd
       -0.093299195 -0.03685251 -0.060951732 -0.048747487
0002d0 ad 87 fd bd 5e 14 ca 3d 99 69 d5 bc c3 9d fd 3d
       -0.12379394 0.09867166 -0.02605133 0.12383606
0002e0 5e 24 2f 3e 10 a9 f2 bd 3c ff 75 bd 28 e4 6d be
       0.17103717 -0.11848652 -0.060057864 -0.23231566
0002f0 55 b1 73 be c9 a6 f5 3d 94 69 fe bd 4a 71 83 bd
       -0.23798116 0.11994702 -0.12422481 -0.064180925
000300 59 94 19 3e 67 ea 18 3e 80 a6 70 be 67 4f aa 3e
       0.14997996 0.14933167 -0.23501015 0.33263704
000310 c8 72 1c 3e 1d ce 1f 3e 67 a0 b4 3c 42 9e e6 3d
       0.1527816 0.1560597 0.022049142 0.11260654
000320 b4 15 30 be cc fb 24 be 38 ad 52 be 99 43 25 be
       -0.17195779 -0.16111678 -0.2057389 -0.16139068
000330 ff 80 6e 3d d4 e5 52 3e f2 24 50 3b 4c 84 0d 3e
       0.05822849 0.20595485 0.0031760302 0.13819999
000340 1e 90 f7 bb e6 4d b8 3c 91 c2 fe bd 31 ed 49 bd
       -0.007555022 0.022498082 -0.12439454 -0.04929847
000350 d4 21 74 3e 11 3c 52 bc 0e 91 2f 3e 04 85 3b bd
       0.2384103 -0.012831704 0.17145178 -0.04578115
000360 28 87 23 3e 24 7d ba 3d 35 13 b3 bd bc 43 b3 bd
       0.15969527 0.091059 -0.08743898 -0.08753154
000370 66 76 f1 3d e2 d5 1f 3e 92 cc 21 be 55 18 6b bd
       0.11790161 0.15608934 -0.15800694 -0.05739625
000380 0a 3c d1 3d da 48 d5 be 16 2a d9 bd fb 81 8e bd
       0.1021653 -0.41657144 -0.106037304 -0.069583856
000390 28 c6 07 be 56 f7 b3 3d 3b 3c 00 3e 48 de 84 3d
       -0.13259184 0.0878741 0.12522976 0.06487709
0003a0 18 b1 e4 3c 03 4c de 3c f8 5f 2a bd 63 09 bb bd
       0.027916476 0.027135855 -0.04159543 -0.0913265
0003b0 2b 27 4d 3d 55 58 fc bd 64 b1 50 be 3b fe ea bd
       0.05008618 -0.123215355 -0.20380169 -0.11474272
0003c0 84 f9 42 3c f7 b2 27 3e fe 29 0d 3e 93 20 92 3d
       0.0119003095 0.16376863 0.1378555 0.07135119
0003d0 ec 03 0b bc 4f 74 f3 bc 42 6c 59 3e c1 50 d5 bd
       -0.008484822 -0.029718546 0.21232703 -0.10415793
0003e0 fb f1 40 3d 02 d6 ae 3d 41 f1 d4 3d 8d 71 df 3c
       0.04710577 0.085369125 0.10397578 0.027275825
0003f0 63 c0 0c be b9 26 3f 3d c6 22 5e bd b8 7c 4e be
       -0.13745265 0.04666779 -0.05423238 -0.20164764

network_body._body_endoder.seq_layers.2.bias f4 [256]
000000 ec 8b 43 bb 62 d7 df ba f4 5f 84 3a 43 40 87 bb
       -0.0029838039 -0.0017077739 0.0010099397 -0.0041275336
000010 a6 74 56 3a 18 1d 9f 3b 13 ef 76 bb 6c a0 2b 39
       0.0008180834 0.004855763 -0.003767912 0.00016367593
000020 d2 9c 41 3b b8 fa ff ba 66 66 94 3b 0c b0 b6 3a
       0.0029542935 -0.0019529676 0.0045288084 0.0013937964
000030 fb 8e 3b 3b a1 bd 07 bb 4c 8d 3e bb 7c 86 4c bb
       0.0028619159 -0.0020712393 -0.0029075919 -0.0031208089
000040 44 86 6c 3b 3a f4 bc 3a 9d d1 52 bb db 89 7f 3a
       0.003609077 0.0014416047 -0.0032168396 0.000974802
000050 db 28 2d ba c8 03 7c 3b c5 09 89 3b ab 36 2d bb
       -0.0006605514 0.0038454402 0.004182073 -0.002643029
000060 a8 a0 c4 3b d2 2a 4a 3b a7 41 50 bb fe 46 a0 ba
       0.006000597 0.0030848277 -0.0031777413 -0.0012228189
000070 a9 48 03 bb 80 a6 c1 ba 05 3e 19 37 f9 4c 8d 3a
       -0.0020032322 -0.0014774352 9.133951e-06 0.0010780386
000080 e0 cc 68 39 64 33 ea 3a d7 5a c1 ba 83 8d 6a 3b
       0.00022201566 0.0017868099 -0.0014751804 0.0035789914
000090 b7 54 90 39 ff 59 5c 3a 13 d3 2a 3b b7 5a 9e 3b
       0.00027528938 0.00084057444 0.0026065751 0.0048325914
0000a0 d9 95 0f ba d3 11 00 3b 43 88 91 3b 84 48 81 3b
       -0.0005477346 0.0019541874 0.0044412925 0.003945412
0000b0 8c 48 d9 3a 69 81 84 3b ad 84 6e ba cb 54 7a 3a
       0.0016577407 0.004043747 -0.000909875 0.00095493783
0000c0 e2 15 99 ba f3 f7 07 3b 56 05 84 3b 4c 50 28 bb
       -0.0011679495 0.0020747154 0.0040289564 -0.0025682626
0000d0 eb 41 cb ba ac 27 c0 3a ff e7 06 bb a4 3a eb b9
       -0.0015507316 0.0014660261 -0.0020585058 -0.00044866384
0000e0 49 5c 1b bb b0 a0 8b 3b 1f 99 89 3b b6 26 d7 ba
       -0.002370613 0.004261099 0.0041991617 -0.0016414735
0000f0 e5 72 14 bb 06 f8 5a 3b 33 cc 13 3b 46 31 f0 39
       -0.002265149 0.0033411994 0.0022552132 0.0004581308
000100 35 52 65 3b 27 3e 0f 39 18 3a 5e bb 86 4c b0 b9
       0.0034991626 0.00013660696 -0.0033909138 -0.0003362635
000110 55 db f1 b9 59 57 14 bb f0 0e b7 3a 9e d2 ec ba
       -0.00046130517 -0.002263507 0.0013966244 -0.001806814
000120 c5 3b 9a b8 47 b7 a7 3b 76 cd 00 bb b1 c4 74 3b
       -7.354425e-05 0.005118284 -0.0019653714 0.0037348683
000130 f4 a1 96 3a 74 e5 eb ba b6 5f df 3a 02 ff 9e 3b
       0.0011492358 -0.001799746 0.0017042074 0.0048521766
000140 01 d3 1c 3b b0 b4 25 3b 49 e0 7a bb 2f ef f2 ba
       0.002392948 0.00252847 -0.0038280657 -0.0018534417
000150 dd 68 3f ba 8e a5 87 b8 53 aa 42 bb 1d 09 16 bb
       -0.00073016976 -6.4681386e-05 -0.0029703572 -0.0022893616
000160 ef 16 13 3b b6 f9 b4 b8 a9 bc a1 ba 4b 75 b8 39
       0.002244409 -8.629581e-05 -0.001233955 0.00035182605
000170 00 b2 50 ba e2 d1 52 3a c9 da 31 bb 3a cd 3f 3b
       -0.00079610944 0.0008042139 -0.0027138463 0.0029266612
000180 8d 0a 08 3b 6d 65 38 bb b5 9d 4b 3b d7 22 91 ba
       0.0020758242 -0.0028136626 0.0031069343 -0.0011073005
000190 da 8d 42 3b 79 a8 be 3a a5 d8 e2 39 94 ff 0e ba
       0.00296866 0.0014546058 0.00043267492 -0.0005454954
0001a0 1e 70 4c 3b bb a9 4e 3b d0 50 ba b9 c0 7e be ba
       0.0031194757 0.0031534273 -0.00035536895 -0.0014533624
0001b0 5c c6 90 b9 04 ec 6c bb a7 10 ea 3a 90 11 9f ba
       -0.0002761361 -0.0036151418 0.0017857746 -0.0012135971
0001c0 8a fb 98 3a 9a bc 0e bb 00 a5 0e 38 db a8 4b 3b
       0.0011671644 -0.0021779896 3.4009106e-05 0.0031075987
0001d0 b7 88 2b ba b9 cc 81 3b a7 a4 5f bb 7d 69 a2 ba
       -0.00065435044 0.0039611724 -0.003412524 -0.0012391057
0001e0 1d bc 49 3b 67 4f 06 b9 36 63 14 3b f3 53 e0 39
       0.003078229 -0.00012808816 0.0022642142 0.00042787156
0001f0 29 76 b9 3a 65 c8 33 3b ee 0e 22 b9 6d 43 34 bb
       0.0014149594 0.0027432677 -0.00015455086 -0.002750601
000200 92 4d c6 ba de f4 92 3b c1 66 50 3b 93 cd 6c 3b
       -0.0015129319 0.004484757 0.0031799527 0.0036133274
000210 5e b3 37 bb 28 5d 53 b9 a1 78 a1 3b 0d 7f 96 3b
       -0.0028030495 -0.00020157231 0.00492771 0.0045927824
000220 4c cb 47 ba f1 ec 61 b9 58 9d 40 3b b9 4a a0 bb
       -0.0007621541 -0.0002154594 0.002939066 -0.00489172
000230 d0 62 24 bb 16 7b de ba 33 83 33 bb 9f 3d 9c ba
       -0.002508331 -0.0016973938 -0.0027391433 -0.001192022
000240 e5 6b 8b 3b 45 81 2e 3a eb 42 19 bb 80 da af 3a
       0.0042548054 0.0006656836 -0.0023385833 0.0013416559
000250 4c ac e0 ba dc 45 1f 3b b6 ca 19 39 3e f8 3f b9
       -0.0017141192 0.0024303114 0.00014666733 -0.00018307657
000260 c5 7d 93 3a 96 26 b3 3a 2c 5b f6 ba 55 a0 24 3b
       0.0011252692 0.0013668116 -0.0018795482 0.002511998
000270 95 54 b5 ba 44 19 38 3b 2a 2e 9f ba 95 56 6d 3b
       -0.0013834412 0.0028091231 -0.0012144495 0.0036214937
000280 a1 4c a1 ba 45 41 81 3a b2 2f 40 ba 3a 4b 57 bb
       -0.0012306162 0.0009861371 -0.0007331326 -0.0032851235
000290 c6 11 55 bb 6f 17 8c 3a 0c b0 2d 3b 63 29 8a ba
       -0.0032511814 0.0010688136 0.0026502637 -0.0010540899
0002a0 90 53 6f 3b 1a 4c 5d bb 7c 73 5f 3a 02 dc 36 bb
       0.0036518313 -0.0033767284 0.00085239834 -0.002790213
0002b0 df 7b 42 3b b5 96 86 3b 97 87 34 3b 4c 88 f0 39
       0.0029675884 0.004107321 0.0027546638 0.00045877916
0002c0 4c c1 3e ba 4a 4e a5 38 23 b2 9c 39 1e 83 56 bb
       -0.0007276728 7.8823956e-05 0.0002988736 -0.003273196
0002d0 0a f4 bd 3a db e8 2c 3b f8 28 82 3b f3 fc 1a bb
       0.0014492285 0.002638391 0.003972169 -0.0023649305
0002e0 e5 43 47 b9 bb 81 af ba dc 90 36 ba 23 fa 05 3b
       -0.00019003412 -0.0013390103 -0.0006964335 0.0020443283
0002f0 74 51 0a 3a a9 ee 22 bb 0c 18 09 bb 52 51 fa 3a
       0.00052764197 -0.002486149 -0.0020918874 0.0019097722
000300 fa 16 36 3b 1c 3f ee 38 c9 99 ef ba ca fd 0e ba
       0.0027784691 0.000113604794 -0.0018280084 -0.00054546876
000310 11 d4 7f bb f0 71 54 3b 26 40 40 bb e9 17 2d ba
       -0.0039036314 0.0032416545 -0.002933511 -0.0006602989
000320 17 01 31 bb b0 3e 8d b9 ac e7 05 3b 87 1a 71 3a
       -0.0027008706 -0.00026940322 0.0020432277 0.00091973733
000330 3b f0 44 3a a2 51 81 3b e0 4f 62 3a 16 23 75 3b
       0.0007512604 0.003946499 0.0008633118 0.0037404946
000340 76 b8 81 3b f6 a8 29 3a a6 91 96 ba 78 47 08 3b
       0.003958757 0.00064720155 -0.0011487498 0.0020794552
000350 86 6d 2d 3b 45 d5 de 3a b7 0f 51 ba f6 44 81 3a
       0.0026462986 0.0017000815 -0.0007975059 0.0009862471
000360 fd a6 95 b9 f6 0e cc b9 0b f7 5a bb bd 76 72 bb
       -0.0002854391 -0.0003892106 -0.003341141 -0.0036997043
000370 7c 73 3d 3b 87 1a 47 3b 0a d4 bd 3b 9c 97 b5 3a
       0.0028907945 0.0030380802 0.0057930993 0.0013854387
000380 01 70 09 b9 26 85 93 3a 6a a1 0b ba bb 28 69 3b
       -0.00013107063 0.0011254891 -0.0005326482 0.0035577256
000390 61 49 d9 ba 12 aa 5d 3a e4 67 d1 ba e3 49 26 3b
       -0.0016577655 0.00084558234 -0.0015976396 0.002537363
0003a0 ae e6 28 3b 8a b8 39 bb f0 8b 90 3a 6f 94 39 bb
       0.0025772261 -0.0028338754 0.0011028033 -0.0028317233
0003b0 9e e3 a4 39 0b 4a 1a 3b f0 fe cf 3a 9d bf 6d 3a
       0.00031450106 0.0023542668 0.0015868824 0.0009069385
0003c0 db 69 2d bb 16 40 2b ba d9 50 41 ba 4a 4f 0e bb
       -0.00264608 -0.0006532682 -0.0007374413 -0.002171474
0003d0 d5 03 21 3b 0c 50 2e bb f4 55 8b ba 74 78 02 3b
       0.0024568934 -0.0026598005 -0.0010630474 0.0019908221
0003e0 e6 11 64 3b c1 72 fa 39 94 ad b8 3a 2c e1 c9 ba
       0.0034800707 0.00047769214 0.0014089816 -0.001540219
0003f0 41 79 04 3a 59 4a 90 bb c3 c9 ea 3a e5 f3 39 bb
       0.00050534686 -0.004403394 0.0017912913 -0.0028374132

network_body._body_endoder.seq_layers.2.weight f4 [256, 256]
000000 20 11 3c 3d 50 4f c4 3b 70 08 50 3d 3d ce e6 3b
       0.04591477 0.0059909 0.050789297 0.0070436285
000010 c4 ca e9 3d aa b1 31 bd 12 c7 0e bd d4 49 3c 3d
       0.114156276 -0.043382324 -0.034857817 0.045968845
000020 41 d5 0c 3d d5 cd 85 3d 06 c8 c0 bd 5c e9 79 bc
       0.034383062 0.065334 -0.094131514 -0.015253391
000030 02 fe 75 3d fa be 1d 3d 3a 48 ae bc 26 37 78 3d
       0.060056694 0.038512208 -0.021274675 0.06059947
000040 39 21 aa bd b7 21 dd 3c d0 30 dd bd 23 86 0e bd
       -0.08307118 0.026993616 -0.10800326 -0.03479589
000050 c2 9e 69 bd 93 e5 e4 3d d3 30 18 bc 30 23 9c bd
       -0.05703617 0.111766 -0.009288984 -0.07623899
000060 9d a8 e4 3c 8a 33 a4 3d 02 ab c8 bd 25 e7 b1 3d
       0.027912432 0.08017643 -0.09798242 0.086866654
000070 54 16 8f bc 3f 1f 04 bd 7b 5b 19 be e2 84 78 bd
       -0.017466702 -0.03225636 -0.14976303 -0.060673602
000080 d4 c9 70 3d ff ed 57 3d 9a 55 61 bd 1d ee a1 bc
       0.05878623 0.052717205 -0.055013277 -0.019766862
000090 e6 d2 d7 bd 8e 4f 2d 3d c9 05 89 bc 21 82 63 3d
       -0.105382726 0.042312197 -0.016726391 0.055544022
0000a0 65 47 96 bb 8b 5c 21 3e 58 b0 79 bd 3c 0f 53 bc
       -0.0045861476 0.15757959 -0.06095919 -0.01288205
0000b0 63 73 3c 3d cf 29 21 3e 73 7c c3 bc 72 d0 e9 3c
       0.04600848 0.15738605 -0.023863053 0.028541777
0000c0 c7 62 4c bb 77 58 b1 3c 80 4e c6 bc 4e d4 04 3d
       -0.0031186806 0.021648629 -0.024207354 0.032429032
0000d0 8b 42 98 3d 99 1b 8b bd 0f 98 2a 3d 20 5c f1 bc
       0.07434567 -0.06792373 0.04164892 -0.029462874
0000e0 c1 8f 0c 3c e0 a4 b5 3d d5 44 8a bd ad d5 54 bd
       0.0085791955 0.08869338 -0.0675141 -0.05196159
0000f0 d6 e6 0e 3d 80 99 cd 3d 3b 1f 5d bc 87 4b 67 bd
       0.03488811 0.100390434 -0.013496215 -0.056468513
000100 f0 a5 96 3c fc 49 87 3c 20 ac 98 3c ca a7 7d bd
       0.018389672 0.01651477 0.018636763 -0.061927594
000110 9f 3c a5 bd 63 67 d3 bd 6c 3f dc bb 8d 9a 30 bd
       -0.08068203 -0.10322454 -0.0067214277 -0.04311614
000120 4b ee 8c bd 0f ec 68 3d c1 14 89 bd 52 14 b5 3c
       -0.06881388 0.056865748 -0.066934116 0.022104416
000130 d8 78 9a 3b 3b 25 65 3d 24 0b 4f 3c a2 58 de bd
       0.0047141127 0.05594371 0.0126369335 -0.10856749
000140 99 76 de 3d 1f 53 53 3b 2e 5d bd 3d 79 c2 0e bd
       0.108624645 0.003224559 0.09246288 -0.034853432
000150 73 66 c3 3d a2 92 ad ba f0 b5 86 bc d2 52 f2 ba
       0.09541025 -0.0013242553 -0.016444176 -0.0018487817
000160 87 cb 22 bd e9 98 0f 3d 11 5d 5b bd 20 ae 31 3e
       -0.03974488 0.035057936 -0.053555552 0.1735158
000170 02 0a 28 bd 7f 4d cb bc 1e 8a c2 3c 62 a6 f7 3b
       -0.04102517 -0.024817226 0.0237475 0.007557676
000180 36 f0 bd ba 32 29 eb bc b5 79 8a bc ce 10 89 bd
       -0.0014491144 -0.028706167 -0.016903738 -0.06692658
000190 59 66 8a bd c7 65 8d bd a3 27 11 bd ee 4a bb bc
       -0.067578025 -0.06904178 -0.03543819 -0.022862878
0001a0 5a 8d de 3d d7 47 83 3d 4d 65 40 bd aa 7f df 3d
       0.108668044 0.06410187 -0.046971608 0.10913022
0001b0 0c 5b 5b bd c2 52 9c bc f0 d3 15 3e 18 78 fe bd
       -0.053553626 -0.01908243 0.14631629 -0.1242525
0001c0 fc 6b 9d bd f5 17 70 3d 33 3f d0 3c 08 2e 90 bd
       -0.07686612 0.058616597 0.02542076 -0.0704003
0001d0 35 37 05 bd 83 1b 0e 3d ab 81 1f 3d 6e 09 05 be
       -0.032523353 0.034694206 0.03894202 -0.12991878
0001e0 17 6c 90 3d 68 35 72 bc 50 be bc 3c b3 db c4 3d
       0.070518665 -0.014783241 0.023039967 0.09612217
0001f0 f5 26 cb bc 06 89 f8 3c 14 9b 87 bd 50 d5 ab 3d
       -0.02479885 0.030338775 -0.06621376 0.083902955
000200 cf 86 ca bd 62 10 40 3b 05 2e 47 bd c0 76 d9 3d
       -0.09888994 0.002930664 -0.048627872 0.10618353
000210 df 9b 28 bd 84 82 c5 3b b4 df f5 3c 89 f1 b2 3d
       -0.041164275 0.0060275216 0.030013897 0.087374754
000220 a6 9a b9 3c de 78 0f 3d cd 50 72 3d 2a fd 06 bd
       0.02265675 0.035027377 0.05915909 -0.03295628
000230 e7 b0 7e 3d 8c 50 26 bc 91 8c b3 bc 26 46 44 bd
       0.062180426 -0.01015104 -0.021917613 -0.04791846
000240 81 b2 12 3d d6 e6 b9 3d d7 4e f4 bc 00 a2 b2 bb
       0.035814766 0.090772316 -0.02982275 -0.005451441
000250 fc b7 0a bd 74 2c 38 bd ae 71 26 bd 26 86 21 3d
       -0.033866867 -0.04496427 -0.040635757 0.039434575
000260 db 68 89 3d 5b 17 f2 3d 47 46 bb 3d 46 bc 17 3d
       0.06709453 0.11820861 0.09144264 0.037044786
000270 04 6c 86 3d 99 ca a2 3d 54 55 3f 3d b8 06 84 bd
       0.06563571 0.07948799 0.046712235 -0.06446594
000280 f9 11 bb 3c e7 77 2a 3d cb 39 16 bd 49 86 9b 3d
       0.022835718 0.041618254 -0.03667621 0.07593972
000290 10 fc 7b 3c be b3 ff 3d 1b c9 29 bd fd be 90 bd
       0.015379921 0.12485455 -0.041451555 -0.07067678
0002a0 32 0d 2b 3d 5d 9d 25 bd 1f 17 09 bc 52 3a 6e 3e
       0.04176063 -0.040433276 -0.008367329 0.23264435
0002b0 9a 16 19 bb a7 79 7b bd 24 34 ab 3d f5 66 78 3d
       -0.002335942 -0.061395314 0.083595544 0.060645062
0002c0 66 8a 13 3d 07 dd 88 3c 06 c2 0f bd 73 ea 71 3d
       0.03602066 0.016706957 -0.035097145 0.05906148
0002d0 7e ee ab 3c fc 99 28 bd 0b b4 16 3c 17 94 e3 bd
       0.020987745 -0.041162476 0.009198199 -0.1111223
0002e0 46 da 4d bd 4b 38 09 bc f0 33 20 bb 6f d3 be bd
       -0.05025699 -0.008375238 -0.002444502 -0.093176715
0002f0 44 bc da 3c 44 81 fd bb 08 20 27 3b 56 77 f9 3c
       0.0267011 -0.007736357 0.002550127 0.030452412
000300 e8 fd a9 3d b1 5a b0 3c 4c 8d e8 bd d7 b2 d0 bc
       0.08300382 0.02152762 -0.11355075 -0.025475902
000310 d0 2a 9c 3d 22 18 18 bd d0 67 09 bd 29 2e 32 3c
       0.07625353 -0.03713239 -0.03354627 0.010875263
000320 83 56 52 3c f0 48 4c bc f1 91 02 3e 00 f9 27 3d
       0.012838009 -0.0124685615 0.12750985 0.04100895
000330 46 ca a0 bc 6d d1 5f 3c f6 8e 5c bb 86 9e 84 3d
       -0.019627701 0.013660771 -0.0033654547 0.064755484
000340 a7 84 1e 3d c5 ce 8e 3d 45 42 7c bc 4f 7c d0 3d
       0.038700726 0.06973032 -0.015396659 0.1017996
000350 e8 71 3c bd 35 91 7c 3c 70 9c d5 bd 61 89 40 3d
       -0.046007067 0.015415479 -0.10430229 0.047006015
000360 b4 be 1c bd c2 c1 68 bd 51 c9 87 bd 0e 03 fc bc
       -0.038267806 -0.056825407 -0.06630195 -0.030763175
000370 42 1f 4a 3d b1 4f a6 3c b3 13 b4 bc a5 d3 51 bd
       0.049346216 0.020301672 -0.02198205 -0.05122723
000380 bb f5 00 3e b1 28 d7 3c bd c1 c5 bd 98 37 b3 3c
       0.12593739 0.02626452 -0.09656093 0.021877095
000390 95 87 a9 3d 6d 18 80 3c 57 1d b5 bc 5f 1a 21 bd
       0.08277813 0.015636647 -0.022108717 -0.03933179
0003a0 2b 26 98 3c 2a 29 cf bc f7 6e 86 bd ee 97 fa bc
       0.018572887 -0.025288183 -0.065641336 -0.030590024
0003b0 b9 d0 03 3b bb 77 4a 3c 9f fa 98 3d 72 b6 d6 bd
       0.0020113422 0.0123576475 0.07469677 -0.104840174
0003c0 86 cb b5 3c 1d d2 0b bd ad 56 07 3d a3 92 e6 3d
       0.022191774 -0.034135927 0.033041645 0.112584375
0003d0 d7 f3 8b 3d 61 5b 4b 3b bd 72 13 3d d0 79 69 3d
       0.06833618 0.0031029808 0.035998095 0.057000935
0003e0 3e 36 d1 bc 77 77 b8 3c 21 54 f5 3c 98 31 72 bd
       -0.02553856 0.022517903 0.029947342 -0.059129328
0003f0 93 07 d0 3c ae cc 5f 3d a9 50 0a bd 12 fd a5 bc
       0.025394237 0.054638557 -0.03376833 -0.020262275

network_body._body_endoder.seq_layers.4.bias f4 [256]
000000 78 cb 6f 3b 23 08 fa 3a 5a 7f 28 bb 2e be 81 3b
       0.0036589783 0.0019075911 -0.0025710673 0.0039594388
000010 7e 83 d4 3a 8e d9 43 ba ab c1 4b 3b 7f 34 c2 39
       0.0016213504 -0.0007471078 0.0031090777 0.00037041676
000020 cc c0 0c ba 18 5b 2a bb 1b 8f b8 ba 0f fa 01 3b
       -0.0005369305 -0.0025994238 -0.0014080735 0.0019832884
000030 0d 0d 06 3b 59 31 9e ba f4 c7 45 3b b7 dd d5 39
       0.0020454556 -0.001206915 0.0030178996 0.00040791716
000040 5a 19 63 3b f6 c7 65 3b aa 00 29 bb 0e d7 62 3b
       0.0034652562 0.0035061813 -0.002578775 0.0034613046
000050 a8 a5 f4 3a f6 db 68 b9 b1 fb 4c bb fb 9c 75 3b
       0.0018665092 -0.00022207186 -0.003127795 0.00374776
000060 17 33 9d 3a 32 28 7a ba 99 a8 56 39 27 c9 3b 3b
       0.0011993375 -0.0009542733 0.00020471438 0.0028653832
000070 09 69 9d b6 04 55 27 3b 00 fb 08 bb 85 96 3d bb
       -4.6911923e-06 0.002553285 -0.002090156 -0.0028928828
000080 53 c6 07 ba 16 16 30 bb b5 44 00 3b 0c 10 16 3a
       -0.0005179394 -0.0026868633 0.0019572203 0.0005724437
000090 0c 97 05 bb 84 de 3a 3b 5b 65 52 3a 73 b7 bc b9
       -0.002038422 0.0028513977 0.00080259674 -0.00035994835
0000a0 87 61 c1 3a ce a2 57 3b 46 21 50 3b e3 a8 4f 3b
       0.0014753797 0.0032903436 0.0031758114 0.0031686358
0000b0 53 82 e1 3a 8d 27 91 3b 10 70 03 3b 83 79 9c 3a
       0.0017204977 0.0044297636 0.0020055808 0.0011938069
0000c0 1b ad 3f 3b 2c 46 a9 ba 99 17 32 bb 48 09 86 ba
       0.0029247466 -0.001291459 -0.002717471 -0.0010226155
0000d0 92 e5 2f bb 0f 87 13 3b 68 ba 3b bb e6 7e 11 3b
       -0.0026839715 0.002251092 -0.0028645042 0.0022200882
0000e0 c5 1d af ba e1 14 db ba 08 5c 22 3b 59 f5 9c 3b
       -0.0013360312 -0.0016714596 0.0024774093 0.00478999
0000f0 dc ac 35 3b aa 3c fc ba 19 15 e2 ba 68 17 0f 3b
       0.002772144 -0.0019244154 -0.0017248719 0.002183402
000100 c7 8b 3b ba de e7 40 3b 47 78 14 36 02 43 3d bb
       -0.00071543123 0.0029435079 2.212373e-06 -0.002887905
000110 03 4d b9 ba 45 47 31 3b c5 4d 35 bb 0d 01 75 3a
       -0.0014137331 0.0027050537 -0.0027664762 0.0009346165
000120 ca 47 f7 3a 5c 98 41 bb 8d cf 19 ba be 65 c6 ba
       0.0018865999 -0.0029540276 -0.00058674143 -0.0015136523
000130 64 3a 79 bb 3b 51 5b bb 87 66 ee ba 13 8c b8 3a
       -0.0038029188 -0.0033465165 -0.0018188515 0.0014079831
000140 8a 2e 13 bb 14 a6 f0 b8 e0 90 00 3b 14 2c c3 ba
       -0.002245816 -0.00011475026 0.0019617602 -0.0014890456
000150 c3 4d 1a b9 9d 3a 79 3b 21 5c 6b 3a 09 88 88 ba
       -0.00014715553 0.003802932 0.0008978267 -0.0010416518
000160 47 83 38 3a 0a ab 0e 3b 3a e2 ce ba 21 db f8 3a
       0.0007038605 0.0021769428 -0.0015783974 0.0018986204
000170 17 ad d4 ba 95 ba 68 bb 92 0c 86 3b 38 ab 4f 3b
       -0.0016225901 -0.0035511602 0.004090854 0.0031687748
000180 97 35 49 bb 8e 70 51 3b a1 e3 38 3b 60 25 dd 3a
       -0.0030702108 0.0031957957 0.002821185 0.00168721
000190 9c c6 63 3b e1 18 bd 3a 48 a9 11 bb ec 85 46 3a
       0.0034755832 0.001442697 -0.0022226144 0.00075730565
0001a0 5d 8a 1b bb bb 13 2c 3b 55 41 f1 3a e1 2a 6f bb
       -0.0023733594 0.0026256877 0.0018406311 -0.0036494064
0001b0 f5 b5 a7 39 62 78 58 bb 32 ea cd 3a e5 ce 07 3b
       0.0003198829 -0.0033030738 0.0015710054 0.0020722684
0001c0 77 2a 48 3b c0 68 3e bb d3 0d 6d ba a2 48 df ba
       0.003054289 -0.0029054135 -0.00090428925 -0.0017035196
0001d0 69 05 91 3a 52 a8 61 3b c7 5c 7d 3b 37 60 39 bb
       0.0011064234 0.0034432602 0.0038660036 -0.0028286108
0001e0 70 c6 1c bb 19 ab 32 3b 0e 7b 38 3a 70 ce e9 3a
       -0.002392199 0.0027262627 0.00070373795 0.0017838012
0001f0 74 1f 3a bb f3 a2 93 3a 95 2c 7b 3b e1 8b 26 3b
       -0.0028400095 0.0011263773 0.0038326134 0.0025412964
000200 d4 17 13 bb 19 64 46 3a 3e 0f 78 bb 52 3e 86 ba
       -0.0022444623 0.00075680163 -0.0037850882 -0.0010241962
000210 2d 47 dc ba 2b f5 93 3b 54 56 91 3a 42 04 8f 3b
       -0.001680588 0.0045153103 0.001108835 0.0043645212
000220 19 15 8a 3a 2f 9d 21 bb e1 1f 27 3b 20 74 20 3b
       0.0010534852 -0.002466034 0.002550118 0.0024483278
000230 db db 56 3a 23 49 51 b9 42 1f 11 bb 01 94 9e 3a
       0.0008196213 -0.00019959039 -0.0022143875 0.0012098552
000240 cb b9 16 bb 6d 13 4a 3b c9 29 33 b9 07 f6 39 bb
       -0.0022998925 0.0030834333 -0.00017086336 -0.0028375403
000250 3a a0 b2 ba 68 b9 31 3b 92 b4 53 3b a9 ca 3a bb
       -0.0013628074 0.0027118567 0.0032303673 -0.0028502143
000260 98 8e 09 3b a9 49 34 3b 48 8c 51 bb 9d b8 06 3b
       0.0020989534 0.0027509725 -0.0031974483 0.0020556815
000270 37 7d 70 3a 21 56 30 ba fc 20 a7 3a 76 77 d8 ba
       0.0009173932 -0.00067267014 0.0012750919 -0.0016515094
000280 33 61 30 3b 3b e4 22 ba 5a 6e 17 3b ca 3c 1d bb
       0.0026913404 -0.00062138186 0.0023106546 -0.0023992532
000290 a7 86 1f 3b b4 11 c6 ba b5 bf 0c bb 4b f1 94 3b
       0.0024341734 -0.0015111477 -0.002147657 0.004545366
0002a0 ba 1c ae ba 21 22 69 3b 52 cd 1a bb cd 6e 38 bb
       -0.0013283708 0.003557332 -0.0023620916 -0.0028142214
0002b0 55 9f ef 3a c5 3a 15 bb 03 6b 9e ba 2f a3 34 ba
       0.0018281738 -0.0022770625 -0.0012086335 -0.00068907713
0002c0 51 c3 4e 3b b4 1a 70 3b ad ac 16 ba a5 ab 5d 3b
       0.0031549523 0.003663701 -0.00057477766 0.0033824232
0002d0 61 01 c6 38 64 5b 88 3b 6e 70 9b 3a f7 98 38 b9
       9.4416326e-05 0.0041612852 0.0011859068 -0.00017604591
0002e0 9d 34 28 3b f7 66 a4 b9 3f 70 4d 3b 6e b7 37 bb
       0.0025666126 -0.00031357232 0.0031347421 -0.0028032917
0002f0 fd 5a 1b 3b 94 ca b6 ba 66 88 2d bb 6f 73 46 bb
       0.0023705356 -0.0013945871 -0.0026479005 -0.0030281206
000300 8a 08 26 bb 7f f9 0a bb 65 f9 4e 3b 5d 34 4a 3b
       -0.002533468 -0.002120584 0.0031581756 0.0030853965
000310 e8 02 6b bb bd a8 dc ba 09 d5 11 bb 35 1c 41 ba
       -0.0035859887 -0.0016834956 -0.0022252223 -0.0007366569
000320 ed a8 2a bb f6 57 43 3b 91 26 52 bb e0 85 16 b8
       -0.002604063 0.0029807067 -0.0032066444 -3.5887468e-05
000330 83 75 21 3b eb 8e 51 3b c4 56 39 3b 8c 9b 3d 3b
       0.0024636693 0.0031976055 0.0028280476 0.0028931824
000340 60 24 0c bb 11 69 3f bb cd f8 b9 3a 5d 57 47 3b
       -0.0021383986 -0.0029206912 0.0014188528 0.0030417063
000350 5f b2 56 3b 76 ae 94 3b d6 10 33 bb 55 27 75 39
       0.0032760126 0.004537399 -0.0027323267 0.00023379673
000360 4c e7 80 3a 65 37 19 bb 85 6d 7a 3b 1a 12 c1 3a
       0.0009834557 -0.0023378965 0.0038212251 0.0014730126
000370 5c a4 a7 ba 51 52 0a bb f0 6a e2 ba 77 c3 a3 ba
       -0.0012790072 -0.0021106193 -0.0017274301 -0.0012494166
000380 1a 9d db 3a e1 d7 62 3b 0e c1 e4 ba e7 a5 6e 3a
       0.0016755194 0.0034613537 -0.0017452554 0.0009103701
000390 9a 5a 24 bb da 7b 06 bb 6b f1 81 3b f3 dd cc 39
       -0.0025078417 -0.0020520599 0.003965547 0.00039075277
0003a0 df a3 29 ba 0b 55 82 3b 53 84 03 3b b5 5c 39 bb
       -0.0006471257 0.003977423 0.0020067885 -0.0028284017
0003b0 b9 23 d1 ba ab 05 6e 3b 5a 9f 4a ba 8b a0 c3 ba
       -0.0015956081 0.0036319296 -0.0007729434 -0.0014925165
0003c0 4f 11 16 bb 66 d2 8a ba eb ac 0a bb 24 43 26 bb
       -0.00228985 -0.0010591268 -0.0021160196 -0.0025369609
0003d0 73 93 40 ba 53 2e 87 ba ea c4 87 ba 3b 3c 37 bb
       -0.00073461904 -0.0010313488 -0.0010358368 -0.0027959484
0003e0 25 a7 2f 3b 16 2f 38 ba a8 a7 04 bb 6f 7a d5 3a
       0.0026802507 -0.00070260593 -0.0020241532 0.0016287098
0003f0 f9 00 f1 b8 f2 59 88 3b 31 2f 01 bb a8 40 82 3b
       -0.00011491957 0.004161113 -0.0019711966 0.003974993
