Endless Runner/Assets/training/results/Run 1/cfg.onnx (onnx, 597435 bytes, 8 tensors)

action_model._discrete_distribution.branches.0.bias f4 [3]
000000 00 00 00 00 00 00 00 00 00 00 00 00
       0.0 0.0 0.0

action_model._discrete_distribution.branches.0.weight f4 [3, 256]
000000 bf 2b d9 ba 83 ae df bb b4 7f 42 bc 57 9b 83 bb
       -0.0016568823 -0.0068262233 -0.011871267 -0.0040163207
000010 a0 8e 0a 3c 81 e4 bc 3a dd d5 36 3a f2 31 67 bb
       0.008456856 0.0014411361 0.0006974617 -0.0035277572
000020 47 96 f1 3a 33 c0 d7 3b dd e1 cd 3b df 94 19 3b
       0.0018431627 0.006584191 0.0062830285 0.0023434681
000030 97 5c 56 bb 0d 8d 6f bb c6 dc 93 3b 1d e5 16 3c
       -0.0032708996 -0.0036552579 0.004512402 0.009209898
000040 12 0b 2f 3b 5d 06 69 3b 08 36 ad ba 78 25 ad 3a
       0.002670948 0.0035556771 -0.0013214955 0.0013210019
000050 9f 3a a3 ba 9b 7f 8f 3b 6b f4 5c bc 87 74 65 bc
       -0.0012453384 0.0043792254 -0.013486008 -0.014004833
000060 57 86 89 3a bb 63 bb 3b 53 a5 53 bb 8a 34 58 bc
       0.0010492307 0.005718676 -0.0032294586 -0.01319612
000070 a7 b7 13 bc f7 d4 95 3b 8b 60 45 3c ab a2 7b 3c
       -0.009015954 0.0045725065 0.012046943 0.015358607
000080 60 a9 fd ba 2b 85 9a ba 9d b2 2d 3b 80 f1 00 bb
       -0.0019352846 -0.0011788955 0.0026504167 -0.0019675195
000090 d9 b6 1e 3b 68 28 3b 3c 27 1f 12 bb e5 cd 27 3a
       0.0024217872 0.011423208 -0.00222964 0.0006401225
0000a0 97 10 f0 bb e7 b6 af bb 28 9e 53 bc dd 42 f8 b9
       -0.0073261964 -0.00536238 -0.012916125 -0.00047352063
0000b0 79 5f 9d bb db 00 06 3b 02 80 7f bb b7 3d 88 3b
       -0.004802641 0.0020447287 -0.003898621 0.0041577476
0000c0 e3 99 9d bb 28 c2 ce 39 8d fa 03 ba 1f c1 30 ba
       -0.0048096045 0.0003943604 -0.00050345884 -0.00067426445
0000d0 35 b8 e7 bb 78 4b b5 3b a7 ba a0 bb bf b8 70 3c
       -0.0070715197 0.005532678 -0.004905063 0.014692484
0000e0 a7 f0 df 3a 5e 79 c2 3a 9d b3 ce 3a a2 97 5e 3b
       0.001708527 0.0014837196 0.0015770082 0.0033964892
0000f0 71 b4 c5 ba b2 c7 d0 3b dd 4c 61 3b 67 0f 9b 3b
       -0.0015083683 0.006371462 0.003437809 0.0047320607
000100 47 4c 39 bb 56 72 be ba 92 65 d0 bb bb d0 91 bb
       -0.0028274225 -0.0014529924 -0.0063597644 -0.0044499314
000110 17 9d 09 3b b0 2f 7f 3a db ef 8e bb 92 cf d4 3b
       0.0020998174 0.0009734584 -0.004362089 0.006494471
000120 72 63 8f 3b 0f 75 b0 ba 48 15 f2 bb 0b b7 45 bb
       0.0043758685 -0.001346262 -0.007387791 -0.0030168917
000130 5b 86 c3 3b 7b 59 0d bc 1e ee b1 3b 4b fd 73 3b
       0.005966944 -0.008627291 0.005429997 0.0037229832
000140 47 54 15 3c 6b 26 e8 3b 32 d7 ec bb 0a 83 68 bb
       0.009114332 0.007084658 -0.0072278017 -0.0035478496
000150 5b 8d 88 bb 39 c9 22 3b 89 6d 0e bc c0 1d db b9
       -0.0041672415 0.0024839176 -0.008693107 -0.000417931
000160 76 81 b7 ba 6f 71 3a bb e3 8c 0b bc 57 26 b8 3b
       -0.0014000374 -0.002844896 -0.008517477 0.005619805
000170 2b 89 f9 bb 50 61 69 3b 6e a5 b6 ba 1d 98 35 bc
       -0.0076152286 0.0035610981 -0.00139348 -0.01108363
000180 92 af 80 3a c7 40 19 3b 03 b2 b1 bb c7 58 7e bb
       0.0009817949 0.0023384558 -0.005422832 -0.003881024
000190 e3 be 36 bb 68 8d dd 3b b5 64 c5 3b f4 21 16 3b
       -0.0027884773 0.0067612417 0.006023968 0.0022908421
0001a0 5a 5c 69 bb 23 f9 cb 3a 5e d8 a7 3b 59 49 03 bb
       -0.0035608024 0.001556192 0.0051222285 -0.0020032732
0001b0 96 53 1b bc 58 7e c3 39 e7 e1 2a bc 9b f7 01 bb
       -0.009480378 0.00037287432 -0.010429836 -0.0019831422
0001c0 8a bf ec b9 c7 0e d8 3b b2 a4 6d bb d4 69 a7 bb
       -0.00045156135 0.0065935585 -0.0036261496 -0.0051090512
0001d0 fb 50 b4 bb 1a 89 d1 3a d3 11 ec bb d4 d8 99 3b
       -0.0055028177 0.0015986294 -0.0072042732 0.0046950374
0001e0 db 62 87 bb ca 26 de 3a 11 47 2f 3b 20 cd 5e 3b
       -0.0041316575 0.0016948816 0.002674524 0.0033996776
0001f0 5d 91 1f 3b 2f 59 31 bc 42 8f 30 39 02 cc 35 3b
       0.0024348118 -0.010824486 0.00016838036 0.0027740006
000200 9d a4 b5 3a 57 80 3c 3a 81 e7 c6 b8 d0 16 de ba
       0.0013858263 0.0007190755 -9.484497e-05 -0.0016944055
000210 b3 32 6b 3b 28 68 bd 3a 50 aa c7 3b 6f 65 03 bc
       0.0035888373 0.0014450597 0.006093301 -0.008019789
000220 07 3a 22 3a 4e eb b4 ba 07 9f 7c bc d8 2a 7e bb
       0.00061884563 -0.0013803036 -0.015418774 -0.003878286
000230 fb 9c 12 b8 20 7f d2 bb 9f 5b f5 3a fa da b5 bb
       -3.4955312e-05 -0.006423846 0.0018719322 -0.0055497857
000240 41 20 1d 3c 00 3c fb 3b b1 e8 0a 3c 0c f7 ba bb
       0.009590209 0.0076670647 0.0084783295 -0.00570572
000250 f8 20 70 3b 03 1e 06 3c b2 15 6c bb 87 ea 13 bb
       0.0036640745 0.008185866 -0.0036023674 -0.002257021
000260 4b b5 9b 3a 1d 56 4e 3b a2 c9 ef bb 48 da 89 bb
       0.0011879591 0.0031484433 -0.0073177377 -0.0042069294
000270 b7 49 ff b8 77 0c 52 3c 4d 94 d6 ba 19 5e 88 bb
       -0.00012173078 0.012820355 -0.0016371101 -0.004161608
000280 20 ce 69 bb 5d a7 26 3a 6a ab d4 3b d5 88 c8 bb
       -0.0035675839 0.00063573365 0.0064901607 -0.0061198273
000290 53 9e f1 3b 1e c8 19 bb b4 f5 b8 3b 5d f6 f9 3a
       0.00737361 -0.0023465226 0.0056445245 0.0019070614
0002a0 46 12 33 3b 21 a4 c4 bb f8 e6 ea 3b 5a 0b e1 bb
       0.0027324124 -0.006001011 0.007168647 -0.0068678083
0002b0 c9 ef 3b bb f2 4c 5e ba 19 f5 86 ba 32 eb 55 bb
       -0.0028676859 -0.00084800937 -0.0010296433 -0.0032641408
0002c0 c2 e7 ed 3a 97 56 3a 3b ca 8a ed 3b 54 d6 2a 3c
       0.0018150734 0.002843296 0.007249211 0.010427076
0002d0 df c8 8d 39 b8 86 cf bb 9e 13 43 bb 13 37 0e 3c
       0.00027043276 -0.0063331984 -0.0029766331 0.008680123
0002e0 1f ad e6 3b e5 fc a1 3b 36 cd 3f bb cb d1 0b bc
       0.0070396806 0.0049434775 -0.0029266602 -0.008533905
0002f0 b9 cc ae bb 0b 33 07 bb fd 21 f7 3a 77 7c 6a 3b
       -0.0053344634 -0.002062979 0.0018854734 0.0035779753
000300 05 61 18 bc 35 53 9e bb 92 25 c2 bb bf 13 f4 bb
       -0.009300475 -0.0048316964 -0.005924889 -0.007448643
000310 07 1d 54 bb da fc 73 3b df 84 e5 3b a1 d7 aa 38
       -0.0032365934 0.0037229569 0.007004365 8.146396e-05
000320 8a f8 71 bb 32 55 d4 ba f1 f6 21 bb c9 b7 2e 3b
       -0.0036921822 -0.0016199707 -0.002471384 0.0026659837
000330 eb d6 38 bb 5a 40 af bb 85 e6 6a bb 53 e3 47 3b
       -0.0028204273 -0.0053482475 -0.0035842967 0.0030500486
000340 a2 31 d7 bb 45 79 2d bb d4 39 c3 3a d3 74 ae bb
       -0.006567196 -0.0026469987 0.0014894553 -0.005323985
000350 ff f3 10 bc 7b 02 5b b9 f6 b7 01 3b 6b f4 25 3b
       -0.008847236 -0.00020886392 0.0019793487 0.0025322686
000360 ff 1a e8 bb f3 25 ea bb 87 3d c8 3b ff ad dc 3b
       -0.0070832963 -0.007145637 0.0061108503 0.006734609
000370 b7 66 15 bb 87 69 8d 3b f4 7b af 3b b3 d8 be ba
       -0.0022796819 0.0043155584 0.0053553525 -0.0014560431
000380 6c 75 be 3b a2 ce e8 bb 00 e1 89 3b 0f 8c 8c bb
       0.0058123376 -0.0071047107 0.0042077303 -0.004289157
000390 92 72 10 3c e0 5a 43 3c a3 95 29 3c 71 a4 0b 3c
       0.008816378 0.011923522 0.010350618 0.008523093
0003a0 1e c2 94 3b b5 05 b3 bb a3 2b c8 b9 5d e9 08 bc
       0.004539742 -0.005463327 -0.00038179485 -0.008356419
0003b0 83 0e 56 3b 4f 5c b6 3b 28 65 27 3a b0 8e a0 3a
       0.0032662458 0.0055652033 0.0006385618 0.0012249555
0003c0 1c 9d c6 bb 13 41 a0 ba 01 97 ab bb b4 61 02 bc
       -0.0060612094 -0.0012226425 -0.005236507 -0.007957865
0003d0 90 61 ad ba 20 7a c8 bb 03 8f 74 bb 6a ec 14 3a
       -0.0013227928 -0.006118074 -0.0037316687 0.00056809804
0003e0 6b ac 56 3b 90 e2 7d b9 ac aa 92 bb 4b 96 e7 3b
       0.0032756578 -0.00024212361 -0.004475912 0.007067477
0003f0 c7 fc e3 bb d3 49 ba ba 87 92 c8 bb 8f 39 c2 b9
       -0.0069576236 -0.0014212675 -0.006120983 -0.00037045448

network_body._body_endoder.seq_layers.0.bias f4 [256]
000000 00 00 00 00 00 00 00 00 00 00 00 00 00 00 00 00
       0.0 0.0 0.0 0.0
000010 00 00 00 00 00 00 00 00 00 00 00 00 00 00 00 00
       0.0 0.0 0.0 0.0
000020 00 00 00 00 00 00 00 00 00 00 00 00 00 00 00 00
       0.0 0.0 0.0 0.0
000030 00 00 00 00 00 00 00 00 00 00 00 00 00 00 00 00
       0.0 0.0 0.0 0.0
000040 00 00 00 00 00 00 00 00 00 00 00 00 00 00 00 00
       0.0 0.0 0.0 0.0
000050 00 00 00 00 00 00 00 00 00 00 00 00 00 00 00 00
       0.0 0.0 0.0 0.0
000060 00 00 00 00 00 00 00 00 00 00 00 00 00 00 00 00
       0.0 0.0 0.0 0.0
000070 00 00 00 00 00 00 00 00 00 00 00 00 00 00 00 00
       0.0 0.0 0.0 0.0
000080 00 00 00 00 00 00 00 00 00 00 00 00 00 00 00 00
       0.0 0.0 0.0 0.0
000090 00 00 00 00 00 00 00 00 00 00 00 00 00 00 00 00
       0.0 0.0 0.0 0.0
0000a0 00 00 00 00 00 00 00 00 00 00 00 00 00 00 00 00
       0.0 0.0 0.0 0.0
0000b0 00 00 00 00 00 00 00 00 00 00 00 00 00 00 00 00
       0.0 0.0 0.0 0.0
0000c0 00 00 00 00 00 00 00 00 00 00 00 00 00 00 00 00
       0.0 0.0 0.0 0.0
0000d0 00 00 00 00 00 00 00 00 00 00 00 00 00 00 00 00
       0.0 0.0 0.0 0.0
0000e0 00 00 00 00 00 00 00 00 00 00 00 00 00 00 00 00
       0.0 0.0 0.0 0.0
0000f0 00 00 00 00 00 00 00 00 00 00 00 00 00 00 00 00
       0.0 0.0 0.0 0.0
000100 00 00 00 00 00 00 00 00 00 00 00 00 00 00 00 00
       0.0 0.0 0.0 0.0
000110 00 00 00 00 00 00 00 00 00 00 00 00 00 00 00 00
       0.0 0.0 0.0 0.0
000120 00 00 00 00 00 00 00 00 00 00 00 00 00 00 00 00
       0.0 0.0 0.0 0.0
000130 00 00 00 00 00 00 00 00 00 00 00 00 00 00 00 00
       0.0 0.0 0.0 0.0
000140 00 00 00 00 00 00 00 00 00 00 00 00 00 00 00 00
       0.0 0.0 0.0 0.0
000150 00 00 00 00 00 00 00 00 00 00 00 00 00 00 00 00
       0.0 0.0 0.0 0.0
000160 00 00 00 00 00 00 00 00 00 00 00 00 00 00 00 00
       0.0 0.0 0.0 0.0
000170 00 00 00 00 00 00 00 00 00 00 00 00 00 00 00 00
       0.0 0.0 0.0 0.0
000180 00 00 00 00 00 00 00 00 00 00 00 00 00 00 00 00
       0.0 0.0 0.0 0.0
000190 00 00 00 00 00 00 00 00 00 00 00 00 00 00 00 00
       0.0 0.0 0.0 0.0
0001a0 00 00 00 00 00 00 00 00 00 00 00 00 00 00 00 00
       0.0 0.0 0.0 0.0
0001b0 00 00 00 00 00 00 00 00 00 00 00 00 00 00 00 00
       0.0 0.0 0.0 0.0
0001c0 00 00 00 00 00 00 00 00 00 00 00 00 00 00 00 00
       0.0 0.0 0.0 0.0
0001d0 00 00 00 00 00 00 00 00 00 00 00 00 00 00 00 00
       0.0 0.0 0.0 0.0
0001e0 00 00 00 00 00 00 00 00 00 00 00 00 00 00 00 00
       0.0 0.0 0.0 0.0
0001f0 00 00 00 00 00 00 00 00 00 00 00 00 00 00 00 00
       0.0 0.0 0.0 0.0
000200 00 00 00 00 00 00 00 00 00 00 00 00 00 00 00 00
       0.0 0.0 0.0 0.0
000210 00 00 00 00 00 00 00 00 00 00 00 00 00 00 00 00
       0.0 0.0 0.0 0.0
000220 00 00 00 00 00 00 00 00 00 00 00 00 00 00 00 00
       0.0 0.0 0.0 0.0
000230 00 00 00 00 00 00 00 00 00 00 00 00 00 00 00 00
       0.0 0.0 0.0 0.0
000240 00 00 00 00 00 00 00 00 00 00 00 00 00 00 00 00
       0.0 0.0 0.0 0.0
000250 00 00 00 00 00 00 00 00 00 00 00 00 00 00 00 00
       0.0 0.0 0.0 0.0
000260 00 00 00 00 00 00 00 00 00 00 00 00 00 00 00 00
       0.0 0.0 0.0 0.0
000270 00 00 00 00 00 00 00 00 00 00 00 00 00 00 00 00
       0.0 0.0 0.0 0.0
000280 00 00 00 00 00 00 00 00 00 00 00 00 00 00 00 00
       0.0 0.0 0.0 0.0
000290 00 00 00 00 00 00 00 00 00 00 00 00 00 00 00 00
       0.0 0.0 0.0 0.0
0002a0 00 00 00 00 00 00 00 00 00 00 00 00 00 00 00 00
       0.0 0.0 0.0 0.0
0002b0 00 00 00 00 00 00 00 00 00 00 00 00 00 00 00 00
       0.0 0.0 0.0 0.0
0002c0 00 00 00 00 00 00 00 00 00 00 00 00 00 00 00 00
       0.0 0.0 0.0 0.0
0002d0 00 00 00 00 00 00 00 00 00 00 00 00 00 00 00 00
       0.0 0.0 0.0 0.0
0002e0 00 00 00 00 00 00 00 00 00 00 00 00 00 00 00 00
       0.0 0.0 0.0 0.0
0002f0 00 00 00 00 00 00 00 00 00 00 00 00 00 00 00 00
       0.0 0.0 0.0 0.0
000300 00 00 00 00 00 00 00 00 00 00 00 00 00 00 00 00
       0.0 0.0 0.0 0.0
000310 00 00 00 00 00 00 00 00 00 00 00 00 00 00 00 00
       0.0 0.0 0.0 0.0
000320 00 00 00 00 00 00 00 00 00 00 00 00 00 00 00 00
       0.0 0.0 0.0 0.0
000330 00 00 00 00 00 00 00 00 00 00 00 00 00 00 00 00
       0.0 0.0 0.0 0.0
000340 00 00 00 00 00 00 00 00 00 00 00 00 00 00 00 00
       0.0 0.0 0.0 0.0
000350 00 00 00 00 00 00 00 00 00 00 00 00 00 00 00 00
       0.0 0.0 0.0 0.0
000360 00 00 00 00 00 00 00 00 00 00 00 00 00 00 00 00
       0.0 0.0 0.0 0.0
000370 00 00 00 00 00 00 00 00 00 00 00 00 00 00 00 00
       0.0 0.0 0.0 0.0
000380 00 00 00 00 00 00 00 00 00 00 00 00 00 00 00 00
       0.0 0.0 0.0 0.0
000390 00 00 00 00 00 00 00 00 00 00 00 00 00 00 00 00
       0.0 0.0 0.0 0.0
0003a0 00 00 00 00 00 00 00 00 00 00 00 00 00 00 00 00
       0.0 0.0 0.0 0.0
0003b0 00 00 00 00 00 00 00 00 00 00 00 00 00 00 00 00
       0.0 0.0 0.0 0.0
0003c0 00 00 00 00 00 00 00 00 00 00 00 00 00 00 00 00
       0.0 0.0 0.0 0.0
0003d0 00 00 00 00 00 00 00 00 00 00 00 00 00 00 00 00
       0.0 0.0 0.0 0.0
0003e0 00 00 00 00 00 00 00 00 00 00 00 00 00 00 00 00
       0.0 0.0 0.0 0.0
0003f0 00 00 00 00 00 00 00 00 00 00 00 00 00 00 00 00
       0.0 0.0 0.0 0.0

network_body._body_endoder.seq_layers.0.weight f4 [256, 63]
000000 73 13 ee 3c a1 15 28 3e dd 93 58 be f3 34 25 3d
       0.029062008 0.16414501 -0.21150155 0.0403337
000010 75 91 b0 bd 82 e6 e5 3d 3f 18 fe 3b ba 21 51 bc
       -0.08621494 0.112256065 0.007754355 -0.012764389
000020 7a 22 0b be e4 ca 6b be cc b8 b4 3c c9 91 34 be
       -0.1358737 -0.23026615 0.022060774 -0.17633738
000030 87 75 bd 3d 72 3f 8c 3c b2 e6 4d 3e 37 7c 92 bd
       0.09250932 0.017120097 0.20107535 -0.07152598
000040 c8 5c 6b 3c 47 50 50 bc 8d f2 08 bd 05 51 8a be
       0.0143653825 -0.012714452 -0.03343444 -0.27014938
000050 7f a5 02 be 36 6c bb 3c 87 50 1d 3e ed b9 a0 3c
       -0.12758444 0.022878747 0.1536275 0.019619906
000060 e4 e8 a5 bd b5 3d ca 3d ad a9 65 bc ed 8d 2b be
       -0.08101061 0.09875051 -0.014017505 -0.16753359
000070 0a cf 4f 3c 86 d4 a9 3d 47 18 82 bc 4a bc 6e bd
       0.012683639 0.08292489 -0.015880717 -0.058285035
000080 94 55 39 3d 3a 03 63 3e bd d6 96 3e dc c6 25 3e
       0.04524763 0.221692 0.29460707 0.1618914
000090 d4 bd 64 bd 95 d9 d6 bd 4f d0 15 3d 41 4a af be
       -0.055845097 -0.10490719 0.03657561 -0.3423634
0000a0 d2 80 30 3d 4b 00 21 3e 44 64 4d 3e 1f e0 e2 ba
       0.043091603 0.15722768 0.2005778 -0.0017309225
0000b0 4d a5 d5 3d 15 94 3b bd 9e 9f 02 bc 9c ed 72 3e
       0.10431919 -0.04579552 -0.007972626 0.23723453
0000c0 c6 a2 84 3e e7 2c 09 be 0f 11 0c be f8 7f e8 bd
       0.25905436 -0.13396035 -0.13678382 -0.11352533
0000d0 a4 d9 17 3e 26 fb c4 3d 60 f7 c1 bd 87 9e af bd
       0.14829117 0.09618215 -0.09471011 -0.085751586
0000e0 3a c7 dd 3d 69 72 ef 3d ab 07 13 bd 0d c7 58 3c
       0.10829015 0.11691744 -0.035895985 0.013231051
0000f0 94 31 c1 3c 53 d4 a9 bd 28 73 a5 3c 26 61 9a 3c
       0.023583211 -0.08292451 0.020196512 0.018845152
000100 65 21 63 3e 7e 98 49 3e 51 68 7e bd c7 56 6b bd
       0.22180708 0.19687077 -0.062111203 -0.057455804
000110 8c 34 00 be 2b 76 9c 3d b4 9f 38 3d 1c 95 1b 3c
       -0.12520045 0.07639726 0.04507418 0.009496
000120 e0 10 79 bd ad b3 a5 3d ff 14 15 3d 9f e7 a0 3d
       -0.06080711 0.08090911 0.036396977 0.07856678
000130 6c 80 5f 3e 0e 11 3a 3d 17 0e 89 bd 7b f2 28 3e
       0.21826333 0.04542642 -0.066921405 0.16498749
000140 3f 4c 26 bd d1 bf cd bd c7 94 7a bd 61 69 34 be
       -0.040600058 -0.10046352 -0.06117704 -0.17618324
000150 0e d6 f4 3b 8a 89 05 be 8c 3f 72 3d 13 bd 76 bd
       0.0074718064 -0.13040748 0.059142634 -0.06023891
000160 64 8a a2 3c 1f e3 59 bc e7 ef 1e bd 29 cb 35 3c
       0.01984138 -0.013298779 -0.038803007 0.0110958
000170 b6 2a 7f bd b9 49 8c be 80 20 76 bd cf 71 e0 bd
       -0.06229659 -0.27399996 -0.06008959 -0.10959207
000180 18 32 27 bd 12 0b f4 3c 1c 45 e7 3b d4 22 6d 3c
       -0.040819257 0.029790435 0.007057799 0.014473636
000190 f0 0b 8e bc 44 36 22 3e 97 e6 08 3b 10 59 cc 3d
       -0.017339677 0.15841013 0.0020889395 0.09977925
0001a0 33 ef aa 3d 9f db cc 3d de 4d 15 bd 14 29 81 be
       0.08346405 0.10002827 -0.036451213 -0.25226653
0001b0 5c 7f 4b 3d 49 30 30 3b ee c3 b1 bb fe 79 5c be
       0.049682006 0.002688425 -0.005424968 -0.21530911
0001c0 75 bb 97 3d 6f 1b 10 3e 1b 01 b2 be c9 00 18 3e
       0.074088015 0.14072965 -0.34766468 0.1484405
0001d0 39 08 94 bd 83 a2 05 be 8c 0f 07 be cc 68 4b be
       -0.07228131 -0.13050275 -0.13189524 -0.19864196
0001e0 6e 68 1b 3e 61 b5 68 bc c6 83 bf 3c d5 41 93 bc
       0.15176556 -0.0142034 0.023378264 -0.017975727
0001f0 3f 3e 14 be 22 bc b2 bd f7 c2 2f 3e 74 b6 fe bd
       -0.1447687 -0.0872729 0.17164217 -0.12437144
000200 1a bc 8a 3c bb 1b a0 3d ed 93 c5 bd 66 eb e2 3d
       0.016935397 0.07817789 -0.09647355 0.11080055
000210 1b e3 0d 3e e1 75 84 bd 91 4c 44 be 62 4c 3e 3d
       0.13856165 -0.06467796 -0.19169833 0.046459563
000220 29 0c 49 3d aa 65 ac 3d be ef 02 bd b1 70 e0 bc
       0.049083862 0.084178284 -0.031966917 -0.027397485
000230 bf 5b 44 3d 77 34 db bb b6 e4 d6 3d cd 3c 89 bc
       0.04793906 -0.006689604 0.10492842 -0.016752625
000240 f7 de 9d ba a2 05 27 3e bc 28 f0 3c 5e c2 eb bd
       -0.0012044598 0.16310742 0.029316299 -0.11511682
000250 06 17 35 3d 68 7c b0 3b 4f 80 18 be ad a4 a3 bd
       0.04421141 0.005385924 -0.14892696 -0.07990394
000260 8f 48 0f 3e 12 69 25 bd 03 6b 43 3e d1 62 35 bd
       0.13992523 -0.040383406 0.1908379 -0.04428369
000270 5d 28 b1 3d 98 2a 08 3e e8 6e 01 3c 31 f0 72 bd
       0.08650277 0.13297498 0.007899977 -0.059311096
000280 5b a8 ea bd 32 73 bc bc d5 79 0a bd df 9d 69 3d
       -0.114578925 -0.023004148 -0.033807594 0.057035323
000290 f8 72 04 bd 24 46 cd 3d 2a b1 02 bd a2 05 00 3e
       -0.032336205 0.10023144 -0.031907238 0.12502149
0002a0 ac 3b 46 be b1 a0 0a be 7b 7e 6d 3d e7 40 1b be
       -0.193587 -0.13537861 0.05798195 -0.15161477
0002b0 81 9e 7b 3c 94 4a a2 bd 6b f9 8a bc 45 2c a6 bd
       0.0153576145 -0.07924381 -0.016964635 -0.081139125
0002c0 92 5c b1 3b 9b bb 38 be e3 b3 73 be 15 63 91 3a
       0.0054126466 -0.18040316 -0.2379909 0.0011092151
0002d0 07 da 12 3e 65 42 ad bd a5 8b ae 3d 5f cb 8a 3e
       0.14340983 -0.084599294 0.08522729 0.27108285
0002e0 55 7b 41 3d ec 1e 05 3e 7a 2f 82 bc 7b 02 4d 3d
       0.04723676 0.13000077 -0.01589178 0.050051194
0002f0 89 ae d5 3d d1 4e 69 be 68 40 85 3c f0 a8 33 be
       0.104336806 -0.22783972 0.016266063 -0.17544913
000300 b8 6a 1b be 4c be 50 be c8 39 9c bc 5f 0f c8 bd
       -0.15177429 -0.20385092 -0.019070521 -0.09768557
000310 cb 6b 3f 3d 13 0c 67 3d 0a 60 d0 ba b7 db 15 3e
       0.04673366 0.056408 -0.0015897762 0.14634596
000320 fb b2 d4 3c ff 2d 40 bd eb 57 36 bd 1b 92 38 3d
       0.02596425 -0.046918865 -0.04451744 0.045061212
000330 d2 47 05 3e 42 c3 2d be cf a6 9e 3c cf 7c a0 3d
       0.13015679 -0.16969016 0.01936665 0.07836305
000340 ba d3 08 3b 2c fd 1d 3d d8 09 30 be 03 eb 40 3e
       0.0020878152 0.03857152 -0.17191255 0.1883965
000350 13 63 9f 3d 98 ce ce 3b 93 93 71 be 95 37 44 3e
       0.07782569 0.006311249 -0.23591451 0.19161828
000360 a1 e5 f6 bc 14 64 8f be 8a 5b 1d be c2 62 61 be
       -0.030138792 -0.2800604 -0.1536695 -0.2201033
000370 21 b1 08 be 27 c9 e6 3c f6 a5 02 3e a6 56 f8 3c
       -0.1334882 0.028172089 0.12758622 0.030314755
000380 a4 5d 18 be 07 70 21 be 4c 04 11 3e 89 6f f9 3d
       -0.14879471 -0.15765391 0.14161795 0.12179477
000390 ac 95 7a be bc f1 4b 3e d9 71 5b bd 40 7c ae bd
       -0.24471158 0.19916433 -0.05357537 -0.085197926
0003a0 46 00 8a 3d 61 65 a6 3d a1 05 77 3d 98 09 9a bc
       0.067383334 0.08124805 0.060308103 -0.018803403
0003b0 1c a7 3d be 9e 60 b3 3c 3e 71 24 be 85 69 02 3e
       -0.18520778 0.021896657 -0.16058823 0.12735565
0003c0 87 87 45 be db 5d 37 3c 3c 28 4b be a4 88 0b 3d
       -0.19289981 0.0111918105 -0.19839567 0.034065858
0003d0 72 e8 8f 3a f4 5f a1 3d 1e 35 c6 3d 08 4f db bd
       0.0010979308 0.0787963 0.096781 -0.107084334
0003e0 36 1d 29 3d 83 66 86 3e e6 78 b8 3d 3e 30 11 3b
       0.041287623 0.26250085 0.090074345 0.0022153999
0003f0 10 43 03 be 60 be 23 3e ab 32 13 bd 3f 38 f8 bc
       -0.12818551 0.15990591 -0.035936993 -0.030300258

network_body._body_endoder.seq_layers.2.bias f4 [256]
000000 00 00 00 00 00 00 00 00 00 00 00 00 00 00 00 00
       0.0 0.0 0.0 0.0
000010 00 00 00 00 00 00 00 00 00 00 00 00 00 00 00 00
       0.0 0.0 0.0 0.0
000020 00 00 00 00 00 00 00 00 00 00 00 00 00 00 00 00
       0.0 0.0 0.0 0.0
000030 00 00 00 00 00 00 00 00 00 00 00 00 00 00 00 00
       0.0 0.0 0.0 0.0
000040 00 00 00 00 00 00 00 00 00 00 00 00 00 00 00 00
       0.0 0.0 0.0 0.0
000050 00 00 00 00 00 00 00 00 00 00 00 00 00 00 00 00
       0.0 0.0 0.0 0.0
000060 00 00 00 00 00 00 00 00 00 00 00 00 00 00 00 00
       0.0 0.0 0.0 0.0
000070 00 00 00 00 00 00 00 00 00 00 00 00 00 00 00 00
       0.0 0.0 0.0 0.0
000080 00 00 00 00 00 00 00 00 00 00 00 00 00 00 00 00
       0.0 0.0 0.0 0.0
000090 00 00 00 00 00 00 00 00 00 00 00 00 00 00 00 00
       0.0 0.0 0.0 0.0
0000a0 00 00 00 00 00 00 00 00 00 00 00 00 00 00 00 00
       0.0 0.0 0.0 0.0
0000b0 00 00 00 00 00 00 00 00 00 00 00 00 00 00 00 00
       0.0 0.0 0.0 0.0
0000c0 00 00 00 00 00 00 00 00 00 00 00 00 00 00 00 00
       0.0 0.0 0.0 0.0
0000d0 00 00 00 00 00 00 00 00 00 00 00 00 00 00 00 00
       0.0 0.0 0.0 0.0
0000e0 00 00 00 00 00 00 00 00 00 00 00 00 00 00 00 00
       0.0 0.0 0.0 0.0
0000f0 00 00 00 00 00 00 00 00 00 00 00 00 00 00 00 00
       0.0 0.0 0.0 0.0
000100 00 00 00 00 00 00 00 00 00 00 00 00 00 00 00 00
       0.0 0.0 0.0 0.0
000110 00 00 00 00 00 00 00 00 00 00 00 00 00 00 00 00
       0.0 0.0 0.0 0.0
000120 00 00 00 00 00 00 00 00 00 00 00 00 00 00 00 00
       0.0 0.0 0.0 0.0
000130 00 00 00 00 00 00 00 00 00 00 00 00 00 00 00 00
       0.0 0.0 0.0 0.0
000140 00 00 00 00 00 00 00 00 00 00 00 00 00 00 00 00
       0.0 0.0 0.0 0.0
000150 00 00 00 00 00 00 00 00 00 00 00 00 00 00 00 00
       0.0 0.0 0.0 0.0
000160 00 00 00 00 00 00 00 00 00 00 00 00 00 00 00 00
       0.0 0.0 0.0 0.0
000170 00 00 00 00 00 00 00 00 00 00 00 00 00 00 00 00
       0.0 0.0 0.0 0.0
000180 00 00 00 00 00 00 00 00 00 00 00 00 00 00 00 00
       0.0 0.0 0.0 0.0
000190 00 00 00 00 00 00 00 00 00 00 00 00 00 00 00 00
       0.0 0.0 0.0 0.0
0001a0 00 00 00 00 00 00 00 00 00 00 00 00 00 00 00 00
       0.0 0.0 0.0 0.0
0001b0 00 00 00 00 00 00 00 00 00 00 00 00 00 00 00 00
       0.0 0.0 0.0 0.0
0001c0 00 00 00 00 00 00 00 00 00 00 00 00 00 00 00 00
       0.0 0.0 0.0 0.0
0001d0 00 00 00 00 00 00 00 00 00 00 00 00 00 00 00 00
       0.0 0.0 0.0 0.0
0001e0 00 00 00 00 00 00 00 00 00 00 00 00 00 00 00 00
       0.0 0.0 0.0 0.0
0001f0 00 00 00 00 00 00 00 00 00 00 00 00 00 00 00 00
       0.0 0.0 0.0 0.0
000200 00 00 00 00 00 00 00 00 00 00 00 00 00 00 00 00
       0.0 0.0 0.0 0.0
000210 00 00 00 00 00 00 00 00 00 00 00 00 00 00 00 00
       0.0 0.0 0.0 0.0
000220 00 00 00 00 00 00 00 00 00 00 00 00 00 00 00 00
       0.0 0.0 0.0 0.0
000230 00 00 00 00 00 00 00 00 00 00 00 00 00 00 00 00
       0.0 0.0 0.0 0.0
000240 00 00 00 00 00 00 00 00 00 00 00 00 00 00 00 00
       0.0 0.0 0.0 0.0
000250 00 00 00 00 00 00 00 00 00 00 00 00 00 00 00 00
       0.0 0.0 0.0 0.0
000260 00 00 00 00 00 00 00 00 00 00 00 00 00 00 00 00
       0.0 0.0 0.0 0.0
000270 00 00 00 00 00 00 00 00 00 00 00 00 00 00 00 00
       0.0 0.0 0.0 0.0
000280 00 00 00 00 00 00 00 00 00 00 00 00 00 00 00 00
       0.0 0.0 0.0 0.0
000290 00 00 00 00 00 00 00 00 00 00 00 00 00 00 00 00
       0.0 0.0 0.0 0.0
0002a0 00 00 00 00 00 00 00 00 00 00 00 00 00 00 00 00
       0.0 0.0 0.0 0.0
0002b0 00 00 00 00 00 00 00 00 00 00 00 00 00 00 00 00
       0.0 0.0 0.0 0.0
0002c0 00 00 00 00 00 00 00 00 00 00 00 00 00 00 00 00
       0.0 0.0 0.0 0.0
0002d0 00 00 00 00 00 00 00 00 00 00 00 00 00 00 00 00
       0.0 0.0 0.0 0.0
0002e0 00 00 00 00 00 00 00 00 00 00 00 00 00 00 00 00
       0.0 0.0 0.0 0.0
0002f0 00 00 00 00 00 00 00 00 00 00 00 00 00 00 00 00
       0.0 0.0 0.0 0.0
000300 00 00 00 00 00 00 00 00 00 00 00 00 00 00 00 00
       0.0 0.0 0.0 0.0
000310 00 00 00 00 00 00 00 00 00 00 00 00 00 00 00 00
       0.0 0.0 0.0 0.0
000320 00 00 00 00 00 00 00 00 00 00 00 00 00 00 00 00
       0.0 0.0 0.0 0.0
000330 00 00 00 00 00 00 00 00 00 00 00 00 00 00 00 00
       0.0 0.0 0.0 0.0
000340 00 00 00 00 00 00 00 00 00 00 00 00 00 00 00 00
       0.0 0.0 0.0 0.0
000350 00 00 00 00 00 00 00 00 00 00 00 00 00 00 00 00
       0.0 0.0 0.0 0.0
000360 00 00 00 00 00 00 00 00 00 00 00 00 00 00 00 00
       0.0 0.0 0.0 0.0
000370 00 00 00 00 00 00 00 00 00 00 00 00 00 00 00 00
       0.0 0.0 0.0 0.0
000380 00 00 00 00 00 00 00 00 00 00 00 00 00 00 00 00
       0.0 0.0 0.0 0.0
000390 00 00 00 00 00 00 00 00 00 00 00 00 00 00 00 00
       0.0 0.0 0.0 0.0
0003a0 00 00 00 00 00 00 00 00 00 00 00 00 00 00 00 00
       0.0 0.0 0.0 0.0
0003b0 00 00 00 00 00 00 00 00 00 00 00 00 00 00 00 00
       0.0 0.0 0.0 0.0
0003c0 00 00 00 00 00 00 00 00 00 00 00 00 00 00 00 00
       0.0 0.0 0.0 0.0
0003d0 00 00 00 00 00 00 00 00 00 00 00 00 00 00 00 00
       0.0 0.0 0.0 0.0
0003e0 00 00 00 00 00 00 00 00 00 00 00 00 00 00 00 00
       0.0 0.0 0.0 0.0
0003f0 00 00 00 00 00 00 00 00 00 00 00 00 00 00 00 00
       0.0 0.0 0.0 0.0

network_body._body_endoder.seq_layers.2.weight f4 [256, 256]
000000 d7 13 06 bc 39 16 ba bc 36 8d 60 3c c4 9d c8 bc
       -0.008183441 -0.022715675 0.013705542 -0.024489291
000010 cb 8d 00 3e 51 04 6b bd df ec 85 3d c9 46 0f be
       0.1255409 -0.057377163 0.0653932 -0.13991846
000020 7d 04 00 bd d3 c1 fc 3c b2 e8 9d bc 7f 46 86 3c
       -0.03125428 0.030854141 -0.019275997 0.016391037
000030 88 2d ad 3d d7 ac 93 bd a0 6b dd 3d 72 62 c0 3c
       0.0845595 -0.07210701 0.108115435 0.023484442
000040 a9 ed 30 bd 30 ea a8 3b 97 c5 73 bd 3e e4 7c bc
       -0.0431954 0.0051548705 -0.05951461 -0.015435277
000050 22 fc f5 bb 5d e1 12 bc 02 d9 bc 3d 2a 87 42 bd
       -0.007506863 -0.008964864 0.092210785 -0.047492184
000060 d5 8e a6 3d ee 9f 5b 3d 0f 69 cd 3c 53 a2 e5 bd
       0.08132712 0.053619318 0.02507451 -0.112126015
000070 b2 f2 55 bc 11 52 41 bd e1 a6 a2 bb 1d c6 3e 3d
       -0.013058351 -0.047197405 -0.004963741 0.046575654
000080 c5 8e 36 bd d8 79 ec bd a4 92 80 3d 0c d2 f7 bb
       -0.04456975 -0.11546677 0.062779695 -0.0075628813
000090 bc 2b 01 3e 2e 9d d4 bc 78 b1 9b bd 84 a1 dc bc
       0.1261434 -0.025953855 -0.07602209 -0.026932485
0000a0 02 8f ea bc 3a 29 04 bc 87 c1 fe 3d f4 5e ee 3c
       -0.028632645 -0.00806647 0.12439256 0.029098012
0000b0 13 11 27 bb c6 03 03 bd b0 ab 2f 3d b1 bc 1c bd
       -0.0025492355 -0.03198602 0.042888343 -0.038265888
0000c0 6b e3 da 3d 6b 4e ab bc 4a f7 df 3c 3d 43 00 3d
       0.10687908 -0.020911416 0.027339596 0.031314123
0000d0 36 23 bd bc 0e 28 bc 3b 04 e9 f5 bc 0e 25 44 bd
       -0.023088079 0.0057420796 -0.030018337 -0.0478869
0000e0 0c 8b 90 3d 64 4d aa 3d 13 75 a3 bd ef c9 90 3c
       0.07057771 0.08315542 -0.079813145 0.017674414
0000f0 44 d4 fd 3d 48 f1 30 3d f0 fd 0a 3d 7b c8 89 3d
       0.12394002 0.043198854 0.03393358 0.06727692
000100 0e 82 d4 ba f5 83 7b 3d 3c 46 8c bd 17 04 cf bc
       -0.0016213076 0.06140514 -0.06849334 -0.025270505
000110 f4 f3 0f 3c ac ae e5 3b fa 5d ec bc 54 6d f5 3a
       0.00878619 0.007009348 -0.028853405 0.0018724599
000120 28 ca f4 bd 80 8f 35 bd 9b d0 5e bd 4c cd 9d bd
       -0.11952621 -0.044326305 -0.05439816 -0.07705173
000130 58 49 c7 3c 84 e2 8d bd f8 65 ef bc f4 bc c1 bd
       0.024326965 -0.0692797 -0.029223427 -0.09459868
000140 b5 61 17 3d 11 87 ba 3d 8f 55 7e 3d e9 01 02 bc
       0.036958415 0.09107793 0.062093314 -0.007935026
000150 55 9a a3 bd 9d e5 6d 3d 87 5d c3 3d 82 b7 ff 3d
       -0.07988421 0.058080304 0.09539323 0.12486173
000160 63 bb f8 bb 36 25 82 bd 69 37 a4 3c d5 7f 71 3c
       -0.0075906976 -0.06354754 0.020045953 0.01473995
000170 18 9f 18 3c 5c 16 0d 3c 18 d1 5e bd 2a ce 08 3d
       0.009315275 0.008611288 -0.054398626 0.03339974
000180 be d2 b4 3d 7d df cc bd d2 94 3e bd 78 7f c3 bd
       0.088292584 -0.100035645 -0.046528645 -0.09545797
000190 43 1e 4c bc 24 bd 1d 3d 02 15 20 3d b3 9c b7 bc
       -0.012458387 0.038510457 0.039082535 -0.022413587
0001a0 7c 1b 71 bc 30 03 44 3d a7 1b de 3b a7 3c b3 3c
       -0.014716025 0.047854602 0.0067781988 0.021879507
0001b0 cb 78 37 bd ad 02 c1 bd d8 a9 0d 3d d3 16 03 3e
       -0.04479293 -0.094243385 0.034585804 0.12801675
0001c0 1c 10 d2 bd 0a 29 8a 3b 19 a5 bf bc 46 df b0 bb
       -0.10256979 0.004216318 -0.023394154 -0.00539771
0001d0 1e 33 24 bc 12 fb f9 3c 69 d3 65 bc d6 d2 3f 3d
       -0.010021953 0.030515227 -0.014027455 0.04683193
0001e0 56 17 ac 3d 37 eb f0 bd f9 56 1d 3d df ba d3 bc
       0.084028885 -0.11763614 0.03841302 -0.025845943
0001f0 5c be 9e bd eb 26 69 bd 32 fc e3 bd d6 86 95 3b
       -0.07751152 -0.05692188 -0.11132087 0.004563193
000200 67 8b c5 bd 1c 90 c3 bd 7f 2b 97 3c c5 74 85 bc
       -0.096457295 -0.09548971 0.018453358 -0.016291032
000210 f2 76 dc bd 8d d7 1d 3c 49 81 2c 3e b5 19 8e bc
       -0.107648745 0.009633911 0.16846193 -0.017346242
000220 45 5a e1 bc e9 14 b8 3d b1 f3 2b bc 71 58 f6 ba
       -0.027508864 0.08988363 -0.010495112 -0.0018794668
000230 ea 6b 8f bd cb d6 2c bd 5c ea 2f bd 92 9c 88 bd
       -0.07003005 -0.04219703 -0.042948112 -0.066704884
000240 bf 19 01 3d 4a f0 13 3d 1c 5e b2 bd c3 18 19 3d
       0.031518694 0.03611783 -0.08709356 0.03737713
000250 20 8f fc 3c 72 6f f4 3b 0b 35 a9 bd ed c1 d3 bc
       0.030829966 0.0074595744 -0.0826207 -0.025849307
000260 ca 5c c5 3d 33 52 0a 3d 0a 40 e9 bc 64 11 eb bb
       0.09636839 0.033769798 -0.028472919 -0.007173704
000270 2e a0 78 3d 39 19 21 bd 44 ef 17 bb 45 b5 13 3d
       0.060699634 -0.039330695 -0.0023183385 0.036061544
000280 5a 93 11 3c fa 3c 92 3c 9b 7d 52 bd 6e 04 36 3d
       0.008885229 0.017851342 -0.051389318 0.04443782
000290 2d ea fa bd 1c 74 9a bd 04 78 10 3d b7 7f 7b bd
       -0.12251697 -0.07541677 0.035270706 -0.061401095
0002a0 93 f8 21 bd 4d d1 40 3d 09 56 0b 3d f4 93 8c 3c
       -0.0395437 0.047074605 0.034017596 0.017160393
0002b0 b6 3d 85 3d 77 42 58 bd 5a 2f 1d 3d e5 63 a5 bd
       0.06505911 -0.05279776 0.038375236 -0.08075694
0002c0 3a eb 98 3d 5f 13 08 bd 1d 1b 4b 3d 1d 95 74 bd
       0.07466741 -0.0332216 0.049586404 -0.059712518
0002d0 85 28 13 3c ea 9f cd bd 48 a0 58 bc 51 0f 3d 3d
       0.008981829 -0.10040267 -0.013221808 0.046157185
0002e0 bf e2 93 bd 58 cb fa 3d 5e 58 5d bc 0b 9a 05 bd
       -0.07220983 0.12245816 -0.013509838 -0.03261761
0002f0 a5 f0 d7 bd 93 3a 8c 3d a3 f5 6f 3b c4 48 e8 3c
       -0.10543946 0.0684711 0.0036614917 0.02835501
000300 c4 8f 49 bc f3 bb 23 3d 14 a5 96 3c c7 fa 97 3d
       -0.012302343 0.039974164 0.018389262 0.07420879
000310 47 82 ad 3c 85 a4 80 bc 59 00 1b 3e a0 10 15 bd
       0.021180285 -0.015703449 0.15136851 -0.036392808
000320 2d b0 07 3d 19 a3 72 3d 5f 95 84 bc 4a 73 01 be
       0.033127 0.059237573 -0.016184507 -0.12641636
000330 f7 02 cb 3c 66 7d 26 be 28 b0 8f bc 2e b5 e5 bd
       0.024781687 -0.16258773 -0.017540053 -0.11216198
000340 b2 b8 a1 3d 2c 16 d9 bd ec b4 51 3c 3e 29 8f bd
       0.07896556 -0.10599932 0.012799483 -0.06990288
000350 f3 48 b5 3c ef 38 c4 bb 2f a8 58 bc 53 01 61 3d
       0.022129511 -0.0059882323 -0.013223692 0.054932903
000360 81 31 59 3b a2 75 bc bd cf f8 1d 3d e6 62 95 bd
       0.003314108 -0.09202124 0.03856736 -0.07294254
000370 25 8d 6b 3c b1 5e cc 3c 46 5f ed bc 99 70 80 bd
       0.014376913 0.024947496 -0.028976094 -0.06271476
000380 6b 72 e4 bc 7f 70 af bd df f6 4d bc 4e 9a ac bd
       -0.02788659 -0.08566379 -0.012571066 -0.08427869
000390 59 66 c5 3c 96 62 bb 3d 28 d1 cb 3c 18 a3 a2 bd
       0.024096655 0.09149663 0.024880007 -0.07941264
0003a0 20 c2 d5 3a cc b5 15 3d 98 7b 8e 3d 0a cc f1 bd
       0.0016308464 0.036550328 0.069571674 -0.118064955
0003b0 fe 7a 2f 3d 72 7c c9 3d a5 00 7d 3c f9 25 2a bd
       0.042841904 0.09838189 0.015442048 -0.04154012
0003c0 03 99 68 bd 78 e4 70 3c 71 d5 0c bd 92 4f 7c 3c
       -0.05678655 0.014702909 -0.03438324 0.01539983
0003d0 36 5b 17 3c 6f 70 12 3d ed 21 0b 3e 23 ad 1e 3d
       0.009238055 0.035751756 0.1358716 0.038739335
0003e0 8c 7c af bd ac 10 64 bb 19 a8 2c bd 2e a2 f7 bc
       -0.08568677 -0.0034799976 -0.042152498 -0.0302287
0003f0 4a 72 99 bc dc 1a e5 bc 9c 74 12 3c 6c d2 5f 3d
       -0.018731255 -0.02796691 0.008938935 0.054644033

network_body._body_endoder.seq_layers.4.bias f4 [256]
000000 00 00 00 00 00 00 00 00 00 00 00 00 00 00 00 00
       0.0 0.0 0.0 0.0
000010 00 00 00 00 00 00 00 00 00 00 00 00 00 00 00 00
       0.0 0.0 0.0 0.0
000020 00 00 00 00 00 00 00 00 00 00 00 00 00 00 00 00
       0.0 0.0 0.0 0.0
000030 00 00 00 00 00 00 00 00 00 00 00 00 00 00 00 00
       0.0 0.0 0.0 0.0
000040 00 00 00 00 00 00 00 00 00 00 00 00 00 00 00 00
       0.0 0.0 0.0 0.0
000050 00 00 00 00 00 00 00 00 00 00 00 00 00 00 00 00
       0.0 0.0 0.0 0.0
000060 00 00 00 00 00 00 00 00 00 00 00 00 00 00 00 00
       0.0 0.0 0.0 0.0
000070 00 00 00 00 00 00 00 00 00 00 00 00 00 00 00 00
       0.0 0.0 0.0 0.0
000080 00 00 00 00 00 00 00 00 00 00 00 00 00 00 00 00
       0.0 0.0 0.0 0.0
000090 00 00 00 00 00 00 00 00 00 00 00 00 00 00 00 00
       0.0 0.0 0.0 0.0
0000a0 00 00 00 00 00 00 00 00 00 00 00 00 00 00 00 00
       0.0 0.0 0.0 0.0
0000b0 00 00 00 00 00 00 00 00 00 00 00 00 00 00 00 00
       0.0 0.0 0.0 0.0
0000c0 00 00 00 00 00 00 00 00 00 00 00 00 00 00 00 00
       0.0 0.0 0.0 0.0
0000d0 00 00 00 00 00 00 00 00 00 00 00 00 00 00 00 00
       0.0 0.0 0.0 0.0
0000e0 00 00 00 00 00 00 00 00 00 00 00 00 00 00 00 00
       0.0 0.0 0.0 0.0
0000f0 00 00 00 00 00 00 00 00 00 00 00 00 00 00 00 00
       0.0 0.0 0.0 0.0
000100 00 00 00 00 00 00 00 00 00 00 00 00 00 00 00 00
       0.0 0.0 0.0 0.0
000110 00 00 00 00 00 00 00 00 00 00 00 00 00 00 00 00
       0.0 0.0 0.0 0.0
000120 00 00 00 00 00 00 00 00 00 00 00 00 00 00 00 00
       0.0 0.0 0.0 0.0
000130 00 00 00 00 00 00 00 00 00 00 00 00 00 00 00 00
       0.0 0.0 0.0 0.0
000140 00 00 00 00 00 00 00 00 00 00 00 00 00 00 00 00
       0.0 0.0 0.0 0.0
000150 00 00 00 00 00 00 00 00 00 00 00 00 00 00 00 00
       0.0 0.0 0.0 0.0
000160 00 00 00 00 00 00 00 00 00 00 00 00 00 00 00 00
       0.0 0.0 0.0 0.0
000170 00 00 00 00 00 00 00 00 00 00 00 00 00 00 00 00
       0.0 0.0 0.0 0.0
000180 00 00 00 00 00 00 00 00 00 00 00 00 00 00 00 00
       0.0 0.0 0.0 0.0
000190 00 00 00 00 00 00 00 00 00 00 00 00 00 00 00 00
       0.0 0.0 0.0 0.0
0001a0 00 00 00 00 00 00 00 00 00 00 00 00 00 00 00 00
       0.0 0.0 0.0 0.0
0001b0 00 00 00 00 00 00 00 00 00 00 00 00 00 00 00 00
       0.0 0.0 0.0 0.0
0001c0 00 00 00 00 00 00 00 00 00 00 00 00 00 00 00 00
       0.0 0.0 0.0 0.0
0001d0 00 00 00 00 00 00 00 00 00 00 00 00 00 00 00 00
       0.0 0.0 0.0 0.0
0001e0 00 00 00 00 00 00 00 00 00 00 00 00 00 00 00 00
       0.0 0.0 0.0 0.0
0001f0 00 00 00 00 00 00 00 00 00 00 00 00 00 00 00 00
       0.0 0.0 0.0 0.0
000200 00 00 00 00 00 00 00 00 00 00 00 00 00 00 00 00
       0.0 0.0 0.0 0.0
000210 00 00 00 00 00 00 00 00 00 00 00 00 00 00 00 00
       0.0 0.0 0.0 0.0
000220 00 00 00 00 00 00 00 00 00 00 00 00 00 00 00 00
       0.0 0.0 0.0 0.0
000230 00 00 00 00 00 00 00 00 00 00 00 00 00 00 00 00
       0.0 0.0 0.0 0.0
000240 00 00 00 00 00 00 00 00 00 00 00 00 00 00 00 00
       0.0 0.0 0.0 0.0
000250 00 00 00 00 00 00 00 00 00 00 00 00 00 00 00 00
       0.0 0.0 0.0 0.0
000260 00 00 00 00 00 00 00 00 00 00 00 00 00 00 00 00
       0.0 0.0 0.0 0.0
000270 00 00 00 00 00 00 00 00 00 00 00 00 00 00 00 00
       0.0 0.0 0.0 0.0
000280 00 00 00 00 00 00 00 00 00 00 00 00 00 00 00 00
       0.0 0.0 0.0 0.0
000290 00 00 00 00 00 00 00 00 00 00 00 00 00 00 00 00
       0.0 0.0 0.0 0.0
0002a0 00 00 00 00 00 00 00 00 00 00 00 00 00 00 00 00
       0.0 0.0 0.0 0.0
0002b0 00 00 00 00 00 00 00 00 00 00 00 00 00 00 00 00
       0.0 0.0 0.0 0.0
0002c0 00 00 00 00 00 00 00 00 00 00 00 00 00 00 00 00
       0.0 0.0 0.0 0.0
0002d0 00 00 00 00 00 00 00 00 00 00 00 00 00 00 00 00
       0.0 0.0 0.0 0.0
0002e0 00 00 00 00 00 00 00 00 00 00 00 00 00 00 00 00
       0.0 0.0 0.0 0.0
0002f0 00 00 00 00 00 00 00 00 00 00 00 00 00 00 00 00
       0.0 0.0 0.0 0.0
000300 00 00 00 00 00 00 00 00 00 00 00 00 00 00 00 00
       0.0 0.0 0.0 0.0
000310 00 00 00 00 00 00 00 00 00 00 00 00 00 00 00 00
       0.0 0.0 0.0 0.0
000320 00 00 00 00 00 00 00 00 00 00 00 00 00 00 00 00
       0.0 0.0 0.0 0.0
000330 00 00 00 00 00 00 00 00 00 00 00 00 00 00 00 00
       0.0 0.0 0.0 0.0
000340 00 00 00 00 00 00 00 00 00 00 00 00 00 00 00 00
       0.0 0.0 0.0 0.0
000350 00 00 00 00 00 00 00 00 00 00 00 00 00 00 00 00
       0.0 0.0 0.0 0.0
000360 00 00 00 00 00 00 00 00 00 00 00 00 00 00 00 00
       0.0 0.0 0.0 0.0
000370 00 00 00 00 00 00 00 00 00 00 00 00 00 00 00 00
       0.0 0.0 0.0 0.0
000380 00 00 00 00 00 00 00 00 00 00 00 00 00 00 00 00
       0.0 0.0 0.0 0.0
000390 00 00 00 00 00 00 00 00 00 00 00 00 00 00 00 00
       0.0 0.0 0.0 0.0
0003a0 00 00 00 00 00 00 00 00 00 00 00 00 00 00 00 00
       0.0 0.0 0.0 0.0
0003b0 00 00 00 00 00 00 00 00 00 00 00 00 00 00 00 00
       0.0 0.0 0.0 0.0
0003c0 00 00 00 00 00 00 00 00 00 00 00 00 00 00 00 00
       0.0 0.0 0.0 0.0
0003d0 00 00 00 00 00 00 00 00 00 00 00 00 00 00 00 00
       0.0 0.0 0.0 0.0
0003e0 00 00 00 00 00 00 00 00 00 00 00 00 00 00 00 00
       0.0 0.0 0.0 0.0
0003f0 00 00 00 00 00 00 00 00 00 00 00 00 00 00 00 00
       0.0 0.0 0.0 0.0

network_body._body_endoder.seq_layers.4.weight f4 [256, 256]
000000 12 d4 ab 3d 06 a1 b7 bc ff 05 19 bd b3 c7 ad 3c
       0.083900586 -0.02241565 -0.037359234 0.021213388
000010 1d d6 09 bd 02 92 c3 bd d0 ce e3 bd e4 78 a0 3c
       -0.03365146 -0.09549333 -0.11123431 0.019588895
000020 52 ab cd bd 8d ef 14 3d 7e 2a 44 3d b4 0a 5f 3d
       -0.100424424 0.036361266 0.047892086 0.054453567
000030 04 c3 5a bd 75 6a 91 3c 5a a2 4b bd 5a 95 53 3c
       -0.053408638 0.017750958 -0.049715377 0.012914026
000040 ee 06 11 3d 3b f2 7e 3d f4 59 14 3d c2 5a 97 bc
       0.035407 0.062242728 0.0362186 -0.018475894
000050 a2 e4 d5 3d db 7f a2 3d fe dd 19 be 75 5f c1 bd
       0.10443999 0.07934543 -0.1502609 -0.09442035
000060 6f 47 cb 3b 9a ca b1 3c 09 04 47 bd c3 6d 39 3d
       0.006203584 0.021703053 -0.048587833 0.045270693
000070 ef 6b 1a bd d3 c8 a3 3d c7 20 82 bc 20 01 e7 bc
       -0.03770059 0.079972886 -0.01588477 -0.028198779
000080 95 61 65 bd a7 65 53 3d f9 ab 97 bd be 4b 1e 3e
       -0.056001265 0.051610615 -0.07405848 0.15458581
000090 d1 bf c6 3c 5d d9 b4 3d 6f da 04 3c a1 66 c5 bb
       0.024261387 0.08830521 0.008108719 -0.006024197
0000a0 f8 61 80 bc 58 ab 46 3e a0 c0 bf 3d 63 90 59 3d
       -0.015671715 0.194013 0.09362912 0.053116214
0000b0 44 0b 51 3d 39 1d 98 3c 3f e8 b0 3d d6 e7 b1 3a
       0.051036134 0.018568622 0.086380474 0.0013573121
0000c0 6c 9d e4 bc 77 95 6d bd 43 8f 60 bd 01 cd 02 3c
       -0.027907096 -0.05800387 -0.054824125 0.007983447
0000d0 dc 45 bb 3b 30 90 3d bc 9f 62 46 bd ff 25 d1 bc
       0.005715115 -0.0115700215 -0.048433896 -0.025530813
0000e0 76 c9 bb 3c ec 72 60 3d 3f 38 03 be 6c a8 45 bd
       0.022923212 0.054797098 -0.12814425 -0.048256323
0000f0 14 5b 58 bc 2b dd 7c 3c ce 56 85 3d 7f 41 c3 bd
       -0.0132053085 0.01543359 0.06510697 -0.09533977
000100 76 cb a6 bc 80 b1 ac 3d 84 32 7b bc 4e 68 16 be
       -0.02036069 0.08432293 -0.015331868 -0.14688227
000110 b9 20 18 bd 83 33 40 bc 1c c6 fe 3d fc 01 67 bd
       -0.03714058 -0.011731031 0.1244013 -0.056398377
000120 40 d9 88 3d 82 a1 ff 3c 20 42 53 3d 73 e1 12 bd
       0.06682062 0.031204943 0.051576734 -0.035859536
000130 2f 73 c3 bc eb 57 00 3c 55 90 26 3d ff 66 bc 3d
       -0.023858635 0.007833461 0.04066499 0.091993324
000140 df 54 a2 bd 9c df fe 3c 68 1d aa 3d 99 5e 80 3d
       -0.07926344 0.031112485 0.0830639 0.06268043
000150 b3 11 fd bb 08 da 92 3c b4 1a 71 3d 06 9b f1 3c
       -0.007723057 0.017926231 0.058863357 0.029492866
000160 b3 40 6e 3b 9d 72 d3 3d d4 ec 01 3d 34 68 8e bc
       0.0036354482 0.10324595 0.031719998 -0.017383672
000170 5f af e0 bd 7d 69 17 bd a3 76 7d bd a6 5c 76 3d
       -0.109709494 -0.036965836 -0.06188072 0.06014695
000180 54 7b 58 bc b5 e0 1e bb ef 96 f0 3d b9 3a bd bd
       -0.0132129975 -0.0024242823 0.11747538 -0.09239716
000190 17 75 3f 3b 54 56 93 3c e6 f8 05 bd d4 20 b8 bb
       0.0029214078 0.0179855 -0.03270807 -0.005619148
0001a0 4d 31 07 be 52 08 d7 bd 79 df da bb 34 1d bf bd
       -0.132024 -0.10499634 -0.006679472 -0.09331742
0001b0 15 8c b4 3b 18 47 a9 3c 36 4b c5 bd d5 76 5c 3d
       0.005509863 0.020663783 -0.09633486 0.053824265
0001c0 1e 0e e3 bd 15 ba 37 bd 00 9b 1b bc ab 65 90 bd
       -0.11086677 -0.044855196 -0.009497404 -0.070506416
0001d0 8a 5d 21 3a c7 81 f4 3c 32 5c 5e 3c eb 35 2a bd
       0.0006155601 0.029847039 0.013571786 -0.041555326
0001e0 1b 3b f9 3a ba 93 be 3c 71 e5 47 bd a5 47 2f 3e
       0.0019014807 0.0232638 -0.048802797 0.17117174
0001f0 f3 30 29 bd a9 85 d5 bd 77 54 fa 3c 44 2b 66 3d
       -0.041306447 -0.10425884 0.030557854 0.056193605
000200 25 18 d3 bb 23 f2 81 bd 9c a9 e4 bc 0d 0b b3 3c
       -0.0064420872 -0.06345012 -0.027912907 0.021855855
000210 26 59 f1 3c bf b5 82 bd 5e af a1 bc a8 8a d5 3c
       0.029461455 -0.063823216 -0.019736942 0.026067093
000220 53 65 6b 3d 50 33 d8 bd b0 b1 59 bd 69 bf 8b 3c
       0.057469677 -0.10556662 -0.05314797 0.017059045
000230 c5 4e d4 ba 01 e3 b9 bd 96 70 71 bd 60 c5 79 3d
       -0.0016197792 -0.09076501 -0.05894526 0.060979247
000240 3a f4 09 3e ed 35 aa bc 95 5f 8f 3d 0e a3 56 bd
       0.13472071 -0.020777667 0.07000653 -0.052401595
000250 db c1 ce bd ad 2b c3 39 c7 4a f0 bc e1 5c d7 bd
       -0.10095569 0.0003722584 -0.029332532 -0.10515762
000260 1a e9 8c 3d 4d d3 2b 3e 0a 4a 7f bd f6 b3 36 bd
       0.06880398 0.16779824 -0.06232647 -0.044605218
000270 86 0e ce bd 30 da 33 bd d4 8f 06 be dc bd 77 bc
       -0.10061364 -0.04390925 -0.13140804 -0.01512095
000280 f2 e1 03 3e 40 21 19 bd 47 9b a5 3b 9b 5f a7 bd
       0.1287916 -0.037385225 0.005053911 -0.08172532
000290 fe 58 68 bd 18 f0 72 3c 03 0e 1d bd 75 36 6a bd
       -0.056725495 0.014827751 -0.03834344 -0.05718084
0002a0 46 f1 10 3d 91 1e e7 3c c3 eb 93 3c c2 cf e3 3d
       0.035386346 0.028212817 0.018056756 0.11123611
0002b0 67 3d 02 bd 2c 4c ac bd 7d 4e 0b bc 39 c7 3d 3d
       -0.03179684 -0.08412966 -0.0085026 0.04633257
0002c0 b5 6d 25 bd 50 bd 25 3c bd f0 ae 3c 8f f8 2a bb
       -0.040387828 0.010115936 0.021355027 -0.0026088094
0002d0 62 c4 9f 3c 01 eb 4f bd 27 00 44 3d 1f e6 77 3d
       0.019502822 -0.050761227 0.047851708 0.060522195
0002e0 81 83 70 3d bb ed 24 bb c6 ef ad bc a7 af b6 3b
       0.058719162 -0.0025166112 -0.021232497 0.0055751386
0002f0 42 8f 04 bd fa a7 57 bb 18 ef 37 bd 01 43 fc 3b
       -0.032363184 -0.0032906518 -0.044905752 0.007698417
000300 fd b6 c3 bd dc f5 26 bc 74 0d 9d 3c e2 3f 9f 3c
       -0.095563866 -0.010190453 0.019171454 0.019439641
000310 c2 d8 d4 bc 8e f6 25 3d 55 26 d8 3d 2a 3c 23 bc
       -0.025982264 0.040518336 0.10554186 -0.009963075
000320 c6 67 ad bc e1 47 ec 3d de a2 ae bd 11 ed 24 bd
       -0.021167647 0.11537147 -0.08527158 -0.040265147
000330 92 9a e4 bd 5f 2d 05 3c cf 29 44 bd 34 53 2f bd
       -0.111622944 0.008128493 -0.047891434 -0.042803958
000340 8c c5 99 bc 18 0c 97 bd 1a c2 87 3d 1b c7 a4 3c
       -0.018770956 -0.073753536 0.06628819 0.020114472
000350 56 10 91 bd 9c 22 f7 bb 15 d8 ae 3d d5 3d dd bc
       -0.07083194 -0.0075419676 0.08537308 -0.027007023
000360 97 39 85 3d 5e 42 91 3c d9 46 58 bc 6e 4d 1d 3d
       0.06505125 0.017731842 -0.013200485 0.03840392
000370 ae a6 3b bb 6d fe bb bb 35 53 cf 3d 31 db 64 bd
       -0.0028633284 -0.005737117 0.10123292 -0.0558731
000380 16 42 28 3d 65 81 b8 3c 48 d5 91 3d 88 9b a6 bd
       0.04107865 0.022522638 0.07120758 -0.08135134
000390 c6 52 c1 3d 4c b4 86 3d 07 48 0a 3c ad fe e3 3c
       0.09439616 0.06577358 0.008440024 0.0278314
0003a0 53 9e cd bd 8d e2 42 bd 04 c9 16 3d 3e 73 c1 3d
       -0.100399636 -0.047579337 0.036812797 0.09445809
0003b0 a6 71 3a 3d 0c cf 0f bd 0f a0 4f bd d9 d4 a1 bd
       0.04551854 -0.035109565 -0.050689753 -0.079019256
0003c0 d4 c1 08 be e2 01 c0 3a 0c f4 be 3d 71 08 0b 3d
       -0.1335519 0.0014648999 0.09323892 0.033943597
0003d0 eb ce 1a 3c e2 8e 88 bd f6 a8 8f bd 90 39 04 3e
       0.009448747 -0.06667878 -0.070146486 0.12912583
0003e0 48 10 8d 3b aa 82 ce bc 7f c1 23 bc d1 7c 0c bb
       0.0043049194 -0.02520879 -0.0099948635 -0.00214367
0003f0 66 e2 22 bd fb 74 a5 bd 15 78 0e 3c fc 3e 6c bd
       -0.03976669 -0.08078953 0.008695622 -0.057677254
