Endless Runner/Assets/training/results/Run 3/cfg.onnx (onnx, 597435 bytes, 8 tensors)

action_model._discrete_distribution.branches.0.bias f4 [3]
-0.0052898643 0.0042317426 0.0012270978
00000000: 9956 adbb 6eaa 8a3b 92d6 a03a

action_model._discrete_distribution.branches.0.weight f4 [3, 256]
0.0020131539 -0.005479131 0.008682428 0.008941628 0.0033719512 -0.009337599 0.009271608 0.0131510785
-0.0061198594 -0.0052758767 -0.0023951833 0.0062126275 -0.011370529 -0.00038772525 -0.0030458993 0.0074781957
0.0033027017 -0.005961221 0.000386541 -0.0067636278 0.00014162122 0.009596712 0.0015058513 0.012094049
0.010144726 0.0029164245 -0.008724647 0.0019827664 -0.011775479 0.0007441226 -0.00572294 -0.013913893
-0.004637538 -0.0034719922 -0.017138053 0.007933237 0.00084504415 0.002981456 0.008471414 -0.0024316835
0.0090192575 -0.010837449 -0.01365355 0.0012246812 0.013939582 -0.0012353695 -0.0047670137 0.003135063
-0.0005836558 0.013170776 -0.005006646 0.0018234964 0.015621629 -0.0057859486 0.016491372 0.00063687185
-0.007468672 0.006681585 -0.0013770134 0.0005196852 0.004499142 0.008771567 -0.005341247 -0.013306132
-0.0013111599 0.0055003413 -0.013725251 -0.0065827277 0.0025578588 -0.009299161 -0.001663864 0.012396971
-0.008776584 -0.00851534 0.002799673 -0.0067536235 0.016096445 0.0016505688 0.017069006 0.004639542
0.007506186 -0.003556165 -0.0014338878 -0.006840602 0.0036867566 -0.0035872422 0.008699256 -0.012972946
-0.002518772 -0.0025424946 0.017900739 -0.011772599 0.006462011 -0.0005480795 -0.009492446 -0.007305421
0.019950345 0.016204705 -0.0067015523 0.004942988 0.012387051 -0.0035628628 0.01002424 -0.006907167
-0.01094603 -0.0035839863 -0.011987629 0.0017990832 -0.00011553881 -0.0013167474 0.008533711 0.0018352646
-0.017799728 0.0022323062 5.380677e-05 -0.0057327473 -0.0035836822 0.0021937212 -0.008078586 -0.002985542
-0.007997981 0.009134322 0.0008590441 0.006072965 -0.004389424 -0.0037312815 0.0015008484 0.008171342
-0.010487666 -0.014771255 -0.01176105 -0.006337455 -0.009535753 -0.002267537 0.008252742 0.015635855
-6.413812e-05 -0.0038978937 -0.006292771 -0.007551514 0.0028024127 0.003627836 -0.01052501 0.00014467044
0.0073644714 0.016672406 0.023180092 0.008205372 -0.007839913 -0.0056049484 0.006982782 7.3879146e-06
0.005563525 -0.0002874413 -0.007155308 0.007101575 -0.0036680896 -0.011632128 -0.00032472724 0.0026156222
0.009614837 0.010712915 0.013197561 -0.015518522 -0.00060853985 -0.008535071 -0.005342248 0.005625769
-0.0142530715 -0.00865899 -0.005778923 -0.001983351 0.012427745 0.0032093055 -0.012272129 -0.009662365
0.0028353313 -0.0042841723 0.011397305 -0.0011634686 0.0049775443 0.0073268767 0.0016908718 -0.011416877
0.0018249478 -0.009893299 -0.0024355478 -0.0038113934 -0.0061971475 0.009052313 -0.018755933 0.0018415661
-0.00051779783 0.01469723 -0.026958317 0.002220213 -0.0020937347 0.006895307 -0.009052525 0.001316218
0.011767672 0.0005318987 0.0026657833 0.008871478 0.0062037595 -0.0029652999 -0.016703945 -0.00012452745
-0.00077632116 0.0027448325 -0.0063774493 -0.009397945 0.0063505205 0.0017159769 0.0013199712 0.014358864
-0.0056105345 -0.00695208 0.007941465 -0.0016377622 -0.0060642418 0.002196987 -0.0090013 0.014035987
-0.005554498 -0.00081030594 0.01131932 -0.013999398 0.004083079 -0.0013831819 -0.0075987885 -0.0043148906
0.003208927 0.015260318 -0.005252673 -0.0060052965 0.001821972 0.0075154537 -0.006339562 -0.011668754
-0.0016586152 0.0070879725 0.00170402 0.012223069 0.020805594 -0.0002517007 0.010117878 0.0065717786
0.013001903 -0.011524962 -0.01784803 0.00089808705 -0.0011824603 -0.007620368 0.0028792522 0.013889002
00000000: 1eef 033b 488a b3bb be40 0e3c e87f 123c
00000010: f4fb 5c3b bbfc 18bc f1e7 173c 9f77 573c
00000020: 1a89 c8bb 43e1 acbb 82f8 1cbb 4c93 cb3b
00000030: 754b 3abc 9a47 cbb9 b69d 47bb a70b f53b
00000040: 2472 583b 5956 c3bb a8a8 ca39 6ca1 ddbb
00000050: 2880 1439 873b 1d3c fc5f c53a 1e26 463c
00000060: 1136 263c 7c21 3f3b d2f1 0ebc 4df1 013b
00000070: f0ed 40bc 3911 433a 8087 bbbb 19f7 63bc
00000080: 7df6 97bb 5d8a 63bb 1a65 8cbc 68fa 013c
00000090: f485 5d3a 8864 433b b0cb 0a3c e15c 1fbb
000000a0: 82c5 133c 8e8f 31bc 24b3 5fbc 7b85 a03a
000000b0: d862 643c 1fec a1ba 9c34 9cbb a175 4d3b
000000c0: 7a00 19ba 3dca 573c ca0e a4bb 6302 ef3a
000000d0: dcf1 7f3c 0e98 bdbb ea18 873c bff3 263a
000000e0: c3bb f4bb 33f1 da3b e77c b4ba 7c3b 083a
000000f0: 8a6d 933b 9eb6 0f3c a105 afbb f601 5abc
00000100: 3adb abba 353c b43b e0df 60bc ecb3 d7bb
00000110: c0a1 273b 825b 18bc 0316 daba aa1c 4b3c
00000120: a9cb 0fbc ed83 0bbc b87a 373b 804d ddbb
00000130: b1dc 833c e657 d83a 4dd4 8b3c 4d07 983b
00000140: 74f6 f53b 8c0e 69bb 4af1 bbba 2127 e0bb
00000150: 839d 713b f017 6bbb 5387 0e3c 7b8c 54bc
00000160: fb11 25bb fb9f 26bb 92a4 923c dce1 40bc
00000170: 47bf d33b feac 0fba 3486 1bbc 5062 efbb
00000180: e86e a33c bbbf 843c b298 dbbb caf8 a13b
00000190: 0ff3 4a3c eb7e 69bb b63c 243c 8455 e2bb
000001a0: fa56 33bc 50e1 6abb c367 44bc 37cf eb3a
000001b0: 6d4d f2b8 b696 acba fad0 0b3c 438d f03a
000001c0: bcd0 91bc e24b 123b 94ae 6138 c5d9 bbbb
000001d0: 36dc 6abb 89c4 0f3b 0c5c 04bc 15a9 43bb
000001e0: f709 03bc 20a8 153c 7931 613a b9ff c63b
000001f0: 28d5 8fbb 8488 74bb 1eb8 c43a 18e1 053c
00000200: 76d4 2bbc 2203 72bc 6bb1 40bc 6daa cfbb
00000210: d93b 1cbc f59a 14bb 8236 073c c416 803c
00000220: e481 86b8 ce73 7fbb 9733 cebb b172 f7bb
00000230: afa8 373b fdc0 6d3b 1771 2cbc adb2 1739
00000240: aa51 f13b 9294 883c 2de4 bd3c d36f 063c
00000250: fa72 00bc b7a9 b7bb d2cf e43b b4e5 f736
00000260: 3b4e b63b b8b3 96b9 1377 eabb 54b4 e83b
00000270: 5564 70bb ae94 3ebc 2740 aab9 dc6a 2b3b
00000280: 8d87 1d3c 3985 2f3c 953a 583c 6641 7ebc
00000290: 6b86 1fba afd6 0bbc 060e afbb 5f58 b83b
000002a0: b785 69bc 70de 0dbc 1f5d bdbb 1cfb 01bb
000002b0: be9d 4b3c 3653 523b 0a11 49bc e54e 1ebc
000002c0: f7d0 393b 3e62 8cbb c3bb 3a3c 877f 98ba
000002d0: ab1a a33b 4c16 f03b 3ea0 dd3a da0d 3bbc
000002e0: 1633 ef3a 8117 22bc b69d 1fbb 92c8 79bb
000002f0: 7111 cbbb 2750 143c 0ba6 99bc b460 f13a
00000300: d3bc 07ba a7cc 703c b0d7 dcbc fe80 113b
00000310: 0a37 09bb 07f2 e13b 0b51 14bc f384 ac3a
00000320: 32cd 403c 1e6f 0b3a 6cb4 2e3b ad59 113c
00000330: e848 cb3b 7a55 42bb b6d6 88bc 9593 02b9
00000340: 0882 4bba a6e2 333b ecf9 d0bb d7f9 19bc
00000350: 0718 d03b a1ea e03a e202 ad3a 7141 6b3c
00000360: 93d8 b7bb 46ce e3bb eb1c 023c 2eaa d6ba
00000370: 8cb6 c6bb 53fb 0f3b 307a 13bc 32f7 653c
00000380: 8202 b6bb b66a 54ba ab74 393c bb5d 65bc
00000390: 59cb 853b e24b b5ba 42ff f8bb ed63 8dbb
000003a0: dd4c 523b 6a06 7a3c 9d1e acbb 14c8 c4bb
000003b0: 3ccf ee3a 3244 f63b 1abc cfbb 4d2e 3fbc
000003c0: e465 d9ba 3942 e83b 6c59 df3a 4443 483c
000003d0: 7e70 aa3c b2f6 83b9 75c5 253c 1358 d73b
000003e0: ef05 553c 32d3 3cbc 0836 92bc 9a6d 6b3a
000003f0: c9fc 9aba 48b4 f9bb d6b1 3c3b b28e 633c

network_body._body_endoder.seq_layers.0.bias f4 [256]
-0.0038440963 0.004440516 0.0022195042 0.00036608955 -0.003309975 0.0026528244 0.0024180352 0.005198268
-0.002085249 0.0036716938 0.00029118566 -0.0057753096 0.0042249076 0.0011117428 0.002917572 0.0050019505
0.0041686757 0.0037630482 -0.0053204964 -0.006024456 -0.0033964624 -0.0012271516 -0.0037758225 -0.0016178738
0.005090904 0.0024865735 0.0032350747 -0.0019480633 -0.0002740231 0.0034103123 0.004618171 -0.006979601
-0.0058410335 0.005050163 -0.006160973 0.00655139 -0.0055945264 0.0023396744 -0.0047286996 0.004516704
0.007792633 -0.0015770464 0.0052505117 -0.006702154 0.0019186195 0.00074133516 -1.9533763e-07 -0.0047957106
0.0028838154 -0.001694321 0.0006499404 0.006257961 -0.0029530728 -0.0022567844 -0.0008996274 -0.004290643
0.001270049 -0.0021678247 -0.00068142073 0.0044021383 0.0008498929 -0.003929294 -0.0033212455 -0.0030546824
-0.0034740716 0.0051335893 0.00015202668 0.0031922802 0.0035316877 -0.0018998702 0.0007953187 0.004571167
-0.000716832 0.003332277 0.008334643 0.004015945 0.0018449089 -0.00082952523 0.0039678523 0.00041850525
-0.002900446 0.0038195832 0.004829219 0.0023951838 0.0023177087 0.00016520877 0.010501021 0.005991353
0.005600393 -0.0005130216 -0.004299058 0.0035364295 0.0036964947 0.0028296942 0.00251577 0.0031900657
0.0004758675 0.0012606997 0.0020786368 -0.00660069 -0.0041694655 -0.0018393283 0.0011218846 0.0010436913
0.0046832026 0.0044015734 -0.004001209 -0.0041371435 -0.00668919 0.0028495407 -0.0019577367 0.0034867479
-0.00011218274 0.006786018 -0.0034292398 -0.0009770826 -0.00038493605 0.0033505687 0.003487765 0.0017775404
0.002583258 0.002257788 -0.0067674713 0.0028271598 -0.0059448276 -0.00931623 -0.00022501011 0.005332031
-0.00435891 0.002549917 0.0020867707 -0.0039166748 6.537933e-05 -0.006165887 -0.006158558 -0.00030129962
0.0040383637 0.0040748282 -0.0011271614 0.0068724575 -0.00420084 -0.0002867331 0.006056465 -0.0058565075
-0.000924756 -0.00016894672 -0.0015192812 0.0053417706 -0.006838305 0.0031676823 -0.0034735857 0.0022164101
-0.001187773 -0.001214983 -0.0015905006 0.004431983 0.00045588362 0.0014798357 -0.0058837403 -0.0062713064
0.0028992086 0.0015542975 0.002870676 0.0054312022 0.00044179376 0.0046033836 0.0030045619 0.002114981
-0.005564155 0.00451458 -0.0050945184 0.0044011795 0.0027393354 0.0020357105 0.0033942764 -0.0062916433
0.007622046 0.0057019535 -0.0007126225 0.0053461934 -0.0041748895 0.002765673 -0.002860918 -0.0056154304
-0.00448282 -0.0012025707 0.0032877638 0.00010699558 0.004868055 0.0060169105 -0.0017620155 0.005658436
0.0015564308 -0.0037332764 -0.005123438 -0.0057797823 -0.00050462614 -0.00082999055 -0.0012945798 0.0014184536
0.001413516 0.0024677732 -0.0034755105 0.0064197024 0.0031167804 0.004799955 0.007848235 0.004563436
0.0007387197 0.004584694 0.0033660813 0.0028199472 0.00033132854 0.0042740814 -0.0076190974 0.005761534
0.0015350861 0.0008304471 -0.002047648 -0.0075847832 0.0014995146 0.0028589095 -0.0004916661 0.0029352438
0.0036304751 -0.004488949 -0.007522952 -0.002588149 -0.00070580066 0.0034383852 0.0011796991 0.0045524756
0.0038462398 0.004813395 -0.004421179 0.0025850143 -0.0044776746 0.0063416865 0.0025648074 -0.0038092192
-0.004297217 0.0019566976 0.0006160763 0.005076532 0.0002575268 -0.0058686286 0.0034871502 0.0076378575
-0.0020014343 -0.0015240711 -0.005331732 0.004114431 0.0060861777 0.005517382 0.0041344464 -0.004415942
00000000: 3ced 7bbb bf81 913b 1a75 113b b5ef bf39
00000010: 2aec 58bb 02db 2d3b e677 1e3b 3c56 aa3b
00000020: aca8 08bb cda0 703b 47aa 9839 cf3e bdbb
00000030: 1871 8a3b e6b7 913a bc34 3f3b 67e7 a33b
00000040: 6399 883b 799d 763b 8f57 aebb cd68 c5bb
00000050: 2f97 5ebb 60d8 a0ba ca73 77bb d60e d4ba
00000060: 99d1 a63b c8f5 223b 8c03 543b 2856 ffba
00000070: c2aa 8fb9 8c7f 5f3b 0754 973b 23b5 e4bb
00000080: 2466 bfbb d67b a53b fde1 c9bb 0bad d63b
00000090: 4a52 b7bb 3955 193b 35f3 9abb dc00 943b
000000a0: 5859 ff3b e5b4 ceba 7c0c ac3b be9d dbbb
000000b0: 307a fb3a 2956 423a 00be 51b4 5625 9dbb
000000c0: 65fe 3c3b fb13 deba c360 2a3a 950f cd3b
000000d0: 5788 41bb 8fe6 13bb f9d4 6bba 8698 8cbb
000000e0: c677 a63a 1012 0ebb 5fa1 32ba d03f 903b
000000f0: 59cb 5e3a 4fc1 80bb 41a9 59bb 1131 48bb
00000100: 40ad 63bb ab37 a83b 5a69 1f39 9335 513b
00000110: e373 673b 1105 f9ba ef7c 503a bac9 953b
00000120: c8e9 3bba 5562 5a3b 078e 083c 3098 833b
00000130: dfd0 f13a 7f74 59ba c204 823b d36a db39
00000140: 6915 3ebb f951 7a3b 6d3e 9e3b 84f8 1c3b
00000150: b3e4 173b e43b 2d39 790c 2c3c 1d53 c43b
00000160: 8083 b73b 4c7c 06ba 1ddf 8cbb 71c3 673b
00000170: e440 723b 6472 393b 9edf 243b 6c10 513b
00000180: db7d f939 103e a53a bd39 083b 9a4a d8bb
00000190: 03a0 88bb 9e15 f1ba 330c 933a 78cc 883a
000001a0: 8d75 993b 133b 903b 931c 83bb e090 87bb
000001b0: fe30 dbbb 5cbf 3a3b 5f4d 00bb ec81 643b
000001c0: a643 ebb8 3f5d de3b 19bd 60bb 7411 80ba
000001d0: 3ed1 c9b9 3795 5b3b fd92 643b 5cfc e83a
000001e0: e14b 293b 66f7 133b aac1 ddbb df47 393b
000001f0: d4cc c2bb 1aa3 18bc b1f0 6bb9 51b8 ae3b
00000200: 30d5 8ebb 821c 273b 34c2 083b 7357 80bb
00000210: 431c 8938 360b cabb bbcd c9bb c0f7 9db9
00000220: 4054 843b 2386 853b 43bd 93ba 5a32 e13b
00000230: 33a7 89bb aa54 96b9 5075 c63b f2e7 bfbb
00000240: 536b 72ba 4a27 31b9 9e22 c7ba 050a af3b
00000250: dc13 e0bb e498 4f3b 19a5 63bb 3141 113b
00000260: 0caf 9bba 1140 9fba 5878 d0ba 2b3a 913b
00000270: aa03 ef39 0cf7 c13a 64cc c0bb 887f cdbb
00000280: a600 3e3b 92b9 cb3a f421 3c3b 3af8 b13b
00000290: 8ea0 e739 fbd7 963b 2fe8 443b 7e9b 0a3b
000002a0: 8453 b6bb 0bef 933b ebef a6bb c537 903b
000002b0: 6c86 333b 8e69 053b 8272 5e3b 212a cebb
000002c0: 5bc2 f93b 74d7 ba3b 49cf 3aba 1f2f af3b
000002d0: 83cd 88bb 4b40 353b 3d7e 3bbb a501 b8bb
000002e0: 9fe4 92bb 949f 9dba 8677 573b d162 e038
000002f0: 3584 9f3b 8129 c53b 6ef3 e6ba 676a b93b
00000300: 2701 cc3a fca9 74bb 83e2 a7bb 5464 bdbb
00000310: e348 04ba b993 59ba e4ae a9ba 68eb b93a
00000320: ba45 b93a 5dba 213b 64c5 63bb 5e5c d23b
00000330: e642 4c3b f148 9d3b e295 003c e088 953b
00000340: a4a6 413a 333b 963b 7999 5c3b ddce 383b
00000350: 2ab6 ad39 980d 8c3b 9fa9 f9bb 40cb bc3b
00000360: f134 c93a 5db2 593a d531 06bb c689 f8bb
00000370: 5c8b c43a 8b5c 3b3b 27e3 00ba 385d 403b
00000380: 44ed 6d3b 0918 93bb 1883 f6bb ef9d 29bb
00000390: 7b05 39ba 8856 613b 22a0 9a3a ef2c 953b
000003a0: 3211 7c3b afb9 9d3b 8adf 90bb 5869 293b
000003b0: 75b9 92bb eccd cf3b 5416 283b 18a4 79bb
000003c0: abcf 8cbb f03b 003b 2e80 213a 0959 a63b
000003d0: a904 8739 a04d c0bb ac88 643b fe46 fa3b
000003e0: 7f2a 03bb 57c3 c7ba cfb5 aebb 59d2 863b
000003f0: 8f6e c73b 28cb b43b 407a 873b 9bb3 90bb

network_body._body_endoder.seq_layers.0.weight f4 [256, 63]
0.04760103 -0.081190825 -0.04586609 -0.026924385 -0.089175165 -0.0747479 -0.21880229 0.1894586
0.033277906 -0.03165141 -0.14425448 -0.08630682 -0.00010645116 0.1206896 0.10416507 -0.12467171
-0.1210113 0.21379408 0.036317687 -0.057724513 0.035778843 -0.17197579 0.23927498 -0.11418357
-0.010936857 0.109264314 0.1847884 0.053338926 -0.015203705 0.023641251 0.089534834 -0.10386008
-0.05119272 0.084071666 0.2218234 0.15525153 0.12542322 0.1559355 -0.21774471 -0.14759977
-0.022698216 0.040654168 -0.115588374 0.0836754 0.09070509 0.32681617 -0.016366124 0.10348878
-0.04690204 -0.15030017 0.024638461 -0.1167776 0.058822196 0.055094637 -0.009095033 -0.036853157
-0.1241929 -0.04603854 0.076932535 -0.1423481 0.012277783 0.14070158 0.13261549 0.093623154
0.06829331 -0.028074166 0.03649332 0.013958514 0.11485725 -0.025946768 -0.38920662 -0.15629476
-0.056665104 -0.015786253 0.053849988 0.053351853 -0.025078297 -0.034472093 0.0038224165 0.058510244
-0.23735274 -0.0006188544 0.029581102 0.26613608 0.2344223 -0.097772144 0.119078994 0.23963252
0.13665804 0.29254037 0.04468299 -0.09138267 0.096136935 -0.119231164 -0.10647095 0.31089294
-0.060324766 0.12002869 -0.037642114 0.12674612 0.07791436 -0.10206038 -0.0908997 -0.26080096
0.019706769 -0.015111135 0.12656888 0.14450254 0.14375065 0.05079478 -0.022403533 -0.025541903
-0.08407116 -0.053884305 0.006787588 0.21228862 -0.071896836 0.0007362117 -0.026087277 -0.056423627
-0.097514965 -0.03012411 0.118584506 0.04755472 0.23535089 -0.10547095 0.10191524 0.068871774
-0.001234185 0.009138913 -0.2725838 -0.020384371 0.013378951 -0.011309962 0.03440185 -0.053328816
-0.08471547 0.15762766 -0.01716331 0.31934658 -0.20244329 -0.10156445 0.13619108 0.24082632
-0.014395111 0.10037461 -0.004375221 -0.1913974 -0.25295132 -0.058674324 -0.030968154 -0.08300927
-0.14125642 -0.10367529 -0.023571413 -0.006149246 -0.15886022 -0.08878689 -0.012317417 0.10450103
0.042187378 0.11058547 0.0289854 0.03012529 -0.13320194 -0.053709354 -0.042377718 0.0049830046
0.004037576 -0.052527446 0.10604217 0.03809174 -0.33384964 -0.027661547 0.03800324 0.004931467
0.026409103 -0.055738226 -0.12374518 0.17526156 -0.21470939 0.08378812 -0.0016113569 -0.08007407
0.047643237 -0.05719318 0.17007369 -0.10074436 0.073533095 0.098451294 -0.0046178093 -0.014175437
0.041770224 -0.16805935 0.1782059 -0.3285096 -0.13428666 0.083059154 -0.0331559 0.117246225
0.030148106 -0.012984667 -0.25920165 0.20304063 0.15999062 0.079304926 -0.051125694 0.22278637
0.10523134 -0.10866495 0.115130045 -0.26759043 0.22966835 -0.0048193336 0.07996677 -0.12278554
0.02627211 -0.15791331 -0.078122735 0.05360632 -0.028219812 0.07932966 0.11368877 -0.040724907
0.18418024 -0.012860611 0.09404983 -0.05752962 -0.31087577 0.11294362 -0.16162881 -0.0682343
0.12963524 0.058324594 -0.1802654 -0.08303432 -0.051127844 -0.09943493 0.3163395 -0.017044295
-0.033987697 0.014239749 -0.084678434 -0.0042227427 -0.104990244 -0.07242999 0.023370039 -0.048674528
-0.17729719 -0.00956933 -0.07485529 0.1604425 0.13184547 -0.2419806 0.04684726 -0.0308003
00000000: 4cf9 423d 6047 a6bd 15de 3bbd 8790 dcbc
00000010: 78a1 b6bd 6d15 99bd b50d 60be 6f01 423e
00000020: 6a4e 083d e9a4 01bd 72b7 13be a1c1 b0bd
00000030: 883e dfb8 1c2c f73d 7f54 d53d e253 ffbd
00000040: c6d4 f7bd d6ec 5a3e dbc1 143d 8a70 6cbd
00000050: d68c 123d 6c1a 30be 8004 753e 13d9 e9bd
00000060: 8130 33bc f8c5 df3d 2c39 3d3e eb79 5a3d
00000070: f618 79bc 4cab c13c 0a5e b73d 98b4 d4bd
00000080: 75af 51bd c42d ac3d ac25 633e 42fa 1e3e
00000090: f26e 003e 8ead 1f3e 78f8 5ebe 6524 17be
000000a0: 9cf1 b9bc fc84 263d 99b9 ecbd 025e ab3d
000000b0: 97c3 b93d 7354 a73e 4012 86bc edf1 d33d
000000c0: 5a1c 40bd 4ae8 19be 99d6 c93c 1829 efbd
000000d0: 8bef 703d eaaa 613d 5503 15bc 56f3 16bd
000000e0: d958 febd e892 3cbd ce8e 9d3d b3c3 11be
000000f0: c128 493c 1314 103e 5bcc 073e 7fbd bf3d
00000100: 5ddd 8b3d cbfb e5bc 057a 153d 40b2 643c
00000110: 473a eb3d 518e d4bc 1746 c7be bc0b 20be
00000120: ab19 68bd 2c52 81bc ce91 5c3d 7987 5a3d
00000130: 0071 cdbc 9c32 0dbd 8281 7a3b 70a8 6f3d
00000140: 990c 73be 9e3a 22ba 1154 f23c fd42 883e
00000150: 660c 703e c33c c8bd b0df f33d 3a62 753e
00000160: 16f0 0b3e dac7 953e 8305 373d d626 bbbd
00000170: 71e3 c43d 782f f4bd 710d dabd 5c2d 9f3e
00000180: 1a17 77bd 9ad1 f53d 9e2e 1abd bcc9 013e
00000190: 9091 9f3d 0805 d1bd 9f29 babd b487 85be
000001a0: 1770 a13c b294 77bc 469b 013e 79f8 133e
000001b0: 5f33 133e 300e 503d 9d87 b7bc 413d d1bc
000001c0: 802d acbd cab5 5cbd 6a6a de3b 3062 593e
000001d0: a63e 93bd 55fe 403a fcb4 d5bc 761c 67bd
000001e0: edb5 c7bd d6c6 f6bc 6fdc f23d bdc8 423d
000001f0: d3ff 703e 2701 d8bd f0b8 d03d a50c 8d3d
00000200: 60c4 a1ba 61bb 153c 1b90 8bbe 20fd a6bc
00000210: 6333 5b3c 6b4d 39bc f4e8 0c3d 516f 5abd
00000220: 4e7f adbd 2569 213e 129a 8cbc 6581 a33e
00000230: 4b4d 4fbe 0601 d0bd ad75 0b3e 2d9b 763e
00000240: 79d9 6bbc 3491 cd3d 045e 8fbb aefd 43be
00000250: d682 81be 7d54 70bd edb0 fdbc c400 aabd
00000260: 86a5 10be b653 d4bd d618 c1bc 9d7f c9bb
00000270: 41ac 22be e7d5 b5bd fece 49bc a304 d63d
00000280: accc 2c3d a37a e23d ca72 ed3c 50c9 f63c
00000290: 1766 08be 57fe 5bbd 4294 2dbd 7948 a33b
000002a0: a44d 843b 0527 57bd a32c d93d 1606 1c3d
000002b0: 57ee aabe 789a e2bc 49a9 1b3d 2598 a13b
000002c0: e757 d83c c44d 64bd 1d6e fdbd c477 333e
000002d0: c7dc 5bbe 1b99 ab3d 2a34 d3ba e0fd a3bd
000002e0: 8e25 433d 6543 6abd cc27 2e3e 0f53 cebd
000002f0: 8598 963d d5a0 c93d fe50 97bb 1840 68bc
00000300: 4117 2b3d c017 2cbe 9c7b 363e 6932 a8be
00000310: 7182 09be eb1a aa3d 7bce 07bd ca1e f03d
00000320: 29f9 f63c a4bd 54bc 14b6 84be e2e9 4f3e
00000330: 95d4 233e 9f6a a23d 2d69 51bd 1c22 643e
00000340: 8783 d73d bb8b debd 4dc9 eb3d 9d01 89be
00000350: 2e2e 6b3e 80eb 9dbb 9ec5 a33d fc76 fbbd
00000360: 9c38 d73c 07b4 21be d0fe 9fbd 4d92 5b3d
00000370: 3c2d e7bc 9777 a23d a8d5 e83d 29cf 26bd
00000380: bf99 3c3e 50b5 52bc 339d c03d 2ea4 6bbd
00000390: 1c2b 9fbe fc4e e73d 0682 25be 6dbe 8bbd
000003a0: 1abf 043e c5e5 6e3d 7e97 38be e60d aabd
000003b0: 6e6b 51bd 8aa4 cbbd 40f7 a13e 7aa0 8bbc
000003c0: af36 0bbd d64d 693c e36b adbd ef5e 8abb
000003d0: 2005 d7bd 2d56 94bd 8672 bf3c f15e 47bd
000003e0: 658d 35be aec8 1cbc bb4d 99bd 0a4b 243e
000003f0: 8002 073e c3c9 77be eae2 3f3d e950 fcbc

network_body._body_endoder.seq_layers.2.bias f4 [256]
-0.0049919905 0.003586335 -0.0028626902 0.0040464527 0.00010274658 -0.0024829311 -0.0025993737 -0.0033013658
-0.0028045138 -0.00583121 0.0001514891 -0.003943859 0.003987154 0.0014497892 0.0018431625 0.0009790031
0.0010173052 -2.0705098e-05 -0.004168482 -0.001121256 -0.0043389928 0.0019363408 0.000911804 -0.00456998
-0.0068435445 -0.0025280565 -0.0030588973 0.0029028805 -0.0018528254 -0.005055339 -0.0032828616 0.0040173857
0.0055476073 -0.0022775386 -0.003555159 0.001438481 0.0019332175 0.0005159827 -0.0016745179 -0.0053857057
0.002402434 0.0015184355 -0.0024253512 0.0020594746 -0.0009811576 2.5810428e-05 -0.0054256725 -0.0068434803
0.0025501812 -0.002326215 -0.0007467115 -0.0004186692 -0.0061137825 -0.0036355043 0.00096797233 -0.0007314475
-0.0038364062 -0.0047918255 -0.0028492913 -0.00025337777 0.0025895499 0.0019747 -0.0011930162 0.004590348
-0.0035392044 -0.0022927953 0.00511286 -0.003999745 -0.0046904855 0.0006001305 0.0038889162 0.0048230034
-0.00036599487 0.00085768034 -0.0055630123 0.006084765 -0.002815486 0.0046270685 0.0047058314 -0.0030502467
-3.5528945e-05 -0.00083663774 -0.004919099 -0.00276055 0.0029081258 0.00070898485 -0.0033416967 -0.00096947356
0.0006397051 -0.0028701678 -0.0055274833 0.0017074357 -0.0040999525 0.0046671936 0.008422952 8.923045e-05
0.00500678 0.0017379032 -0.0013770672 0.0036184748 0.003649143 0.0024415145 0.0004459792 0.0020931163
0.0025787987 -0.0033072734 0.0009573475 -0.004036986 -0.0040008193 0.003675354 0.0043724612 0.00068425137
0.0035042143 -0.0063724234 0.00037829726 -0.0025729989 -0.0035165695 -0.0007127579 -0.0048571206 0.0048559792
-0.004635305 -0.0031321654 0.004490221 -0.00065152266 0.0018762108 0.0015363559 0.001293711 0.006755647
0.00353767 0.0012911924 0.00052142655 0.0014749758 0.0019634538 -0.001587158 -0.00313646 -0.0047155824
-0.0036161745 -0.002701465 0.00039993887 0.0044365744 0.0033269436 -0.0030149205 -0.004983678 0.002565492
-0.0007636428 -0.005451972 0.0045653167 0.00041665754 -0.00509174 0.0060819145 0.0046902276 -0.0030340136
-0.0008896642 -0.0020232534 0.005307156 -0.0076372423 0.0027149767 -0.0056403535 0.0038033242 -0.003103615
-0.0037800847 -0.0016343688 -0.0013674648 -0.0044324724 0.0059845964 -0.0055314717 -0.0049037095 -0.0045119138
0.0007640538 -0.0023967186 -0.0017392708 -0.004529892 -0.000848585 0.005588696 -0.0041651996 -0.005058635
0.0050520883 0.0060142376 0.0081929825 -0.0035863933 -0.004792943 -0.003246638 -0.0042511853 -0.006329988
0.0026716893 0.001951715 -0.0050186394 -0.0010201314 -0.00043111306 0.005572498 0.0025419563 -0.0036804446
-0.001104397 -0.0025209775 0.00064465596 -0.0022008866 -0.0044870493 -0.0022697211 0.0058312286 -0.0032291764
0.0077871038 0.008138374 -0.0005381721 -0.0036467407 0.00018332704 0.0038297386 0.005467568 0.003946602
0.0049248394 0.0030622152 0.0014024648 0.0054866592 -0.004594375 -0.0060519804 0.0015714412 0.00022497325
0.004229088 0.0014407461 -0.0037542277 -0.006075992 -0.00077158504 -0.002641804 -0.0056417473 0.0024809693
-0.0020883642 -0.004070736 -0.004848667 0.004992186 0.0033988438 -0.004540982 0.006358703 -0.004160406
-0.0002836178 -0.004605356 0.0018690478 -0.0054632025 0.005808193 0.002908791 0.0041220374 0.0046317787
-0.0041015255 0.004374103 -0.00078763923 -0.0051614414 -0.000946498 -0.000999047 -0.0015777886 0.0006356179
0.0019154794 -0.00010035299 0.0036778376 -0.0048042443 -0.0030510665 0.006462417 0.0030554323 -0.0028091327
00000000: da93 a3bb b808 6b3b f99b 3bbb 1b98 843b
00000010: a679 d738 acb8 22bb 415a 2abb ba5b 58bb
00000020: efcb 37bb bc13 bfbb 0cd9 1e39 7d3b 81bb
00000030: aca6 823b da06 be3a 4596 f13a e551 803a
00000040: 1957 853a dcaf adb7 c397 88bb 1cf7 92ba
00000050: 1c2e 8ebb d1cc fd3a 2106 6f3a c5bf 95bb
00000060: d03f e0bb c0ad 25bb c877 48bb 413e 3e3b
00000070: 81da f2ba 42a7 a5bb 4725 57bb 46a4 833b
00000080: b4c8 b53b c242 15bb acfd 68bb 6a8b bc3a
00000090: 0464 fd3a 0343 073a 7f7b dbba 937a b0bb
000000a0: 2772 1d3b 3e06 c73a a4f2 1ebb 40f8 063b
000000b0: 309a 80ba 7983 d837 d7c9 b1bb 463f e0bb
000000c0: f120 273b 6973 18bb f6be 43ba d480 dbb9
000000d0: 2056 c8bb a441 6ebb 86bf 7d3a 9cbe 3fba
000000e0: 376c 7bbb bf04 9dbb 2dbb 3abb cad7 84b9
000000f0: 70b5 293b f869 013b fb5e 9cba a16a 963b
00000100: fff1 67bb b942 16bb c789 a73b 4b10 83bb
00000110: a5b2 99bb 1352 1d3a 30dd 7e3b 490a 9e3b
00000120: 00e3 bfb9 f4d5 603a ee49 b6bb b562 c73b
00000130: 0484 38bb aa9e 973b 6033 9a3b a6e6 47bb
00000140: ea04 15b8 cf51 5bba 6530 a1bb 58ea 34bb
00000150: 4196 3e3b 2bdb 393a 5e00 5bbb 4524 7eba
00000160: e2b1 273a 6d19 3cbb e41f b5bb 09cc df3a
00000170: e558 86bb 42ef 983b 6c00 0a3c 3c21 bb38
00000180: ea0f a43b 5bca e33a b57e b4ba ef23 6d3b
00000190: 7626 6f3b d101 203b 51d2 e939 aa2c 093b
000001a0: 1001 293b d7be 58bb 81f6 7a3a b148 84bb
000001b0: 4e19 83bb 35de 703b dd46 8f3b 555f 333a
000001c0: f6a6 653b c3cf d0bb 3356 c639 c29f 28bb
000001d0: 3f76 66bb 5fd8 3aba 7b28 9fbb e81e 9f3b
000001e0: c2e3 97bb 0445 4dbb b422 933b f2ca 2aba
000001f0: 30eb f53a 8d5f c93a bd91 a93a 795e dd3b
00000200: 41d8 673b 3a3d a93a 58b0 083a fa53 c13a
00000210: 4aad 003b 2f08 d0ba 118d 4dbb 2c85 9abb
00000220: 57fd 6cbb 100b 31bb e3ae d139 af60 913b
00000230: da08 5a3b f995 45bb 1f4e a3bb d021 283b
00000240: 332f 48ba 75a6 b2bb a798 953b d472 da39
00000250: 9cd8 a6bb cc4a c73b 7bb0 993b 4dd6 46bb
00000260: 5b38 69ba 8f98 04bb a7e7 ad3b d541 fabb
00000270: c0ed 313b b7d2 b8bb 3141 793b 0566 4bbb
00000280: 4cbb 77bb 5138 d6ba 813c b3ba 463e 91bb
00000290: 6f1a c43b 5941 b5bb 4caf a0bb add8 93bb
000002a0: c84a 483a 4412 1dbb 3ef8 e3ba 7d6f 94bb
000002b0: 9373 5eba 6121 b73b 3a7c 88bb e8c2 a5bb
000002c0: fd8b a53b 1513 c53b dc3b 063c b209 6bbb
000002d0: 1f0e 9dbb 8cc5 54bb 874d 8bbb ca6b cfbb
000002e0: 8217 2f3b b0d0 ff3a 6673 a4bb eeb5 85ba
000002f0: 0407 e2b9 8099 b63b f396 263b 9d33 71bb
00000300: 6ac1 90ba fc36 25bb 21fe 283a c03c 10bb
00000310: 1908 93bb 9abf 14bb e413 bf3b 97a0 53bb
00000320: f62a ff3b d156 053c 1e14 0dba 28fe 6ebb
00000330: 7a3b 4039 5afc 7a3b 4929 b33b 7f52 813b
00000340: 8c60 a13b 72af 483b e9d2 b73a 6fc9 b33b
00000350: 698c 96bb b14f c6bb d1f8 cd3a cce6 6b39
00000360: 2994 8a3b 6bd7 bc3a 7d09 76bb 1d19 c7bb
00000370: 3244 4aba 1e22 2dbb 68de b8bb c297 223b
00000380: f0dc 08bb cf63 85bb 91e1 9ebb 7e95 a33b
00000390: 23bf 5e3b 85cc 94bb ab5c d03b 0454 88bb
000003a0: 89b2 94b9 87e8 96bb d6fa f43a aa04 b3bb
000003b0: a752 be3b 6aa1 3e3b 2812 873b 2dc6 973b
000003c0: 1766 86bb a354 8f3b 9379 4eba 4f21 a9bb
000003d0: 681e 78ba 74f2 82ba cdcd ceba 989f 263a
000003e0: d310 fb3a 9a74 d2b8 e007 713b ec6c 9dbb
000003f0: 67f4 47bb afc2 d33b a63d 483b 6d19 38bb

network_body._body_endoder.seq_layers.2.weight f4 [256, 256]
0.06286243 0.017665824 0.03967129 0.038475897 0.06361821 0.022810427 0.06958519 -0.021326896
-0.018082524 -0.01668924 -0.048657686 0.17753635 -0.016553972 -0.036943812 0.019861678 0.039697826
0.020456688 0.044254426 0.043297153 -0.017174808 0.038109094 0.14988235 0.1396971 -0.0052072606
0.0065683215 0.08999212 -0.02919947 -0.010558561 -0.05361102 -0.0135614155 0.08244575 -0.015603754
0.009433678 0.050478563 0.0089327665 -0.031093616 0.0867602 0.056837413 0.080574736 -0.022506053
0.1190148 -0.09525183 0.087789156 0.02897735 -0.0070789647 -0.0015814152 -0.019346299 -0.027799342
0.054894652 0.13565053 -0.047640495 0.018086558 -0.023037141 0.09423456 -0.052987486 -0.055037707
0.15569691 0.03427761 0.034021612 -0.06372254 0.13457195 -0.046534944 -0.001944285 -0.031754244
-0.0088786045 0.0010658988 0.07289428 0.008944221 0.06837302 -0.010707773 0.042411536 -0.055806074
0.030870277 -0.0026814702 0.09744107 0.09353268 -0.02465056 0.091886185 0.02863557 0.03261471
-0.03674796 -0.04515528 0.02669096 0.07417019 -0.057604995 -0.14156584 -0.052728266 0.050892193
0.022509594 -0.07403804 -0.065414906 -0.053043988 0.028814843 -0.08525451 0.0055144643 -0.032009996
-0.044650715 0.12991427 0.041499022 0.0060805483 -0.011107712 -0.121004134 -0.068121254 -0.06157669
-0.029655648 -0.05774235 0.012122254 0.038020235 -0.0114573585 -0.02294979 -0.018878454 0.1508648
0.009593123 0.08976895 0.0023898985 -0.015505241 -0.06283885 -0.05663086 -0.060811263 -0.12408729
-0.124537654 -0.031769484 0.0006642009 -0.009692968 0.02325332 0.01948293 -0.06399042 -0.105500385
-0.044523343 -0.014793209 -0.052448455 0.08117762 0.06668888 -0.0021160357 -0.07636589 0.04767771
-0.13270774 0.016156908 0.008486469 0.06730734 -0.0627765 0.11657223 0.004658903 -0.009667164
-0.017330807 0.03962147 0.12835075 0.037621852 0.08402055 0.08270329 -0.00917824 -0.01905299
-0.0031459795 -0.01808311 -0.04052893 -0.060768194 -0.0057472573 -0.059418973 0.020641321 0.089743115
-0.06824004 0.044134203 0.041434392 -0.06345865 0.03407045 -0.01572135 0.05174764 -0.14272183
-0.0073502776 -0.04689885 -0.06468714 0.066349305 0.01258431 -0.07089235 -0.025587343 -0.014892013
0.06208848 -0.059816714 -0.020866513 -0.05431937 0.02484595 -0.12644805 0.032064226 -0.09562804
0.013401044 0.014718376 0.03713544 -0.062406484 0.050802987 0.06971345 0.00616589 -0.0060447967
-0.10636335 -0.06877071 0.0031041298 0.027530305 -0.01105928 0.014212577 -0.10629084 -0.021094818
-0.053474005 0.055657804 -0.010458212 -0.022319544 0.04482403 -0.004708205 -0.05869587 -0.06777846
-0.047693405 0.030992992 -0.011356619 -0.035167713 0.018740905 0.0012420936 0.06802153 -0.061658036
0.031902507 0.009389828 0.053277634 0.00818238 -0.02029921 -0.06470444 0.038898714 -0.05455571
0.02665445 -0.028363552 -0.08652587 0.020338241 0.07285873 -0.045453332 0.11652326 -0.016315416
-0.077872045 0.03737116 -0.045374982 -0.12759857 -0.044456147 -0.015705558 -0.10575834 -0.008742906
-0.010590018 -0.10739911 -0.062246364 -0.05631358 -0.026471002 0.028314233 -0.032832354 -0.060504418
0.05298143 0.022299318 0.006695653 -0.0423152 0.03942152 -0.08161475 0.048282478 0.018510336
00000000: 05be 803d ebb7 903c 5d7e 223d e798 1d3d
00000010: 444a 823d efdc ba3c ae82 8e3d beb5 aebc
00000020: cd21 94bc dfb7 88bc 484d 47bd 17cc 353e
00000030: 329c 87bc 6552 17bd f5b4 a23c 309a 223d
00000040: c994 a73c 2144 353d 5b58 313d 2fb2 8cbc
00000050: 4818 1c3d c27a 193e c20c 0f3e aba1 aabb
00000060: 133b d73b ca4d b83d ba33 efbc d1fd 2cbc
00000070: 3b97 5bbd b330 5ebc 51d9 a83d e3a6 7fbc
00000080: b78f 1a3c 9cc2 4e3d bd5a 123c 0ab8 febc
00000090: 55af b13d 59ce 683d 5e04 a53d 9d5e b8bc
000000a0: 08be f33d 6413 c3bd cdca b33d e861 ed3c
000000b0: a9f6 e7bb 7d47 cfba 217c 9ebc 72bb e3bc
000000c0: 37d9 603d f9e7 0a3e ae22 43bd 432a 943c
000000d0: 63b8 bcbc 0dfe c03d 6809 59bd 386f 61bd
000000e0: 036f 1f3e ae66 0c3d 3f5a 0b3d f780 82bd
000000f0: 3bcd 093e 6d9b 3ebd 61d7 feba bd10 02bd
00000100: 9177 11bc a1b5 8b3a 9949 953d c88a 123c
00000110: 2707 8c3d a86f 2fbc b8b7 2d3d e994 64bd
00000120: aae3 fc3c 9bbb 2fbb 2f8f c73d 108e bf3d
00000130: f9ef c9bc d32e bc3d 2595 ea3c 0197 053d
00000140: 0785 16bd bef4 38bd 00a7 da3c 8ae6 973d
00000150: 37f3 6bbd a3f6 10be 98f9 57bd 5574 503d
00000160: 0a66 b83c 42a1 97bd 40f8 85bd a744 59bd
00000170: 1b0d ec3c eb99 aebd aeb2 b43b ea1c 03bd
00000180: abe3 36bd 3f08 053e e1fa 293d 563f c73b
00000190: 1ffd 35bc 04d1 f7bd 2883 8bbd d737 7cbd
000001a0: 67f0 f2bc 3e83 6cbd 6b9c 463c 1bbb 1b3d
000001b0: a5b7 3bbc 3301 bcbc fda6 9abc 4d7c 1a3e
000001c0: 792c 1d3c c9d8 b73d d89f 1c3b b209 7ebc
000001d0: a8b1 80bd c3f5 67bd 3b15 79bd 7a21 febd
000001e0: 990d ffbd b820 02bd c51d 2e3a 41cf 1ebc
000001f0: bf7d be3c aa9a 9f3c 690d 83bd 9610 d8bd
00000200: 1c5e 36bd 375f 72bc 31d4 56bd 7440 a63d
00000210: 2e94 883d 30ad 0abb b865 9cbd b449 433d
00000220: 8ae4 07be 7e5b 843c d50a 0b3c 6ed8 893d
00000230: f790 80bd 6cbd ee3d b6a9 983b 0663 1ebc
00000240: 56f9 8dbc 1f4a 223d 616e 033e 5f19 1a3d
00000250: f712 ac3d 5860 a93d 5460 16bc 0415 9cbc
00000260: c72c 4ebb 0823 94bc aa01 26bd 12e8 78bd
00000270: 7d53 bcbb 4f61 73bd fd17 a93c 3dcb b73d
00000280: 6fc1 8bbd 11c6 343d 1cb7 293d 9cf6 81bd
00000290: 758d 0b3d 10ca 80bc 55f5 533d ac25 12be
000002a0: 99da f0bb 0219 40bd b17a 84bd 25e2 873d
000002b0: 6c2e 4e3c 0230 91bd 8c9c d1bc a1fd 73bc
000002c0: 7d50 7e3d 5f02 75bd 40f0 aabc fd7d 5ebd
000002d0: bc89 cb3c 997b 01be c755 033d a2d8 c3bd
000002e0: 0d90 5b3c 5825 713c 551b 183d f19d 7fbd
000002f0: cb16 503d edc5 8e3d 3c0b ca3b 6e13 c6bb
00000300: 07d5 d9bd a8d7 8cbd a86e 4b3b 3c87 e13c
00000310: fb31 35bc dedb 683c 03af d9bd 0acf acbc
00000320: 8f07 5bbd 70f9 633d ec58 2bbc 7ad7 b6bc
00000330: 6799 373d 4947 9abb 156b 70bd 6fcf 8abd
00000340: 295a 43bd 04e5 fd3c 1d11 3abc 050c 10bd
00000350: 8786 993c bfcd a23a df4e 8b3d 238d 7cbd
00000360: 34ac 023d cbd7 193c a639 5a3d 640f 063c
00000370: 874a a6bc c383 84bd 4254 1f3d cf75 5fbd
00000380: 6f5a da3c ae5a e8bc 7a34 b1bd 629c a63c
00000390: f536 953d 462d 3abd bfa3 ee3d e8a7 85bc
000003a0: 617b 9fbd 8012 193d 1edb 39bd 33a9 02be
000003b0: a617 36bd f1a8 80bc d497 d8bd 683e 0fbc
000003c0: c181 2dbc 11f4 dbbd 0bf6 7ebd 12a9 66bd
000003d0: b7d9 d8bc 40f3 e73c 387b 06bd 7bd3 77bd
000003e0: 0e03 593d 0fad b63c 3567 db3b b452 2dbd
000003f0: 7678 213d a225 a7bd d9c3 453d fda2 973c

network_body._body_endoder.seq_layers.4.bias f4 [256]
0.0029060186 0.004196494 -0.004441707 -0.0054189786 0.0019793315 0.005429481 -0.0061329594 -0.0049707973
0.005337842 0.005656107 0.0011960316 -0.0039126542 0.0013499992 -0.0005637218 0.004956678 -0.004104936
-0.0038500053 0.0041582584 0.0006046964 0.006417303 0.0003165512 0.0015911477 0.0014731974 -0.0049054087
-0.0046189236 0.0016640011 0.00045958848 0.002828338 0.003197303 -0.0033028095 -0.0018172024 0.0057012583
0.0014633934 0.0022572563 0.004748215 -0.0050487933 0.0035115946 0.00065411575 0.000234543 0.0031860266
-0.0052711875 0.0022195596 0.004970737 0.0008661319 -0.002816978 0.001238859 -0.0026934808 -0.0005578323
-0.001374982 -0.0053363163 -0.00072010007 0.0015195347 -0.0047571515 0.002913008 -0.0054538194 0.0018695968
0.0038720109 -0.0039573372 -0.0015223159 -0.0022388254 -0.0023424902 -0.0055725523 0.0018749092 0.0047694775
0.0046946835 0.00086400146 0.003599625 0.0029839012 0.00083855557 0.0061219083 0.0011558507 -0.0036994985
0.007192273 0.00018564066 -0.0016742768 0.0032241566 -0.003941538 -0.0046247425 -0.005768461 0.0014036145
-0.0017181217 0.0028988146 0.004824724 0.0040617157 0.0002726651 0.0007550504 -0.005570843 0.004880593
-0.0040987004 0.0046967505 -0.00543057 0.0021222534 -0.0049737603 0.0044346484 0.0015139142 0.0042693154
-0.005215244 -0.005537679 -3.2682954e-05 -0.005265144 -0.006194939 0.0014478096 -0.0054122955 0.0035643533
0.0028642516 -0.00025740263 0.0041934974 0.0028949054 -0.0043179104 0.0031788074 -0.006072097 0.0013971766
0.0030845988 -0.00027156604 0.0053124083 0.006992659 0.0049447725 -0.0046709497 0.004058267 0.0043064314
0.0040559033 -0.0059421896 0.0042279577 -0.0059990864 0.0042589162 0.0021408333 -0.0028622418 -0.0050066225
0.0044973823 0.004023763 0.0067197606 0.005298354 0.0068681883 -0.0048000086 0.000534438 -0.0043837773
0.0058366423 0.0050978363 7.9154284e-05 -4.674728e-05 0.0031758812 -0.0011560252 -0.0022841664 -0.002286223
-0.005735784 -0.0047540762 -0.005509176 -0.0039821872 0.0043793544 0.0023532407 -0.0039670747 -0.0065087406
0.0034841187 0.0006734868 0.0036991818 -0.00039052006 0.0011550427 0.0043336377 0.0048368718 0.002188965
-0.004225644 -0.0016241015 -0.004481915 0.005334873 -0.0034284333 0.0029094599 0.00074452185 -0.005940957
0.0047668223 0.00798783 0.0038417156 0.0035051988 -0.0017027599 -0.0055196853 0.0029903685 0.0037617593
0.0014903354 0.0021815016 -0.0049175643 0.0022650042 -0.0030818353 -0.004876206 0.0013428141 0.003688049
0.002048184 0.004419685 0.0020300932 0.0025712599 0.0024170955 -0.005142885 0.005732488 -0.0024081578
-0.004978009 -0.002737906 0.0052123256 0.0009969776 0.0005080069 -0.0042134277 0.0011440491 -0.0035685883
-0.00214875 -0.00046543838 -0.0014269581 -0.0052196947 -0.0040899646 0.005890766 0.0049177036 0.0029630454
0.0035723934 0.002608035 0.0001590865 0.004796475 -0.0054352954 -0.0024666977 -0.003279109 -0.004427807
0.0046413234 0.0046421033 -0.004033785 0.0008156841 0.0039728377 0.0035338635 0.006130961 -0.0057933456
0.0052401973 4.2041047e-06 -0.005960346 0.0057580555 -0.0040681716 -0.002663119 0.0054112715 -0.00475113
0.0027350008 -0.003883099 -0.0010833001 0.005419455 -0.0005684201 -0.004218002 0.0014513882 0.004571783
0.003946184 -0.0036428727 0.0019727102 -0.003672189 -0.0051540006 0.0051157377 -0.0011083947 -0.0013299071
-0.001935222 0.003797338 0.0051118415 0.0032106864 0.00096329255 -0.004183252 -0.0026657819 -0.004841438
00000000: e772 3e3b be82 893b bd8b 91bb b091 b1bb
00000010: acb7 013b cae9 b13b fef6 c8bb 12e2 a2bb
00000020: 10e9 ae3b dd56 b93b 29c4 9c3a b935 80bb
00000030: 75f2 b03a bbc6 13ba a16b a23b b382 86bb
00000040: 5f50 7cbb 0042 883b 7d84 1e3a 3d48 d23b
00000050: c8f6 a539 0f8e d03a 4d18 c13a 8dbd a0bb
00000060: 575a 97bb 9d1a da3a ecf4 f039 a35b 393b
00000070: d889 513b f373 58bb 322f eeba 9fd1 ba3b
00000080: 56cf bf3a 7aee 133b ea96 9b3b 5970 a5bb
00000090: c822 663b f778 2b3a a8ef 7539 a8cc 503b
000000a0: edb9 acbb 0876 113b 90e1 a23b 210d 633a
000000b0: 0c9d 38bb 3661 a23a 1c85 30bb 7e3b 12ba
000000c0: bd38 b4ba 44dc aebb 19c5 3cba 202b c73a
000000d0: e1e1 9bbb 2ae8 3e3b f4b5 b2bb 420d f53a
000000e0: 90c1 7d3b 8dac 81bb 7288 c7ba 42b9 12bb
000000f0: 7784 19bb f599 b6bb 83bf f53a 4749 9c3b
00000100: dcd5 993b 287e 623a b0e7 6b3b 8e8d 433b
00000110: 83d2 5b3a 4a9a c83b ea7f 973a 4973 72bb
00000120: 29ad eb3b 89a8 4239 6873 dbba 5f4c 533b
00000130: 0428 81bb 278b 97bb 5c05 bdbb 7df9 b73a
00000140: 9932 e1ba 0afa 3d3b b818 9e3b 2418 853b
00000150: 7df4 8e39 93ee 453a 9e8b b6bb 62ed 9f3b
00000160: 644e 86bb 33e7 993b ecf2 b1bb 8115 0b3b
00000170: edfa a2bb 8750 913b 886e c63a 9de5 8b3b
00000180: a3e4 aabb 6b75 b5bb 0e15 09b8 3b87 acbb
00000190: eafe cabb 6ec4 bd3a a059 b1bb ed97 693b
000001a0: 2bb6 3b3b fff3 86b9 9b69 893b 74b8 3d3b
000001b0: 427d 8dbb 8a53 503b 71f8 c6bb 7821 b73a
000001c0: fb26 4a3b fa60 8eb9 b613 ae3b ad22 e53b
000001d0: c207 a23b c40e 99bb 36fb 843b f71c 8d3b
000001e0: 62e7 843b b3b6 c2bb ae8a 8a3b fc93 c4bb
000001f0: 618e 8b3b 394d 0c3b 7394 3bbb 980e a4bb
00000200: c75e 933b c5d9 833b 7031 dc3b d19d ad3b
00000210: 8a0e e13b 6449 9dbb 8719 0c3a caa5 8fbb
00000220: 4e41 bf3b c00b a73b a2ff a538 8212 44b8
00000230: 7222 503b c585 97ba f4b1 15bb 75d4 15bb
00000240: 3ef3 bbbb 15c8 9bbb 5186 b4bb 027d 82bb
00000250: b080 8f3b d438 1a3b 3cfe 81bb 4647 d5bb
00000260: d055 643b ef8c 303a f96d 723b b7be ccb9
00000270: cd64 973a 3001 8e3b 9f7e 9e3b bd74 0f3b
00000280: 4577 8abb cedf d4ba 07dd 92bb 29d0 ae3b
00000290: 91af 60bb a3ac 3e3b 042c 433a 5cac c2bb
000002a0: 0133 9c3b 63df 023c 4bc5 7b3b 7ab7 653b
000002b0: 242f dfba 7ade b4bb 0ffa 433b d987 763b
000002c0: 5c57 c33a 86f7 0e3b 8523 a1bb 7770 143b
000002d0: 9ef8 49bb 95c8 9fbb 5d01 b03a 32b3 713b
000002e0: d33a 063b 01d3 903b 500b 053b 9582 283b
000002f0: 2268 1e3b a585 a8bb 98d7 bb3b 2fd2 1dbb
00000300: 911e a3bb 716e 33bb 28cc aa3b 04ad 823a
00000310: c42b 053a cb10 8abb ebf3 953a fade 69bb
00000320: 0bd2 0cbb 1506 f4b9 c508 bbba f909 abbb
00000330: 1c05 86bb 5407 c13b b024 a13b a72f 423b
00000340: d11e 6a3b 91eb 2a3b 75d0 2639 c02b 9d3b
00000350: 901a b2bb 52a8 21bb 52e6 56bb 2317 91bb
00000360: 3e16 983b c91c 983b d72d 84bb a2d3 553a
00000370: 942e 823b 6498 673b 3ae6 c83b 1bd6 bdbb
00000380: f6b5 ab3b fc10 8d36 024f c3bb 12ae bc3b
00000390: 4c4e 85bb b987 2ebb 0951 b13b 5eaf 9bbb
000003a0: b33d 333b 977b 7ebb 85fd 8dba af95 b13b
000003b0: 0702 15ba 2a37 8abb 823c be3a e5ce 953b
000003c0: fe4e 813b 43bd 6ebb 9648 013b 1ca9 70bb
000003d0: e4e2 a8bb eba1 a73b 8e47 91ba 4750 aeba
000003e0: 46a7 fdba c3dc 783b 3c81 a73b 616a 523b
000003f0: 7885 7c3a a913 89bb 66b4 2ebb eda4 9ebb

network_body._body_endoder.seq_layers.4.weight f4 [256, 256]
-0.080797344 0.062235914 0.11349459 0.0040835626 -0.098806396 0.034224387 0.068997614 -0.08790822
0.008586831 -0.14639752 0.0043707024 0.057451937 -0.022418752 -0.056977578 -0.03618992 -0.08028905
-0.016928736 -0.016557295 0.03461569 -0.050135672 0.01544175 0.04280085 -0.0025925117 0.065325655
-0.0056850067 -0.032030404 -0.0015302448 0.10289798 -0.059569493 -0.041582488 -0.12820958 0.030895889
0.02568303 -0.022496907 0.047781643 -0.14254202 -0.049952727 0.088033214 -0.069541216 -0.0018158203
0.001485685 -0.0795617 0.053964302 0.10736175 -0.03254203 -0.12740284 -0.03626772 -0.0014605307
-0.040741477 0.07043015 -0.036455773 0.06108466 0.01504908 0.00024026624 0.12520455 -0.09400972
-0.028022759 -0.0078787925 -0.018508755 -0.080815196 -0.052668743 -0.11914743 -0.034668405 -0.01396206
-0.010182546 0.011841234 0.045595717 0.061707523 -0.07660708 -0.05519216 -0.006477439 -0.002614448
-0.07818956 0.012842925 0.042456742 0.01544918 -0.013610127 0.0033366587 -0.0039222934 0.025154388
0.058931988 0.10247305 0.017722648 -0.049456585 0.007580904 -0.036732763 0.050913405 0.01872415
0.07906319 -0.038122013 -0.104885705 -0.003251004 0.059956856 -0.09924181 -0.04544735 -0.07352834
0.056727678 0.06844374 -0.13288061 0.032088898 0.043746747 0.021936161 -0.05464012 0.0542672
-0.054510634 0.09958259 -0.017159112 0.012723893 -0.035527468 0.09237166 -0.018501341 0.049309503
-0.025804589 0.043530595 0.022981716 0.022584949 -0.15350834 0.1768405 -0.05506943 0.053589605
-0.044655494 0.018462166 0.037590083 0.018973786 -0.07538216 0.066360585 0.09478359 0.11237738
-0.04781477 0.14094155 -0.02723325 -0.024833295 -0.008076417 0.044882353 0.16602883 0.06454171
0.038167812 -0.086112216 -0.06746329 0.08711688 -0.024451189 -0.0232396 0.049222376 -0.0641672
0.06527369 -0.08352706 -0.04594905 -0.00082278345 -0.038234707 0.04756558 -0.11637118 0.051740453
0.063478194 -0.032807186 -0.004390248 0.03437167 -0.02337292 -0.01748899 -0.08759025 0.010989872
-0.062957205 -0.008912981 -0.01371704 0.012518561 0.085240796 -0.041956417 0.048710935 0.08959212
0.0696751 0.08180341 -0.06720029 0.05332653 0.014972381 0.0114787705 -0.06073607 0.067354694
-0.03355479 -0.013668782 0.049351178 -0.008928029 -0.019143267 -0.059610207 -0.11324346 -0.046111397
0.09446509 0.014647265 -0.029110437 0.022013424 0.089887194 0.07821762 0.046888467 0.08540235
0.014287363 0.11845584 -0.02240385 0.012359856 -0.03098572 0.04018203 -0.004840674 0.093628705
-0.020640422 0.04499103 -0.024275344 0.037482474 0.13190496 -0.073391974 0.04312646 0.018221218
-0.044166397 -0.09492038 -0.061533995 -0.0101150805 -0.03780943 -0.05340736 -0.011465758 0.05594153
-0.05951254 0.065686174 0.041896906 -0.041973986 4.019293e-05 0.071406245 0.030006634 -0.066352285
-0.012069268 -0.02381983 -0.02945755 -0.020741792 0.0510342 0.03333286 -0.021812817 -0.00025308543
0.042445563 -0.06557373 0.08902525 -0.08282276 -0.029307872 -0.08542273 0.024412079 0.030381992
-0.011869405 0.08176694 0.00804364 0.029733395 0.088296294 0.038723364 0.011271687 0.01566316
0.07603966 -0.13315845 -0.021316301 0.039161928 -0.031497475 -0.07180415 0.0009041041 -0.08183693
00000000: 1479 a5bd 16eb 7e3d da6f e83d 68cf 853b
00000010: 025b cabd df2e 0c3d 9f4e 8d3d 3a09 b4bd
00000020: c8af 0c3c 3be9 15be 1c38 8f3b b952 6b3d
00000030: 88a7 b7bc 5261 69bd e23b 14bd 966e a4bd
00000040: 22ae 8abc 2aa3 87bc 2fc9 0d3d 105b 4dbd
00000050: 65ff 7c3c f24f 2f3d 21e7 29bb 75c9 853d
00000060: 4b49 babb 5032 03bd 7f92 c8ba 2dbc d23d
00000070: 24ff 73bd 6652 2abd 5f49 03be 6019 fd3c
00000080: 3865 d23c 6f4b b8bc afb6 433d 89f6 11be
00000090: 3b9b 4cbd c24a b43d a06b 8ebd d200 eeba
000000a0: 51bb c23a 3ff1 a2bd ac09 5d3d 7ae0 db3d
000000b0: cb4a 05bd e475 02be 768d 14bd 476f bfba
000000c0: 89e0 26bd af3d 903d a652 15bd e933 7a3d
000000d0: 6b90 763c faef 7b39 9f35 003e 2b88 c0bd
000000e0: fc8f e5bc 0d16 01bc ac9f 97bc 7082 a5bd
000000f0: 2ebb 57bd 9103 f4bd 7500 0ebd 20c1 64bc
00000100: b2d4 26bc bc01 423c 93c2 3a3d 07c1 7c3d
00000110: 2ce4 9cbd 2d11 62bd b240 d4bb 2957 2bbb
00000120: d921 a0bd 226b 523c 1fe7 2d3d 8f1e 7d3c
00000130: 03fd 5ebc d8ab 5a3b 9586 80bb 9310 ce3c
00000140: ab62 713d 64dd d13d 162f 913c fd92 4abd
00000150: 3b69 f83b 1875 16bd 938a 503d 6363 993c
00000160: e2eb a13d d425 1cbd 51ce d6bd cc0e 55bb
00000170: 5295 753d 4a3f cbbd 0027 3abd 0796 96bd
00000180: 485b 683d 3b2c 8c3d db11 08be a66f 033d
00000190: ca2f 333d 77b3 b33c 52ce 5fbd 4947 5e3d
000001a0: 8b46 5fbd f5f1 cb3d 4491 8cbc e077 503c
000001b0: 4085 11bd 5a2d bd3d 2090 97bc c3f8 493d
000001c0: 2564 d3bc 234d 323d 2744 bc3c 1204 b93c
000001d0: 4a31 1dbe ad15 353e 7c90 61bd c680 5b3d
000001e0: aee8 36bd f83d 973c 0ff8 193d ea6e 9b3c
000001f0: f661 9abd 0fe8 873d e61d c23d 1d26 e63d
00000200: 6cd9 43bd fb52 103e 4418 dfbc 326f cbbc
00000210: f352 04bc 8fd6 373d 7603 2a3e 722e 843d
00000220: da55 1c3d 9a5b b0bd 322a 8abd 566a b23d
00000230: dc4d c8bc f960 bebc 679d 493d 186a 83bd
00000240: 36ae 853d 3c10 abbd 1235 3cbd 10b0 57ba
00000250: ff9b 1cbd 20d4 423d 0354 eebd cced 533d
00000260: db00 823d d460 06bd 12dc 8fbb 4fc9 0c3d
00000270: 9178 bfbc 1245 8fbc 8462 b3bd dd0e 343c
00000280: b5ef 80bd c007 12bc 70bd 60bc a71a 4d3c
00000290: ba92 ae3d 7eda 2bbd 1e85 473d 137c b73d
000002a0: d2b1 8e3d 8c88 a73d 4ea0 89bd eb6c 5a3d
000002b0: b84e 753c 7411 3c3c 63c6 78bd 42f1 893d
000002c0: bf70 09bd 07f3 5fbc 7624 4a3d de46 12bc
000002d0: 57d2 9cbc d529 74bd 30ec e7bd 4edf 3cbd
000002e0: ea76 c13d 15fb 6f3c 0379 eebc 7f55 b43c
000002f0: c716 b83d 8f30 a03d 1f0e 403d 6de7 ae3d
00000300: 8b15 6a3c fa98 f23d 4788 b7bc fe80 4a3c
00000310: c4d5 fdbc ea95 243d 849e 9ebb 68c0 bf3d
00000320: 1a16 a9bc 8448 383d 16dd c6bc 3987 193d
00000330: 1812 073e 884e 96bd 5fa5 303d aa44 953c
00000340: d3e7 34bd 9e65 c2bd 120b 7cbd b9b9 25bc
00000350: 10de 1abd adc1 5abd e0da 3bbc f222 653d
00000360: 6cc3 73bd 7986 863d 179c 2b3d eaec 2bbd
00000370: d494 2838 703d 923d 79d0 f53c b5e3 87bd
00000380: 2ebe 45bc ce21 c3bc f650 f1bc b1ea a9bc
00000390: 3d09 513d 0988 083d cbb0 b2bc 8db0 84b9
000003a0: 66db 2d3d 854b 86bd df52 b63d fb9e a9bd
000003b0: 1017 f0bc 1df2 aebd d7fb c73c a8e3 f83c
000003c0: e577 42bc 6d75 a73d 79c9 033c 7393 f33c
000003d0: b0d4 b43d 649c 1e3d e2ac 383c 0750 803c
000003e0: aeba 9b3d b05a 08be 869f aebc 4268 203d
000003f0: 7f03 01bd 0e0e 93bd 6601 6d3a 1f9a a7bd
