Endless Runner/Assets/results/ppo/My Behavior.onnx (onnx, 102013 bytes, 5 tensors)

action_model._discrete_distribution.branches.0.weight f4 [1, 128]
000000 50 4b 61 3c da de 51 bc 77 eb ca 3b 6a 08 6a 3b
       0.013750866 -0.01280948 0.0061926204 0.0035710582
000010 6a de 79 bb 9f 4f f7 3b 7d 4b 3c 3b 18 63 5a bb
       -0.0038126954 0.0075473334 0.0028731518 -0.0033323225
000020 97 44 02 3a f7 87 d7 3b 83 9f 5b 3b bb 5e 42 bb
       0.0004969327 0.0065774876 0.0033511824 -0.0029658515
000030 df 00 87 3b d5 fc 3f bc e8 9b 6a bb c3 97 cd 39
       0.004119977 -0.011717995 -0.0035798494 0.00039213718
000040 eb 64 1c 3c fa 81 7d 3b a7 f1 dc bb 86 22 48 ba
       0.009545545 0.0038682208 -0.0067426744 -0.0007634539
000050 04 73 9a 3c c1 85 90 bb 9f 40 93 3c 0b 39 41 bb
       0.018853672 -0.004410476 0.01797515 -0.0029483463
000060 67 16 2d bb 93 4f fb 3a 9f 22 ef 3b 5b 5e 96 3b
       -0.0026411058 0.0019173495 0.0072978283 0.0045888848
000070 58 1e e4 bb 83 65 f9 3a e7 c7 25 bb ef c2 c2 39
       -0.006961625 0.0019027445 -0.0025296153 0.000371478
000080 58 76 f6 3b ea b2 65 bb 0f c9 a2 3a ac f1 34 3c
       0.007521432 -0.0035049268 0.0012419539 0.011043947
000090 9b 06 1b bc 93 09 1d b8 3f 07 58 bb af 42 2f bb
       -0.009462024 -3.7440634e-05 -0.0032963303 -0.0026742627
0000a0 3b 96 e3 bb 30 b5 85 bb af 67 34 bb 02 48 e7 3b
       -0.006945399 -0.004080437 -0.002752762 0.0070581445
0000b0 02 69 70 39 db 27 16 bb 6b 32 5b b9 f3 5f 0f bc
       0.00022927302 -0.002291194 -0.0002090425 -0.008750903
0000c0 25 2e db 3b f3 00 0f 3c 4e 93 9c bb 7e 7d 1d 3b
       0.0066888505 0.008728254 -0.0047783023 0.0024031098
0000d0 25 a5 86 bb 79 d7 1f bc 75 dd 0c bb a9 47 46 bc
       -0.004109042 -0.0097559625 -0.0021494303 -0.012102046
0000e0 42 15 dd bb 08 50 5f 3c a0 f4 eb 3b 3e 82 3b 3b
       -0.006746919 0.013629921 0.0072007924 0.0028611566
0000f0 4b ec 18 bc d3 61 c3 39 7f da 28 bb c1 9c 18 bb
       -0.00933368 0.00037266183 -0.0025765 -0.0023286792
000100 56 4b ba 39 47 57 92 3c 95 bf c6 3b 7a d4 13 bb
       0.00035532814 0.017863883 0.006065319 -0.0022557066
000110 6a 7b 43 bb bb 23 31 3b 2e b5 af bb 84 98 21 bc
       -0.00298282 0.0027029354 -0.0053621745 -0.009863023
000120 0f 58 72 bc 78 67 58 bb 59 88 1b bb 9f 12 1b 3b
       -0.014791503 -0.0033020657 -0.0023732393 0.0023662222
000130 b0 0b a7 3a a0 9e 9d bb e8 de 53 ba 13 f3 e3 bb
       0.0012744572 -0.0048101693 -0.0008082227 -0.006956467
000140 03 25 c3 bb 3b 47 d8 ba f0 9c fd 3b 43 12 27 bb
       -0.00595534 -0.001650072 0.0077396557 -0.0025493063
000150 22 03 e3 3b 9b 6a f3 39 a3 e0 25 3c 4b 09 6b 3a
       0.0069278637 0.00046428 0.010124358 0.00089659233
000160 5f 17 70 3c 02 ca 9b 3b f7 dd e5 ba d6 17 18 bc
       0.01465401 0.004754306 -0.0017537464 -0.009283027
000170 e3 8b 8c 3c ef 1f e7 39 91 81 14 3b 68 bd e5 bb
       0.017156547 0.00044083546 0.0022660235 -0.0070111044
000180 03 b2 3b 3c fa 1d de 3b 16 b2 34 bc 5b 4a 06 3c
       0.0114560155 0.006778476 -0.011028787 0.008196439
000190 c8 25 1f ba df c9 a6 bb 5f 18 36 bc 69 5c b9 3b
       -0.00060709985 -0.005089983 -0.011114209 0.005656768
0001a0 1b a1 8d bb ff d0 14 3c 4a 0a cc bc 9d be 20 3c
       -0.004322184 0.009083032 -0.02490725 0.009811071
0001b0 ed da 09 3c 4f 92 6c 3b bb b1 e2 b7 8c 66 45 bc
       0.008414012 0.003609795 -2.7024062e-05 -0.012048375
0001c0 57 ad ac bb 15 bd 95 ba 34 80 95 3c 8f 61 08 3c
       -0.005269687 -0.0011424149 0.018249609 0.008324041
0001d0 af 6b 11 ba 72 dd 68 3c b3 84 2c 3b bc a3 0f 3b
       -0.0005547357 0.014212953 0.0026324212 0.0021917662
0001e0 43 ad 39 3a 7f 08 16 bb 38 f4 e4 bb e0 73 2c 39
       0.0007083008 -0.0022893248 -0.006987121 0.00016446365
0001f0 38 53 63 bc ca a8 18 bb 61 3b a1 bb eb b6 f0 3b
       -0.013874821 -0.0023293965 -0.0049204086 0.0073460243

network_body._body_endoder.seq_layers.0.bias f4 [128]
000000 00 00 00 00 00 00 00 00 00 00 00 00 00 00 00 00
       0.0 0.0 0.0 0.0
000010 00 00 00 00 00 00 00 00 00 00 00 00 00 00 00 00
       0.0 0.0 0.0 0.0
000020 00 00 00 00 00 00 00 00 00 00 00 00 00 00 00 00
       0.0 0.0 0.0 0.0
000030 00 00 00 00 00 00 00 00 00 00 00 00 00 00 00 00
       0.0 0.0 0.0 0.0
000040 00 00 00 00 00 00 00 00 00 00 00 00 00 00 00 00
       0.0 0.0 0.0 0.0
000050 00 00 00 00 00 00 00 00 00 00 00 00 00 00 00 00
       0.0 0.0 0.0 0.0
000060 00 00 00 00 00 00 00 00 00 00 00 00 00 00 00 00
       0.0 0.0 0.0 0.0
000070 00 00 00 00 00 00 00 00 00 00 00 00 00 00 00 00
       0.0 0.0 0.0 0.0
000080 00 00 00 00 00 00 00 00 00 00 00 00 00 00 00 00
       0.0 0.0 0.0 0.0
000090 00 00 00 00 00 00 00 00 00 00 00 00 00 00 00 00
       0.0 0.0 0.0 0.0
0000a0 00 00 00 00 00 00 00 00 00 00 00 00 00 00 00 00
       0.0 0.0 0.0 0.0
0000b0 00 00 00 00 00 00 00 00 00 00 00 00 00 00 00 00
       0.0 0.0 0.0 0.0
0000c0 00 00 00 00 00 00 00 00 00 00 00 00 00 00 00 00
       0.0 0.0 0.0 0.0
0000d0 00 00 00 00 00 00 00 00 00 00 00 00 00 00 00 00
       0.0 0.0 0.0 0.0
0000e0 00 00 00 00 00 00 00 00 00 00 00 00 00 00 00 00
       0.0 0.0 0.0 0.0
0000f0 00 00 00 00 00 00 00 00 00 00 00 00 00 00 00 00
       0.0 0.0 0.0 0.0
000100 00 00 00 00 00 00 00 00 00 00 00 00 00 00 00 00
       0.0 0.0 0.0 0.0
000110 00 00 00 00 00 00 00 00 00 00 00 00 00 00 00 00
       0.0 0.0 0.0 0.0
000120 00 00 00 00 00 00 00 00 00 00 00 00 00 00 00 00
       0.0 0.0 0.0 0.0
000130 00 00 00 00 00 00 00 00 00 00 00 00 00 00 00 00
       0.0 0.0 0.0 0.0
000140 00 00 00 00 00 00 00 00 00 00 00 00 00 00 00 00
       0.0 0.0 0.0 0.0
000150 00 00 00 00 00 00 00 00 00 00 00 00 00 00 00 00
       0.0 0.0 0.0 0.0
000160 00 00 00 00 00 00 00 00 00 00 00 00 00 00 00 00
       0.0 0.0 0.0 0.0
000170 00 00 00 00 00 00 00 00 00 00 00 00 00 00 00 00
       0.0 0.0 0.0 0.0
000180 00 00 00 00 00 00 00 00 00 00 00 00 00 00 00 00
       0.0 0.0 0.0 0.0
000190 00 00 00 00 00 00 00 00 00 00 00 00 00 00 00 00
       0.0 0.0 0.0 0.0
0001a0 00 00 00 00 00 00 00 00 00 00 00 00 00 00 00 00
       0.0 0.0 0.0 0.0
0001b0 00 00 00 00 00 00 00 00 00 00 00 00 00 00 00 00
       0.0 0.0 0.0 0.0
0001c0 00 00 00 00 00 00 00 00 00 00 00 00 00 00 00 00
       0.0 0.0 0.0 0.0
0001d0 00 00 00 00 00 00 00 00 00 00 00 00 00 00 00 00
       0.0 0.0 0.0 0.0
0001e0 00 00 00 00 00 00 00 00 00 00 00 00 00 00 00 00
       0.0 0.0 0.0 0.0
0001f0 00 00 00 00 00 00 00 00 00 00 00 00 00 00 00 00
       0.0 0.0 0.0 0.0

network_body._body_endoder.seq_layers.0.weight f4 [128, 64]
000000 6c 08 51 3e 86 5e d0 3d 16 5c 86 3d 51 59 77 be
       0.20413369 0.10174279 0.06560533 -0.24155165
000010 e7 db 87 bc 21 94 72 3d 32 c5 b5 bd 4a 4e 93 be
       -0.01658435 0.059223298 -0.08875503 -0.28770667
000020 d2 1f 01 be e2 8d 0d 3c 06 24 0f bc 2d 1f eb bc
       -0.12609795 0.0086397845 -0.008736616 -0.02870139
000030 b5 cf 61 bd 14 4f f2 bd 4a f7 e4 3d c7 d8 05 3c
       -0.055129725 -0.11831489 0.11179979 0.0081693595
000040 4d 2e 50 be b3 ca 88 bb bc 50 52 3d db c5 93 3e
       -0.20330162 -0.0041745543 0.051346526 0.2886189
000050 7f 88 64 be 27 e0 27 3d 9f cb d3 3d 76 2c a4 3d
       -0.22317694 0.040985253 0.10341572 0.08016293
000060 9d a7 4f bd 42 02 08 3d 10 61 c2 bd 20 bd 42 3d
       -0.050696958 0.03320528 -0.094911695 0.047543645
000070 a9 08 40 bd f6 12 31 bd 44 ee e6 3d 41 0c b3 3d
       -0.04688326 -0.043230973 0.11275914 0.087425716
000080 97 e6 86 3d fc 60 74 bd 6f 79 46 3e bd d4 38 be
       0.0658695 -0.059662804 0.1938226 -0.18049903
000090 f7 da 66 3e 4f 71 fa bd c1 2e 00 be 35 9b b4 bc
       0.22544466 -0.12228643 -0.12517835 -0.022046665
0000a0 7f be 38 3d a4 77 44 be c6 c4 a5 3d 86 59 12 3c
       0.045103546 -0.19186264 0.08094172 0.008932477
0000b0 6b d7 99 bb af 00 eb 3d 59 76 86 be 8e e6 90 3d
       -0.0046948693 0.1147474 -0.26262167 0.07075225
0000c0 a8 aa 89 3c 75 09 cc 3c bd e3 27 3d ec 8a 04 39
       0.016805008 0.024906853 0.040988673 0.00012640253
0000d0 1d e0 8e 3c 60 98 4c bd 8e 8b eb 3d fd 68 86 3d
       0.01744085 -0.049950004 0.11501227 0.06562994
0000e0 f2 c4 91 3b d3 0f 01 3e e1 c9 f6 3c e3 35 96 3d
       0.0044485265 0.12603693 0.03012556 0.07334497
0000f0 69 df f4 bd fb 12 59 3e 9f 99 47 bd 08 32 db 3b
       -0.119566746 0.21198647 -0.04873049 0.006689314
000100 f4 e0 5b be 9b 49 8e 3d 5b 84 e5 bd 45 b9 bf bc
       -0.21472532 0.06947633 -0.112068854 -0.023403773
000110 9f 6a a9 b9 91 ce 23 be 6c 51 db bd 39 2c fe bd
       -0.0003231363 -0.15996768 -0.10708889 -0.124107786
000120 37 bd 6f 3e f6 33 b0 bd 56 ae cb bd 04 a6 82 bd
       0.23412023 -0.08603661 -0.09945361 -0.06379321
000130 15 65 c7 3d 96 f5 3d 3e ec a8 7b 3c 0d c5 c0 bc
       0.09736077 0.18550715 0.015360098 -0.023531461
000140 3f 32 93 3d 70 ba fe 3d d5 4a f9 bc 66 66 74 be
       0.07187318 0.12437904 -0.03043119 -0.23867187
000150 c3 95 0a 3e 61 70 ba bd 4f db c2 3d 5d aa 8c 3c
       0.13533692 -0.09103466 0.09514486 0.01717108
000160 13 5a a6 bd db 7d 0d bd ba 62 81 3e 65 c0 a0 3d
       -0.08122649 -0.034543853 0.25270635 0.07849196
000170 0b a5 be 3d 47 14 b3 bd da 3a ae 3b d6 8e 18 3e
       0.09308823 -0.08744102 0.0053170742 0.14898238
000180 34 7a b9 bc 46 20 11 3e 91 6b df 3d c7 36 80 bc
       -0.022641279 0.14172468 0.109091885 -0.01565112
000190 3c 94 6f bd d5 d3 18 be 7e 1c 73 be d2 00 be 3d
       -0.058490977 -0.14924558 -0.23741338 0.092775
0001a0 00 62 65 be af 7e 24 bc 1c c7 56 3c 46 d9 78 3d
       -0.22400665 -0.010039969 0.013108995 0.060754083
0001b0 6e 69 57 3d c1 f7 53 be ab ba 1c 3e c6 75 93 bd
       0.05259078 -0.2069998 0.15305583 -0.07200198
0001c0 40 f5 d5 bc be 58 32 3e d8 03 2d 3e 24 54 93 3c
       -0.02611792 0.17416665 0.16895998 0.017984457
0001d0 0b 00 19 3c c2 f5 7a bd 94 3e a9 bc f4 b4 7e be
       0.009338389 -0.06126953 -0.020659722 -0.24873716
0001e0 a1 0e 08 3d 96 c4 39 3e 13 49 8e 3b c0 8f 58 3e
       0.033217076 0.18141398 0.004342207 0.21148586
0001f0 38 2f e5 3c 3d 76 3f 3d cf ad d9 3c ec 9c 50 bd
       0.027976617 0.04674362 0.026572136 -0.050930902
000200 8f 56 66 bc c4 49 f4 bd ac c8 a1 3d fa 29 1b 3e
       -0.014058723 -0.11928132 0.07899603 0.15152732
000210 ff 29 96 be 9f ff 75 3b d2 be 67 3c e6 ca 37 be
       -0.29328915 0.0037536395 0.014144616 -0.17948493
000220 5f fa 27 be 76 fc 2f bc 87 73 05 be 37 fb ca 3a
       -0.16404103 -0.010741344 -0.13032351 0.0015486245
000230 d2 60 b6 3c ff 53 a8 3d 61 b7 4a bd a2 8b e5 bd
       0.022262964 0.08219146 -0.04949129 -0.112082735
000240 89 5e dd 3b 1b ed 0d be 6c da 99 3b 98 01 c5 3d
       0.0067556542 -0.1385998 0.0046952274 0.096194446
000250 da 74 15 3e 2a de 42 3e cd b2 85 be f8 38 d8 bc
       0.14595357 0.19030061 -0.26112977 -0.026394352
000260 8e 33 0d 3e e8 a9 49 3b 0c 73 45 3d 0f c8 83 3d
       0.13789198 0.0030771438 0.04820542 0.064346425
000270 fb b2 cf bd aa 68 cb 3d e0 47 28 3e 7a 5d 07 bc
       -0.1014156 0.099320725 0.16433668 -0.008262033
000280 30 93 76 3e 37 35 21 3e 01 f5 07 be 9d 5d 27 bd
       0.24079585 0.15742956 -0.13277055 -0.04086076
000290 0d 3c b4 3d 44 e2 ed bd f0 12 10 be 08 30 ee 3c
       0.08800516 -0.11615422 -0.14069724 0.029075637
0002a0 45 4a 1d be a3 f6 64 bc 4e c1 a4 3d 7a fb b9 3c
       -0.15360363 -0.013974818 0.080446824 0.022702921
0002b0 44 73 aa 3d 7c ad 09 3e 34 b8 b1 3d e1 d3 f0 bc
       0.083227664 0.13445085 0.08677712 -0.029397907
0002c0 84 4d 06 bd 6e b0 b2 bb bf 6d b7 3d ad 9b 94 bc
       -0.03278877 -0.005453161 0.08956479 -0.018140638
0002d0 c5 50 f9 bd 84 5a d7 3d 80 de 30 bd a5 1c 2c 3d
       -0.12173609 0.10515311 -0.043180943 0.042019505
0002e0 2f 6b 26 be bc 23 d3 3d 03 a6 04 be 12 b9 cf 3d
       -0.16251825 0.1030955 -0.12953953 0.10142721
0002f0 f9 46 cf 3d da 32 d9 3c a2 84 ea 3d 2d 3b 92 bd
       0.10120959 0.026513506 0.11451079 -0.07140193
000300 84 6c 04 3d 6e 88 d0 3d e2 b5 85 3e 50 0e 99 bd
       0.03233005 0.10182272 0.26115328 -0.07473433
000310 89 f1 f8 bd a7 8d d3 bc 26 02 80 bc 39 a6 9d bd
       -0.12155444 -0.025824381 -0.015626024 -0.0769772
000320 a1 b9 c5 bd 83 69 e5 bd 68 3d 73 3d 98 41 b3 bb
       -0.096545465 -0.112017654 0.059384733 -0.005470466
000330 07 34 88 bb 88 fc 17 be d1 a8 2a be 6a 15 87 bd
       -0.004156593 -0.14842427 -0.16665961 -0.06595881
000340 08 3f 7f be 2e 0d 21 3e 1a 7e a8 bc bb 5c 0f 3e
       -0.24926388 0.15727684 -0.020567942 0.14000218
000350 be ff 31 be 87 b8 4f bd 26 47 7c 3c 36 b8 e1 bd
       -0.17382714 -0.05071309 0.0153978225 -0.110214636
000360 09 ec 62 bc 5f ea 55 bd c5 5a 79 3d 05 0b 04 bd
       -0.0138502205 -0.052225467 0.06087758 -0.03223707
000370 6a 5c 4e 3e f1 24 a6 3d 33 26 e6 3c c7 28 3b bd
       0.2015244 0.08112515 0.028094387 -0.045693185
000380 ad 86 bd 3d ec 80 db 3c b8 9f 09 be b2 f8 41 bc
       0.09254203 0.026794873 -0.13439834 -0.011839079
000390 cd 87 ec bc 9f e5 82 bd 5a 44 73 3e e4 c3 94 3d
       -0.028873349 -0.06391453 0.23756543 0.07263926
0003a0 a9 b6 27 bd 19 ed 95 3c 88 6b 05 3d 17 02 51 be
       -0.040945683 0.018301534 0.032573253 -0.20410953
0003b0 b9 93 a8 3d 76 ea 5a 3c ac 1c 7c be b2 fc 1c be
       0.08231301 0.013361564 -0.24620312 -0.1533077
0003c0 4f 89 b1 3c bd e3 ab bb ef e5 cb bd da 06 a5 bc
       0.02167192 -0.0052456544 -0.09955966 -0.020144869
0003d0 d5 03 8b 3c a3 13 8d bd 65 5e ce bd 4e 78 a0 bd
       0.0169696 -0.06888511 -0.10076598 -0.07835446
0003e0 67 8b ed bd 42 8b c5 bd 55 a8 0b 3d aa 4f 00 3e
       -0.115988545 -0.09645702 0.03409608 0.1253039
0003f0 e8 fa 63 3d 24 22 a0 bd a7 9e 41 3e 56 78 04 3e
       0.055659205 -0.07819012 0.18908177 0.1293653

network_body._body_endoder.seq_layers.2.bias f4 [128]
000000 00 00 00 00 00 00 00 00 00 00 00 00 00 00 00 00
       0.0 0.0 0.0 0.0
000010 00 00 00 00 00 00 00 00 00 00 00 00 00 00 00 00
       0.0 0.0 0.0 0.0
000020 00 00 00 00 00 00 00 00 00 00 00 00 00 00 00 00
       0.0 0.0 0.0 0.0
000030 00 00 00 00 00 00 00 00 00 00 00 00 00 00 00 00
       0.0 0.0 0.0 0.0
000040 00 00 00 00 00 00 00 00 00 00 00 00 00 00 00 00
       0.0 0.0 0.0 0.0
000050 00 00 00 00 00 00 00 00 00 00 00 00 00 00 00 00
       0.0 0.0 0.0 0.0
000060 00 00 00 00 00 00 00 00 00 00 00 00 00 00 00 00
       0.0 0.0 0.0 0.0
000070 00 00 00 00 00 00 00 00 00 00 00 00 00 00 00 00
       0.0 0.0 0.0 0.0
000080 00 00 00 00 00 00 00 00 00 00 00 00 00 00 00 00
       0.0 0.0 0.0 0.0
000090 00 00 00 00 00 00 00 00 00 00 00 00 00 00 00 00
       0.0 0.0 0.0 0.0
0000a0 00 00 00 00 00 00 00 00 00 00 00 00 00 00 00 00
       0.0 0.0 0.0 0.0
0000b0 00 00 00 00 00 00 00 00 00 00 00 00 00 00 00 00
       0.0 0.0 0.0 0.0
0000c0 00 00 00 00 00 00 00 00 00 00 00 00 00 00 00 00
       0.0 0.0 0.0 0.0
0000d0 00 00 00 00 00 00 00 00 00 00 00 00 00 00 00 00
       0.0 0.0 0.0 0.0
0000e0 00 00 00 00 00 00 00 00 00 00 00 00 00 00 00 00
       0.0 0.0 0.0 0.0
0000f0 00 00 00 00 00 00 00 00 00 00 00 00 00 00 00 00
       0.0 0.0 0.0 0.0
000100 00 00 00 00 00 00 00 00 00 00 00 00 00 00 00 00
       0.0 0.0 0.0 0.0
000110 00 00 00 00 00 00 00 00 00 00 00 00 00 00 00 00
       0.0 0.0 0.0 0.0
000120 00 00 00 00 00 00 00 00 00 00 00 00 00 00 00 00
       0.0 0.0 0.0 0.0
000130 00 00 00 00 00 00 00 00 00 00 00 00 00 00 00 00
       0.0 0.0 0.0 0.0
000140 00 00 00 00 00 00 00 00 00 00 00 00 00 00 00 00
       0.0 0.0 0.0 0.0
000150 00 00 00 00 00 00 00 00 00 00 00 00 00 00 00 00
       0.0 0.0 0.0 0.0
000160 00 00 00 00 00 00 00 00 00 00 00 00 00 00 00 00
       0.0 0.0 0.0 0.0
000170 00 00 00 00 00 00 00 00 00 00 00 00 00 00 00 00
       0.0 0.0 0.0 0.0
000180 00 00 00 00 00 00 00 00 00 00 00 00 00 00 00 00
       0.0 0.0 0.0 0.0
000190 00 00 00 00 00 00 00 00 00 00 00 00 00 00 00 00
       0.0 0.0 0.0 0.0
0001a0 00 00 00 00 00 00 00 00 00 00 00 00 00 00 00 00
       0.0 0.0 0.0 0.0
0001b0 00 00 00 00 00 00 00 00 00 00 00 00 00 00 00 00
       0.0 0.0 0.0 0.0
0001c0 00 00 00 00 00 00 00 00 00 00 00 00 00 00 00 00
       0.0 0.0 0.0 0.0
0001d0 00 00 00 00 00 00 00 00 00 00 00 00 00 00 00 00
       0.0 0.0 0.0 0.0
0001e0 00 00 00 00 00 00 00 00 00 00 00 00 00 00 00 00
       0.0 0.0 0.0 0.0
0001f0 00 00 00 00 00 00 00 00 00 00 00 00 00 00 00 00
       0.0 0.0 0.0 0.0

network_body._body_endoder.seq_layers.2.weight f4 [128, 128]
000000 ca 6a 05 3c b8 87 04 3d 4a cc 24 3d 15 4d 8e 3d
       0.008143136 0.032355994 0.040233888 0.06948296
000010 a6 c3 2d 3d 5c 56 ae bc 09 d0 13 3d 24 fc d3 bd
       0.042422913 -0.021281414 0.03608707 -0.103508264
000020 98 f8 b9 bc e1 fd 05 3e 2b 14 06 3c 75 d7 75 3d
       -0.022701547 0.13085128 0.008183519 0.06001993
000030 34 11 34 3d 0f e9 cf bd 21 7a 48 3d bf ff 1d 3d
       0.04396172 -0.10151874 0.048944596 0.038573977
000040 a9 ea 0a bc 38 c9 2d 3d 95 c5 8e 3c 48 a2 36 3d
       -0.008478799 0.042428225 0.017428199 0.044588357
000050 f9 6e a8 3d de a6 5e bd dc 68 56 3d 61 69 f2 bd
       0.08224291 -0.054358356 0.052346095 -0.11836506
000060 1a 1c ba 3d 7d 2c 99 bc e5 af 8c bd 5a 34 2d 3b
       0.09087391 -0.018697971 -0.06869487 0.002642891
000070 e9 d9 1d 3e f2 43 34 bb f2 1a ec 3d 48 59 35 3d
       0.15415157 -0.002750632 0.11528577 0.0442746
000080 87 ea 36 3d ae ac fc bd 64 42 bc bc 2d be e8 bd
       0.044657256 -0.123376235 -0.022980876 -0.11364398
000090 81 9d 2c be 2d 86 b0 bc 92 88 9a 3c 62 b5 e1 bd
       -0.16856958 -0.021548355 0.01886395 -0.11020924
0000a0 cf c4 9c 3c 56 5e d6 3d 1b d2 88 bd d5 58 39 3e
       0.019136814 0.10467212 -0.066806994 0.18100293
0000b0 4d a1 2a 3d 69 0c 06 bd ab bf ae bd 49 55 51 bd
       0.041657735 -0.03272668 -0.085326515 -0.051106725
0000c0 bc ef d2 bc 10 48 00 3e 10 5e 37 bd 88 15 d5 3d
       -0.02574908 0.1252749 -0.04476744 0.104044974
0000d0 a6 e4 39 3d 5d a0 35 bd 8f 60 09 3c b0 c8 21 3e
       0.04538407 -0.044342387 0.008384838 0.15799212
0000e0 f5 43 dc bd 87 a0 09 3d a1 0b 04 3e aa 30 98 3d
       -0.10755149 0.033600356 0.12895061 0.07431157
0000f0 de 31 4e 3d 8d e7 15 bd 67 5c b6 3d bf dd d9 bd
       0.050340526 -0.036597777 0.08904343 -0.10637998
000100 d9 02 5b 3c 2d d3 db 3c 76 d7 0a be 93 c8 41 3d
       0.013367378 0.026834095 -0.13558754 0.047310423
000110 09 7d 73 bd c5 d7 2a 3d a4 6d 24 3e 9c 18 90 3d
       -0.059445415 0.04170968 0.1605745 0.07035944
000120 b8 48 da 3d 64 a1 04 3e ba ec bf bd bf 4e 70 bd
       0.10658401 0.1295219 -0.09371324 -0.058668848
000130 f2 22 22 bd fb 87 76 3d de 2f 04 be aa 05 30 3d
       -0.039584108 0.060188275 -0.12908885 0.04297415
000140 86 c1 94 bd b4 1f 8b 3d 9f cf 41 3d 06 96 8e b9
       -0.07263474 0.06793156 0.047317144 -0.00027196127
000150 fe 7b 77 bd cd b8 ec bd 3a 21 7f 3d 08 7b fa 3c
       -0.060420983 -0.115586855 0.062287547 0.030576244
000160 f3 7c 12 bd 58 df da bc 7c cc b4 3d d2 36 0c bd
       -0.035763692 -0.026717827 0.08828065 -0.03423197
000170 08 36 40 bd 35 cf 26 be 8d a1 ec 3d 8e 8b 78 bd
       -0.04692653 -0.1628998 0.11554251 -0.060679965
000180 4e 8d 91 bd f6 a8 be 3d ee d1 37 be ef 5f 77 3d
       -0.0710703 0.093095705 -0.17951176 0.060394224
000190 34 32 58 3e 84 73 8b 3d 1a 5a 18 bd 8f 69 8e bd
       0.21112901 0.06809142 -0.037195303 -0.069537275
0001a0 fc 51 6c bd f7 90 11 3d 5d b6 25 3e 05 fe e9 3c
       -0.057695374 0.03553864 0.16182847 0.028563509
0001b0 d7 0d 09 be 34 76 15 be ac 6f 46 bd af 35 cc bb
       -0.13384186 -0.14595872 -0.048446342 -0.0062319855
0001c0 43 d2 58 3d bc fd c9 3d 1d 36 e4 bd 14 4b 94 3c
       0.052934896 0.09862849 -0.11143134 0.018102206
0001d0 b9 bb 7c 3d 4b de d8 bb d1 dd 53 bc d7 c6 5c 3d
       0.061702464 -0.0066182963 -0.012931303 0.053900566
0001e0 b6 d2 c9 bd 2e 77 b0 bd a7 ed 2d 3b 7f 35 f2 bd
       -0.09854643 -0.08616482 0.0026539357 -0.1182661
0001f0 3e 2f b9 bd aa cf 82 bd f8 e3 98 3d 91 8e 1e 3c
       -0.09042214 -0.06387265 0.074653566 0.009677545
000200 63 76 d1 bd c7 e4 94 3d 43 8f 50 3d 66 e5 3f 3d
       -0.102276586 0.07270198 0.050917875 0.04684963
000210 41 29 c0 bd 70 24 20 3d a5 62 87 3c fe 0a 11 bd
       -0.093828686 0.03909725 0.01652653 -0.035410874
000220 87 2b 61 bd e6 9f 0e 3d f5 3c 09 be e2 91 d1 3c
       -0.05497315 0.03482046 -0.1340216 0.025582258
000230 0e 0d be bc ed 21 1c 3e 80 10 d5 bc 37 c5 f0 bb
       -0.023199584 0.15247317 -0.026008844 -0.0073477286
000240 8c f1 c1 bc 4a b7 8e bd 9d 5a 42 bb 35 77 cc 3d
       -0.023674749 -0.06968553 -0.002965606 0.099836744
000250 31 84 2d be ca de 65 3d ad e5 5c bd f3 0d db 3c
       -0.16944958 0.05612067 -0.053929973 0.02674005
000260 f3 fd 9b bc 6c 0f fb bd 1a 28 2b bd 63 cd 64 3d
       -0.01904199 -0.12258801 -0.04178629 0.055859935
000270 1f 14 78 3c 78 40 05 bd 94 96 28 bd fc 4c 30 bc
       0.015141516 -0.032532185 -0.041159227 -0.010760542
000280 61 0d eb 3d 85 05 2f 3d ce 1d 67 bd 4e 9d 3b 3d
       0.11477161 0.042729873 -0.05642491 0.045804314
000290 ac 75 16 3d 13 db 81 bc 0a 5a 04 bd 9c a8 c9 bc
       0.036733314 -0.015851533 -0.03231243 -0.024616532
0002a0 73 0a a9 3d ac b6 52 bd 04 dd 33 bc eb e6 09 3d
       0.08253946 -0.05144374 -0.010977987 0.033667486
0002b0 ca 93 49 bc 53 82 a1 bb a6 1b 0c bc 2c 3c 4b 3e
       -0.012303302 -0.004928866 -0.008551514 0.19847172
0002c0 61 81 72 3d d4 39 32 3e 2b 23 07 3d 35 92 ae bd
       0.059205417 0.17404872 0.032992523 -0.085239805
0002d0 6d e8 eb bc 72 60 ba 3d d3 01 11 3e e0 7f da bd
       -0.028797353 0.09100427 0.14160852 -0.106689215
0002e0 e4 5d 3d be e1 42 d0 bd 66 99 38 3d 61 e0 cf bd
       -0.18492848 -0.10169006 0.045068167 -0.10150219
0002f0 13 44 68 3d 3e df 8d bd b0 8a a9 3d 6f fd 8f 3d
       0.056705546 -0.06927346 0.08278406 0.070307605
000300 64 1d 1c 3d 41 5e ea 3b 02 6f 7a bc d8 c8 19 3e
       0.038113967 0.007152349 -0.015285255 0.15018022
000310 40 66 49 3d ae 9b 78 bc ff ec 9d bd d2 ea 84 3c
       0.04916978 -0.015173836 -0.07711219 0.016225252
000320 77 fa 65 3e d2 26 62 bc f8 06 a1 3d 1f f4 0b bd
       0.22458826 -0.013803201 0.07862657 -0.03416836
000330 dd dc b3 bd 7a a0 6b bc 2d 23 8a bd 24 77 6c bd
       -0.08782361 -0.014381522 -0.067449905 -0.05773081
000340 77 ba 5e bd c6 b7 0e bd fa d8 72 bd 3a ad b9 39
       -0.054377045 -0.03484323 -0.059288956 0.00035415014
000350 e3 59 93 3d da 7d 79 ba ea 32 18 be 42 e9 53 bd
       0.07194879 -0.00095173495 -0.14863172 -0.051736124
000360 00 ae 57 bd 92 c3 1e 3d b0 20 94 bd fd e3 d4 3c
       -0.052656174 0.03876073 -0.07232797 0.02598762
000370 d8 53 af 3d e5 7a 18 3b 32 b7 13 bd 03 3d aa 3d
       0.08560914 0.002326661 -0.03606338 0.08312418
000380 be 20 6e 3d e3 b7 09 be e4 22 2a be db fe 05 3e
       0.058136694 -0.13449053 -0.16614872 0.13085501
000390 f9 83 d4 bd 70 27 a4 3d a8 1e 17 bd aa 65 35 3c
       -0.10376734 0.080153346 -0.03689447 0.011071602
0003a0 16 f9 19 bc 91 6a 9f 3d b6 c6 98 3c b5 14 18 3d
       -0.009397766 0.07783998 0.01864944 0.037129123
0003b0 eb fd 3c bd d7 85 eb bd 00 b9 c3 3d 4f c2 f0 3d
       -0.046140593 -0.11500137 0.0955677 0.117558114
0003c0 aa e6 29 be 7b 22 df bd c3 64 04 3e 1a 1a 17 be
       -0.16591898 -0.108952485 0.12929063 -0.1475605
0003d0 1e 98 2b 3d cb a7 7e bd fc 9d e4 bd 64 76 8f bc
       0.041893117 -0.06217174 -0.11162946 -0.017512508
0003e0 01 f9 5d be b4 52 27 3c c6 2f ed 3d 8e 4e a7 3d
       -0.21677019 0.010212589 0.11581378 0.0816928
0003f0 50 20 c1 3c 43 1c a2 bd 5c 80 ff bc a5 eb 8e bd
       0.023574978 -0.07915547 -0.031189136 -0.069785394
